notebooks/lightning_logs/version_53977655/checkpoints/epoch=999-step=1000.ckpt (torch, 225919 bytes, 18 tensors)

model._encoder.weight f4 [64, 14]
000000 bc 38 8c bd 85 dc 16 3f c5 57 c6 be 49 b7 87 be
       -0.06846759 0.58930236 -0.38738838 -0.26507023
000010 c3 37 08 be 22 1d ec 3e 79 0f 8c be be 48 98 be
       -0.13302521 0.46115977 -0.27355555 -0.29742998
000020 dc 17 c8 3d 87 95 0e be 17 7c 6b bc 28 f8 da bc
       0.09770176 -0.13924228 -0.014372847 -0.026729658
000030 03 2d 91 3e 0e b3 09 3e 57 ca 4d 3d 06 d3 56 be
       0.28354654 0.1344721 0.050241794 -0.20978937
000040 5b 4f 95 3d 30 75 2b 3e 0a 55 2e bd 2d a4 84 3e
       0.072905265 0.16743922 -0.04256157 0.25906506
000050 22 7d 5a be 68 3e 80 be bb 98 64 be a0 91 1c be
       -0.21336797 -0.25047612 -0.22323887 -0.15289927
000060 93 37 96 3e 5c c8 ed 3e c1 4c a1 3e f3 f8 95 3d
       0.29339275 0.46441925 0.3150387 0.07322874
000070 6a 5b 12 3f ec b4 5c be e0 8c a6 3d 46 c8 06 3f
       0.57170737 -0.21553391 0.081323385 0.52649343
000080 c7 9f 60 be 07 b0 02 bd 95 d8 ac be 81 db 0e be
       -0.2193595 -0.031906154 -0.3375899 -0.13950922
000090 d8 d0 d0 3e 24 6a 0f 3f 4b b7 9c bd 1c de 85 be
       0.40784335 0.5602133 -0.07652148 -0.26146019
0000a0 eb 50 06 bd 6c 6e af 3e 10 80 ed 3d a3 4d dd bc
       -0.032792013 0.34263933 0.115966916 -0.02701456
0000b0 bf 15 cf be f3 0f 22 bd 83 4e 27 3e 45 b4 90 be
       -0.40446278 -0.03956599 0.16338544 -0.28262535
0000c0 57 95 2c 3e b5 8e ae be 73 6a 05 bd d8 b1 9e bd
       0.16853844 -0.34093252 -0.03257222 -0.07748765
0000d0 a4 80 c0 bd f9 ed a3 3e 14 93 48 3d dd 49 bd be
       -0.09399536 0.32017496 0.04896839 -0.36970416
0000e0 aa 83 21 3e a1 ea 9d 3e 87 ef b8 3e dc 27 c7 be
       0.15772882 0.3084307 0.36120245 -0.38897598
0000f0 a7 73 c3 3e c2 3c 99 be 7e 4b 47 be ed ae 55 3d
       0.38174173 -0.29929167 -0.19462392 0.052168775
000100 5f bc d9 bd f9 4f b6 3d 36 0a 2a 3e f8 5c ce bb
       -0.10631632 0.08901972 0.16605458 -0.006297704
000110 f0 76 b6 3e b8 a5 11 3f d5 d5 f1 bd 64 2f b5 bd
       0.35637617 0.5689349 -0.11808363 -0.0884693
000120 7c 4d 02 bf 48 b9 06 3f 08 bf b2 be f6 25 b2 bd
       -0.5089948 0.52626467 -0.3491137 -0.08698647
000130 b2 ae 05 be cb 9f a7 be 85 7b 23 be 47 d7 0e bd
       -0.13054922 -0.327391 -0.15965088 -0.034873273
000140 47 7a 8e be 45 69 ca 3e dd 5c 04 3e 67 36 cd 3d
       -0.27827665 0.3953344 0.1292605 0.10020142
000150 05 66 46 be d9 7c 1b bd 87 77 11 be 16 b5 02 3e
       -0.19374855 -0.03796086 -0.14205752 0.12764391
000160 bb f0 0f bd 4a 1d 5e 3d 16 85 a5 bd d7 9a c2 3d
       -0.035141688 0.05422715 -0.08082025 0.095021896
000170 29 72 12 bf be 98 f9 bd ab 52 00 bf cc f1 70 be
       -0.57205445 -0.121873364 -0.5012614 -0.23529738
000180 3a 98 17 bf 81 bc a7 be 4e 6f 85 3d 5f 6f 3c be
       -0.59216654 -0.32761005 0.0651537 -0.1840186
000190 e5 54 a5 3d 58 41 0d 3f 0a 7f 16 bf 43 dc a6 3e
       0.08072833 0.5517783 -0.58787596 0.3258992
0001a0 d0 df 92 bd e9 d9 55 3d de 50 73 3e 7b c7 65 bd
       -0.07171595 0.05220977 0.23761317 -0.056098443
0001b0 89 66 07 be f8 38 76 bd 26 f2 d8 be 56 5f 8c be
       -0.13222708 -0.060112923 -0.42372245 -0.27416486
0001c0 c6 16 5b 3d 49 b7 80 be 54 6d 2c 3e bc dc 26 3e
       0.053488515 -0.25139835 0.1683858 0.16295141
0001d0 16 19 a8 be 05 fe c4 be eb fe 9c 3e ff 36 1e be
       -0.3283164 -0.38475052 0.30663237 -0.15450667
0001e0 05 e6 3b 3f cc e5 90 be 97 21 48 3e ff 97 f9 3d
       0.73397857 -0.2830032 0.19544064 0.12187194
0001f0 66 97 0b be b8 e0 b9 be 9a c8 cb 3e ff 00 35 3e
       -0.13631973 -0.3630426 0.39801484 0.17676161
000200 ed b7 21 3f bf 85 e1 be fa ff ae be 12 d5 15 3b
       0.63171273 -0.44047353 -0.3417967 0.0022862596
000210 c2 96 8a be 53 75 01 be 34 be a6 3e c9 62 e9 ba
       -0.27068144 -0.12642412 0.32566988 -0.001780593
000220 50 a6 bd bc 42 e3 14 be 9e 04 ee 3e dd 33 cc 3e
       -0.023150593 -0.14539817 0.46487898 0.3988332
000230 35 09 df 3e 71 e4 e9 3d 2a de d5 3d b0 e5 05 be
       0.43561712 0.11420525 0.10442765 -0.130759
000240 0c 2d b1 3d 97 a2 11 be 42 43 9b 3e 3c b4 35 be
       0.0865117 -0.1422218 0.3032475 -0.17744535
000250 50 ac 0f 3e 31 17 00 3e 99 00 8e 3e 6f c7 1c be
       0.14030576 0.12508847 0.2773483 -0.15310453
000260 07 f8 24 be 25 39 be bd 03 fa 1a 3d da fc 7a 3e
       -0.1611024 -0.09288243 0.037836086 0.24510518
000270 a2 2d 95 be be e0 f4 3d 5f 8a db 3c 8a e0 dd 3c
       -0.29136378 0.11956929 0.026799379 0.027084608
000280 26 60 34 bf fe d6 4e be 56 95 c7 be f5 60 40 be
       -0.7045921 -0.201992 -0.38981122 -0.18786986
000290 72 93 0e bd 89 98 d6 3e c4 ca b2 be 94 e8 cb 3e
       -0.034808584 0.4191325 -0.34920323 0.3982588
0002a0 4b d2 8b 3e ab 55 17 3e cb 78 90 be 95 5f a1 3e
       0.27308878 0.14778773 -0.28217158 0.31518236
0002b0 d2 5b 94 3d 93 c9 ec 3d d4 f0 86 3d db 3a b3 3c
       0.07244076 0.11561885 0.06588903 0.02187865
0002c0 27 4c a0 be 2d 31 c9 3d c9 09 78 3d 1f f0 2c 3f
       -0.313081 0.09823833 0.060556207 0.67553896
0002d0 ba 16 90 be c9 29 b7 3e 1a 7c ef 3e c5 19 c0 bb
       -0.2814234 0.35774067 0.4677437 -0.005862447
0002e0 35 42 8f 3c 49 b0 b4 bc e2 16 64 be 9d 8f e2 3c
       0.017487625 -0.022056716 -0.22274354 0.02765637
0002f0 90 e5 16 be 64 d6 bc be b8 db c7 3e 8d cb 83 3e
       -0.14736009 -0.36882317 0.3903482 0.25741234
000300 65 d7 0f be 30 d4 66 3e 84 a5 2b 3f d7 3b 8d be
       -0.1404701 0.2254188 0.6704943 -0.27584717
000310 27 32 7b be bf 2b 84 be bf cf 6a 3e f9 42 d1 be
       -0.2453085 -0.25814626 0.22930811 -0.4087141
000320 92 f1 7f 3e cc fd 7c 3e b7 5b 57 3e 98 27 b8 3c
       0.24994496 0.24706191 0.2103108 0.022479817
000330 8d 04 a1 3c 7e 1d f8 3d bd 4e bc be d0 0c df 3b
       0.01965549 0.12115 -0.36778823 0.0068069473
000340 68 65 ea 3c 4b 69 ca be 58 1f 95 3d d5 39 8d 3e
       0.028612807 -0.39533457 0.07281369 0.27583185
000350 54 45 79 3e 24 2e 43 bf 2d 76 1a 3e a1 cc e6 bd
       0.24342853 -0.7624228 0.15084143 -0.112694986
000360 a2 39 d1 be ff d4 bc 3c be c1 74 be 77 99 60 bd
       -0.40864283 0.023050783 -0.23902032 -0.054833855
000370 04 aa 76 bd 1b 9e 79 3d a9 3b 3d 3e 2b ad fe bd
       -0.060220733 0.060941797 0.1847979 -0.12435373
000380 2e 6a 55 3d fb 6f f4 3e 28 ed 8c be 5b ea 22 bf
       0.052103214 0.47741684 -0.27524686 -0.6363885
000390 3f 8c 23 3e 74 11 42 be 8f 33 81 3d 6d c1 27 be
       0.15971468 -0.1895197 0.06308662 -0.1638238
0003a0 36 81 e7 be 00 a1 c2 be 19 ef 46 3e 6f 14 f9 bc
       -0.45215768 -0.38013458 0.19427146 -0.030405251
0003b0 aa df da bd 00 e3 99 3e 21 16 49 bd 81 ea 96 3d
       -0.10687192 0.30056 -0.04909337 0.07368947
0003c0 68 39 e2 3e 6f 20 06 3e 4f d2 98 bd 18 ec 51 3e
       0.44184422 0.1309831 -0.07461988 0.20500219
0003d0 65 c2 bb 3e 3c 12 07 be 5e 18 46 3e ba a2 5e 3e
       0.3667175 -0.1319055 0.19345233 0.21741763
0003e0 07 15 b5 bd c6 29 30 3e a3 1b f4 bd 13 af cd 3d
       -0.08841901 0.17203435 -0.11919334 0.100431584
0003f0 cb 0e ea 3e b5 ac 5e 3e a1 1b ba 3e f7 ff a1 3d
       0.4571441 0.2174557 0.36349204 0.079101495

model._decoder.weight f4 [8, 64]
000000 59 c9 1b bd 63 cb b2 be 37 44 ce 3d 1d 94 30 be
       -0.038033817 -0.34920797 0.10071605 -0.17244
000010 e7 bf 83 3e 16 6f d4 be e5 a8 94 3d ca 18 fa 3c
       0.25732347 -0.41491002 0.072587766 0.030529398
000020 11 dc bc 3d a5 f7 c4 3d 43 e3 8b 3e 81 92 01 be
       0.09221662 0.09617547 0.27321824 -0.12653543
000030 71 9e ff 3d c3 70 79 3e 24 7e 61 3e 48 fb 15 3e
       0.12481392 0.24359421 0.22020775 0.14646637
000040 8d e4 95 be 6b 77 f9 3d 66 53 ff bd 38 db 31 bd
       -0.29275933 0.1218098 -0.12467079 -0.043421954
000050 5a 7c 30 3e 33 d6 39 be 5d d6 e2 bc 78 96 67 bd
       0.17234936 -0.18148117 -0.027690107 -0.056539983
000060 5b b1 c2 bd 15 c0 e7 3d 89 7f 04 be 6f fa 15 be
       -0.09506484 0.113159336 -0.12939276 -0.14646314
000070 56 29 09 be 5c 3a 09 3e fa 75 7c 3d f1 c9 81 be
       -0.13394675 0.13401169 0.06163595 -0.25349382
000080 04 cd 32 3e 3f 3d 63 3e ef 62 76 be ed 71 e4 bd
       0.1746102 0.22191332 -0.24061178 -0.11154542
000090 7b 58 37 3e 19 d2 ad 3c a1 13 1f bc a9 6d 70 bd
       0.17904846 0.021218346 -0.00970927 -0.05869833
0000a0 b8 ed 2b be c5 20 ba 3b 44 d2 c3 bd 63 32 57 3e
       -0.16789901 0.005680176 -0.09561589 0.21015315
0000b0 9d d3 02 bd e5 0f 60 be d0 42 d1 be 03 c6 07 3e
       -0.03194009 -0.21881063 -0.40871286 0.13259129
0000c0 dd ab 0c be 92 6c b2 3e bc e1 b9 bd c9 d7 43 3d
       -0.13737436 0.34848458 -0.090762585 0.04781321
0000d0 3d af 37 3e 3c d8 26 3e 9b 2d 0f bc e0 ad ae 3e
       0.17937942 0.16293424 -0.008738901 0.3411703
0000e0 6c 0d 0e 3e 1e f2 01 3e 80 5f 29 3e 9c c6 b1 3e
       0.13872308 0.12690017 0.16540337 0.3472184
0000f0 0d 0c 67 3e ac cb 73 be 96 cf c7 be e5 72 92 3c
       0.22563191 -0.23808163 -0.39025563 0.017877052
000100 e3 2f 74 be 3c d0 8e be c8 35 40 bc ba db 88 be
       -0.23846392 -0.27893245 -0.011731572 -0.26730138
000110 64 c8 85 be 41 f1 22 3e ed f0 87 be cb 5e ab 3d
       -0.26129448 0.15912344 -0.26551 0.0836769
000120 f1 1d 4d 3e 5c 76 ec bd f2 ca 8b 3e 87 5f a6 be
       0.20030953 -0.11546013 0.27303272 -0.32494757
000130 83 2b e3 bb 4a 81 74 3e 37 fc 85 3d a6 09 27 3e
       -0.0069326772 0.23877445 0.06542247 0.16312274
000140 d6 46 37 3c 43 9b f2 bc 14 3a d6 bd 03 02 7e be
       0.011186322 -0.02961505 -0.10460296 -0.24805455
000150 91 c3 a7 bd 9e be 8b 3d 50 94 84 3d 6d 85 80 bb
       -0.08191598 0.06823467 0.06473601 -0.0039221556
000160 64 c3 2c 3e 6e d5 62 3d ab ea 4a be 70 0e ff 3d
       0.1687141 0.055379324 -0.19816081 0.124539256
000170 11 53 b8 3d 04 da 6f 3d 65 70 9f 3d f8 f8 3b be
       0.09000219 0.058557525 0.077851094 -0.18356693
000180 a0 9e 8c 3e 1f fc 27 bd 21 ac 9e be 75 52 a0 bc
       0.2746477 -0.041011926 -0.309907 -0.019570569
000190 76 ca 53 bc 48 8f aa be 36 00 93 be fd 92 9c 3e
       -0.012926688 -0.3331244 -0.28711098 0.30580893
0001a0 21 16 1f 3e 9e f2 83 be bd 46 88 3c ab c7 47 3e
       0.15535785 -0.2577104 0.016635293 0.19509761
0001b0 0d 22 be 3e fb a4 c3 bd 75 e2 12 3e 78 da 80 be
       0.37135354 -0.09552952 0.14344199 -0.25166678
0001c0 a3 4f a5 3e 0c e0 8f bd 2c 75 09 3e 13 87 d3 3d
       0.3228732 -0.070251554 0.13423604 0.10328498
0001d0 4e 08 d6 3e ce 97 2c 3d e5 be 73 3e 1c 35 16 3e
       0.4180321 0.04213696 0.23803289 0.14668697
0001e0 94 c5 75 be 57 f3 ce bc 26 83 00 3e f4 c5 2e bd
       -0.24001151 -0.025262518 0.12550029 -0.04266925
0001f0 96 71 3a 3d ac 8d c8 3d 47 f3 83 3e eb 64 82 3c
       0.04551848 0.09792647 0.25771543 0.015917262
000200 ae fa c5 3e 21 de 87 3e 7e c5 5e bc 8c 32 18 3e
       0.38667816 0.26536658 -0.0135968905 0.14863032
000210 f4 ce 03 3e 2e af c5 3e 4d 04 f1 bd ae 37 84 be
       0.12871915 0.38610214 -0.117683984 -0.2582373
000220 ec a4 19 bd 05 83 3d 3e d3 62 03 3e c9 96 14 3e
       -0.037510797 0.18507011 0.12830667 0.14510645
000230 9e 46 db be cd 43 8d be 37 a1 72 be ab 9b 19 3e
       -0.42827314 -0.2759079 -0.23694311 0.15000789
000240 bf d9 43 3e 94 08 89 be 46 95 18 3e a3 c3 9b 3e
       0.19126032 -0.26764357 0.14900693 0.30422696
000250 1e 65 09 bd 8e fe 96 3e 33 6f 89 bc 54 c8 0a bd
       -0.0335437 0.29491085 -0.016776657 -0.033882454
000260 d4 cd 4f bc ac c8 99 be 59 96 e2 be c9 00 c4 bd
       -0.012683351 -0.30035913 -0.4425533 -0.09570462
000270 d7 90 73 3e 1c c3 e5 bc 61 68 26 be f3 66 51 3c
       0.23785721 -0.028047137 -0.16250755 0.012780893
000280 68 37 bf 3d 18 c7 08 3e 1b 0c 67 3d f2 e6 f3 3e
       0.0933674 0.13357198 0.05640803 0.47637135
000290 62 5a 83 3e 8e b6 bd 3c a5 bc 8c bd 7c 24 9d 3d
       0.25654894 0.023158338 -0.068719186 0.076729745
0002a0 e4 16 b3 3e 30 3b bc be 77 4f d7 3d d9 7f e9 bc
       0.34978402 -0.36763906 0.105132036 -0.028503345
0002b0 fe dd 58 3d 66 05 1e bd 16 78 c9 bd 93 a6 88 bd
       0.052946083 -0.038579367 -0.09837358 -0.066723965
0002c0 0c 46 81 3e 1b b1 5c be 13 78 71 3e 73 38 d3 bd
       0.25248754 -0.21551935 0.23580961 -0.10313501
0002d0 eb 51 c9 bd f2 7e 81 be 60 3a 2f be 5e 21 c7 3d
       -0.09830078 -0.25292164 -0.17112112 0.09723161
0002e0 f4 43 12 3e bc 9e b5 be 70 c7 6a be 35 8f 83 be
       0.14283735 -0.35472667 -0.22927642 -0.25695196
0002f0 1a b2 a3 3d b5 5e fc 3c 8d e0 c6 3c fd e7 df be
       0.079929546 0.030806879 0.024276996 -0.4373168
000300 e8 16 b8 3e 09 34 3d bd c9 7f 19 bd 45 34 1c 3e
       0.35954976 -0.046192203 -0.03747538 0.15254314
000310 30 3f 78 be 51 ad 13 3d c2 88 0c bc b1 8b 30 be
       -0.24242854 0.03605396 -0.0085775275 -0.17240788
000320 e6 e2 29 3d e6 12 86 bc eb 93 8d 3e 93 70 e5 be
       0.041476153 -0.016366433 0.27651915 -0.4481245
000330 2f df db 3d b2 93 6e be 19 63 84 bd 09 4e 86 be
       0.10735928 -0.23298529 -0.06464214 -0.2623141
000340 87 eb af 3d 0b c7 58 be 32 ed ab be 7c eb 81 3e
       0.08589845 -0.21169679 -0.33579403 0.25374973
000350 8c ba b3 be 3b 65 c0 3d 34 72 50 be f2 dc 4d be
       -0.3510326 0.09394308 -0.20356065 -0.20103815
000360 37 cd 2e be da 37 f3 bd f4 40 d8 be 37 14 d5 3d
       -0.17070471 -0.11875887 -0.42237055 0.10404246
000370 40 cd bd 3e 08 4e 45 be 58 62 85 be 6a 0e 89 be
       0.37070656 -0.19268048 -0.26051593 -0.2676881
000380 a3 ec cd bd b4 e0 0b 3e 27 da a5 3d 96 4a ae 3d
       -0.100549005 0.13659936 0.0809825 0.0851032
000390 70 5e 0b 3e 77 f4 88 be f3 11 a8 3e 2b b1 15 bd
       0.13610244 -0.26749012 0.32826194 -0.036545914
0003a0 9c 4d e3 bd c2 a4 6b be 2a bc 9a 3e 31 f7 df 3d
       -0.11098787 -0.23012069 0.30221683 0.1093582
0003b0 8a b7 46 3d c2 8c aa 3e 3f 0a a8 bd 79 d8 af 3d
       0.04851488 0.33310515 -0.08205079 0.08586211
0003c0 d4 07 0a 3e d9 fb c0 bd e2 f5 d4 bd e1 6c 3b be
       0.13479549 -0.09423036 -0.10398461 -0.18303253
0003d0 ae af e5 bd 79 9d 6f 3b 2b 8a bc 3d 3a ee 23 3d
       -0.11215149 0.0036562367 0.09206041 0.040022112
0003e0 2c 8d 3f bd e6 b8 c7 be 3d 6f be be 40 67 17 be
       -0.04676549 -0.39008254 -0.37194243 -0.1478548
0003f0 11 a2 9e 3b 0c 2c 0e 3e 1e 54 9b 3e dd 72 11 be
       0.004841097 0.1388399 0.30337614 -0.14203973

model._layers.0.weight f4 [64, 64]
000000 34 37 87 bd 51 7c d7 bd 6e 5c d9 bd d1 d1 a9 bd
       -0.06602326 -0.10521758 -0.10613333 -0.082919724
000010 5c e7 b3 3d a9 7e e2 3d 6e 12 9f 3d fd ea 0b 3e
       0.08784363 0.11059315 0.07767187 0.1366386
000020 76 28 26 bd ff bd 5a 3d 65 7a 46 be 52 a5 05 be
       -0.04056593 0.05340385 -0.19382627 -0.13051346
000030 b9 05 36 3e 1b 4d b0 bb 80 da 86 bd 45 3a 6f 3d
       0.1777562 -0.0053802854 -0.06584644 0.05840518
000040 44 88 b0 bd b0 cf ad bd 82 5b b7 bc a8 30 0e be
       -0.086197406 -0.08486879 -0.022382502 -0.13885748
000050 66 11 c5 be 75 3d 09 3e 1f c4 f1 ba 74 a7 59 3d
       -0.38489836 0.1340235 -0.001844529 0.05313821
000060 06 22 7a be 8f 30 90 3e 02 16 11 bd 26 ae fc 3e
       -0.24427041 0.28162047 -0.03542138 0.49351615
000070 00 92 da 3e cd bc 88 3d 83 50 a3 3a 7e e4 87 3e
       0.42689514 0.06676636 0.0012459907 0.26541513
000080 7d ae e9 bd a3 4c 34 bd 31 35 b3 3d 72 db 95 3e
       -0.11410234 -0.0440184 0.0875038 0.29268986
000090 2e 87 d1 bc ba 89 8d bc 24 83 d8 3d b9 0d 13 3d
       -0.025577154 -0.017277587 0.10571888 0.03590176
0000a0 5e 7d a9 3c a6 67 3d 3d f1 f7 fe bd 32 8b 29 3c
       0.020689663 0.046241425 -0.12449635 0.010348128
0000b0 4f eb 4a bd 04 a9 0a 3f e2 cf b0 3d df 2e 78 bb
       -0.049540814 0.5416415 0.086334005 -0.0037869734
0000c0 99 17 bd be f6 29 01 3e 3d b9 a4 bd 14 75 bf bd
       -0.36932066 0.12613663 -0.08043144 -0.09348503
0000d0 68 f8 11 be db bf a5 3e f4 79 10 bd 58 b1 d1 be
       -0.14254916 0.32372937 -0.035272554 -0.40955615
0000e0 8f 74 4a be 11 75 69 3e 27 f8 4d 3e df f4 2b 3e
       -0.19771026 0.22798564 0.20114194 0.1679263
0000f0 7e a6 0f be 25 7f 49 be 04 91 62 3e 82 7c ab be
       -0.14028355 -0.19677408 0.22125632 -0.3349343
000100 6e b8 e2 3d 00 44 1c be c1 ff 2b 3e f0 f3 4e 3e
       0.110703334 -0.15260315 0.16796781 0.20210242
000110 01 a4 4f bc 38 b3 8f be 8d 9d 7e 3e f4 28 ad 3e
       -0.012673379 -0.2806642 0.24864788 0.33820307
000120 35 a2 bb 3e 90 07 31 3e a6 92 e1 bd 24 fc c2 3c
       0.36647192 0.17288041 -0.11014299 0.02380187
000130 16 c6 33 be 1d 83 72 bd 06 42 f5 bd 6d b4 06 3e
       -0.17556033 -0.05920707 -0.119754836 0.13154764
000140 91 49 6a 3d 20 cc 49 be 08 58 d3 3c 0a a2 67 be
       0.057199065 -0.19706774 0.025798813 -0.22620407
000150 5c 46 8a bd 11 60 4f 3d 91 9d aa 3d a1 be 55 be
       -0.06751701 0.050628725 0.08330835 -0.208735
000160 11 e8 18 be e2 5a c9 bd 9e db 6b 3e c1 d6 02 be
       -0.14932276 -0.09831788 0.23032996 -0.12777235
000170 af ce ae 3d 04 a6 5d be 9d 32 ee bd 53 6a 08 3c
       0.085355155 -0.21645361 -0.116307475 0.008326131
000180 17 f3 f9 bd 98 a4 9c 3d 8c 82 43 3d 67 0c 04 be
       -0.12204569 0.07648581 0.04773192 -0.12895356
000190 02 2b d4 3e ec e1 67 3d 77 e7 44 be b8 d1 96 3c
       0.41439062 0.05661194 -0.19228922 0.018410549
0001a0 16 8b 8d be c6 6c e8 bc d5 67 f8 bd 7f a7 63 be
       -0.27645177 -0.02837218 -0.121291794 -0.22231863
0001b0 6a 0b 02 be 96 31 a8 bd fc da a6 be 95 39 ea 3c
       -0.12699667 -0.08212583 -0.32588947 0.02859191
0001c0 59 c1 0e 3e 0d 93 8d 3e 5a 48 9a 3e 2e a2 2f 3d
       0.13940944 0.27651253 0.30133325 0.042879276
0001d0 74 ae 9a 3d 02 65 a5 3e 23 8a dc bd ab a8 2d 3b
       0.075528055 0.32303625 -0.10768535 0.002649824
0001e0 da ef 83 be 9a 45 6d bc 31 40 ab 3d 53 04 df 3c
       -0.2576893 -0.014481926 0.08361853 0.027223742
0001f0 fa bb a0 3d 18 fa dc 3d 14 b2 06 3e ef 16 ab bc
       0.07848354 0.10789889 0.13153869 -0.020884959
000200 b0 a3 5c 3c 69 e4 92 3e 42 49 8c 3d 96 99 df 3d
       0.0134667605 0.28689888 0.0684991 0.10917966
000210 95 32 21 3e 75 c7 3f 3e f5 39 cf 3d 2b c9 30 be
       0.15741952 0.1872843 0.10118476 -0.1726424
000220 57 ef b4 3e ab e4 63 3e 66 da 75 3b e4 3c d7 3c
       0.35338852 0.22255199 0.0037514209 0.026274152
000230 2a f7 6c 3e 53 44 8c 3e 34 e5 2d be 70 46 ad bd
       0.2314116 0.27395877 -0.16981965 -0.084607005
000240 0e 9e 37 3e 8f a7 26 3d e1 dd d6 3d 8f f9 29 bd
       0.17931387 0.04068714 0.10491539 -0.041497763
000250 31 1f 62 3e 94 38 f8 bd 26 68 49 be 01 a2 bb 3e
       0.22082211 -0.121201664 -0.19668636 0.36647037
000260 c5 2b d0 bd f2 16 53 3d a2 43 e1 3d 20 29 bf 3e
       -0.101645984 0.051535554 0.10999228 0.37336063
000270 73 43 a9 3e cf 67 a6 3b b3 03 08 bd 65 ff 0c bc
       0.33059272 0.005078293 -0.033206653 -0.008605813
000280 25 28 2b 3e d7 82 8c 3c 3d 8c 68 3d 01 8e fb 3d
       0.16714533 0.017152233 0.056774367 0.122829445
000290 73 c6 9a 3d 3a 6e e4 3c 43 3b c9 3c d7 46 ce 3e
       0.075573824 0.027884591 0.024564391 0.40288422
0002a0 ed 57 d6 bc 47 d5 15 3d f4 24 98 bd 22 ac d4 3d
       -0.026164973 0.03658035 -0.07428923 0.10384394
0002b0 6d e0 3b 3e d5 32 9e 3e b5 b8 07 3e d2 dd dc 3d
       0.1834733 0.30898157 0.13254054 0.10784496
0002c0 0d a8 89 bd da 9b 56 3e 23 35 02 3c a5 af 1a 3e
       -0.06721506 0.2095789 0.007947239 0.15106066
0002d0 6f 62 10 bd 55 27 95 3d 22 85 d9 3e 1d c3 96 be
       -0.035250124 0.072828926 0.42484385 -0.29445735
0002e0 a1 c1 fc 3d c9 e8 42 bc ba a4 15 be a6 1a 1f 3e
       0.12341619 -0.011896321 -0.1461362 0.1553751
0002f0 37 f2 5c be 02 79 99 b9 c1 44 3e 3c d4 a7 3b bc
       -0.21576773 -0.00029272592 0.011613072 -0.011453588
000300 0c a8 61 3e 44 4d 80 3e ac ae 77 bd 12 64 a8 3e
       0.22036761 0.2505895 -0.060469314 0.32888848
000310 5b 81 35 3e ac 30 59 3e 50 79 ed 3d b4 8d 28 3e
       0.17725126 0.21209973 0.11595404 0.16460305
000320 23 a7 8d 3e c5 3e 0c 3d 4c 62 3a 3e 76 c1 9c 3d
       0.27666578 0.03423955 0.1820156 0.07654087
000330 8b cf a6 3b 2a bf 39 3e 89 69 b8 3e 02 b8 9c 3e
       0.005090659 0.1813933 0.36018017 0.30609137
000340 e3 f1 43 3e 78 2e a2 3c 2f 7d 87 3d ff 7c 14 3e
       0.19135241 0.019797549 0.06615674 0.14500807
000350 bb 03 3e 3e 30 a3 78 be 5d 46 64 3d d5 dc 5e 3e
       0.1855611 -0.24281001 0.055731166 0.21763928
000360 11 3c 3e 3d 43 97 79 3d 07 27 b7 bd c6 e9 a2 3d
       0.046444003 0.06093527 -0.08942991 0.07954745
000370 e7 61 ae 3d c3 85 9e 3d 71 60 0b bf 60 18 fd be
       0.08514767 0.07740357 -0.5444403 -0.4943266
000380 89 30 97 be 0b 47 27 be cd aa 48 3c a4 76 e1 3d
       -0.29529217 -0.16335694 0.012247753 0.11008957
000390 65 04 ad 3e 6c 20 5f bd 5c ab 5b 3e 23 7b 18 3c
       0.33792415 -0.05447428 0.21452087 0.009306702
0003a0 85 e6 cc 3d 24 34 83 3e c1 33 d8 be 14 bf 46 3e
       0.100049056 0.25625718 -0.42226985 0.19408828
0003b0 56 7d 9e be e3 6d 9c be d9 26 97 be 51 8f 73 3e
       -0.30955 -0.30552587 -0.29521826 0.2378514
0003c0 e9 14 af 3d e0 63 7b be b6 70 b5 3d 1e 96 7c 3e
       0.0854891 -0.24549818 0.088593885 0.2466664
0003d0 95 d4 93 be eb e0 32 3d ae 77 aa 3e b9 cd c0 be
       -0.28873125 0.04367153 0.33294433 -0.37656954
0003e0 b8 85 2e bd af d8 50 3e 0f 60 6e be 00 83 a4 3d
       -0.042607993 0.20395158 -0.23278831 0.08032799
0003f0 65 36 c6 3e 3a 1d 50 be 3b 5a 51 3c 81 99 fb bb
       0.38713375 -0.20323649 0.01277786 -0.007678211

model._layers.1.weight f4 [64, 64]
000000 b5 e1 cc 3e e8 6a 07 3e 5f 04 22 bc 8b 03 35 bd
       0.4001595 0.13224375 -0.009888737 -0.044192832
000010 2a b2 8a 3d b1 de 95 3d 13 36 bb 3e 4b c7 76 3e
       0.06772263 0.07317866 0.36564693 0.24099462
000020 22 b4 46 bc 85 70 f7 3e 12 3e 71 3e db 25 ee 3d
       -0.012127908 0.48328033 0.23558834 0.11628314
000030 96 cc 51 3e 57 bb 30 3e 67 56 3a 3e 1f 1d e3 3c
       0.204882 0.17258964 0.18197022 0.027723847
000040 c2 46 5c bc c9 c3 73 bc ca 72 9f bd 32 df f6 bc
       -0.013444604 -0.014878222 -0.07785566 -0.030135725
000050 14 d4 3f be 89 d7 a6 3d 46 f0 a6 bd 2c ca 30 3e
       -0.18733245 0.08146579 -0.08151297 0.17264622
000060 e4 93 73 be 2f 97 52 be c3 65 f0 bc 2e 70 94 3e
       -0.23786885 -0.20565484 -0.029345399 0.28991836
000070 63 5a 38 bb 75 c1 11 3b e9 3c 41 be 5b 90 32 3d
       -0.0028130047 0.0022240554 -0.18870892 0.0435947
000080 16 8f 94 3d 92 8c 0c 3c 2a 34 c9 3e 99 84 ce bd
       0.07253854 0.008578436 0.3929761 -0.10083885
000090 62 6f 30 be 35 d9 59 be ff 87 6c be be 8e ed bd
       -0.17229989 -0.21274264 -0.23098753 -0.115994915
0000a0 10 73 b9 bb 81 2a 19 be ec 4c a7 bc b7 da 94 be
       -0.0056594685 -0.1495762 -0.020422421 -0.29073116
0000b0 f4 4d 47 be 0f f7 90 3d 7e 9f 3c bc 26 30 0d 3e
       -0.1946333 0.07078373 -0.011512635 0.13787898
0000c0 91 da 37 be cd 02 da bd 82 09 9b be 81 80 7e 3e
       -0.1795447 -0.106450655 -0.3028069 0.24853708
0000d0 68 ee 7a be f0 ce 06 be 79 98 0b be 71 d0 cf 3d
       -0.24505007 -0.13164878 -0.13632382 0.10147179
0000e0 63 43 ba 3b cf a2 35 3e df 11 ad 3d 9d 13 a0 be
       0.0056843027 0.17737888 0.08450674 -0.31264964
0000f0 83 e3 20 be dc 14 f0 3d 86 ef 7c 3e 42 bd 4e 3e
       -0.15711789 0.117227286 0.24700746 0.20189384
000100 3c a4 bb 3b 0b 7a 28 3e c0 b4 2e bd e6 0e 82 3e
       0.0057263654 0.16452806 -0.042652845 0.25401992
000110 49 3d 4a be 57 75 7b 3e 6f 99 61 bd ae c2 5b 3e
       -0.19749941 0.2455648 -0.055077966 0.21460983
000120 76 ca 02 3e a8 30 80 bd 09 16 8b 3e 03 22 d8 3d
       0.12772545 -0.062592804 0.2716525 0.10553362
000130 f6 b3 0b be dc 38 6a bd 61 a3 8a be 14 6f 0a be
       -0.13642868 -0.05718313 -0.27077773 -0.13518935
000140 0b d6 86 be a7 2b 31 be fd 61 6a 3e 96 9a 7a 3e
       -0.26335177 -0.17301808 0.22888942 0.24473032
000150 88 0c 39 be f5 35 71 3d 36 d6 5c 3e e0 1c db 3d
       -0.18071187 0.058889348 0.2156609 0.10698867
000160 d2 80 c9 3e 40 8c 78 3e ab c9 8c 3e 1e d1 8b 3d
       0.39356095 0.24272251 0.2749761 0.06826995
000170 51 2f 03 3d 74 17 26 be dd 95 45 3e 2f c4 5a 3d
       0.032027546 -0.16219884 0.1929545 0.05340975
000180 be 13 0d bf e0 4d d1 3d 6f 60 c7 3d cf 47 c6 bd
       -0.5510825 0.102199316 0.0973519 -0.09681665
000190 60 fa 6c 3d dd 11 23 bc 28 ae 1a be 65 6c ee 3e
       0.057855964 -0.009952989 -0.15105498 0.46567073
0001a0 f5 c3 93 3d 26 8f d6 3d 56 8b 28 bd 63 49 7c 3b
       0.0721511 0.10476522 -0.041148506 0.003849589
0001b0 10 e8 ee be 09 4e cd 3d 05 17 26 3b 2e d6 e1 bb
       -0.46661425 0.1002465 0.002534331 -0.0068919873
0001c0 23 b0 dc 3d 2f 32 30 3d 33 14 13 3d 7f 81 4e 3d
       0.10775783 0.04301661 0.035907935 0.050416466
0001d0 cc 64 dc bc ed 58 25 be c9 f3 69 3e dd ba 0e be
       -0.026903532 -0.16147204 0.22846903 -0.1393847
0001e0 fe 10 a4 bd c6 69 d4 be 5c 96 5d 3e cd 7a 1f 3d
       -0.080110535 -0.4148695 0.21639389 0.03893547
0001f0 f5 4e e9 3c 9f f2 41 be 37 6c 68 3d 3c 1e 2e 3e
       0.028480032 -0.18940209 0.056743827 0.17003721
000200 e9 ee cf be ad 2d 54 3d 57 25 20 bd 11 29 49 3e
       -0.4061196 0.051801372 -0.03909811 0.19644572
000210 aa 42 5b be 18 25 ad 3d 30 a8 84 3e f4 77 38 be
       -0.21412149 0.08454341 0.25909567 -0.18014508
000220 a6 0c 28 3e 98 6d 3b bd 5d 28 15 3e 25 8c a9 bd
       0.16411075 -0.045758814 0.14566179 -0.082786836
000230 d9 49 c8 3e 56 ff 1a 3e ed 12 4c bd 88 4e 85 3e
       0.3911884 0.15136465 -0.049822737 0.26036477
000240 d9 00 b8 bd 30 9e 8e 3d a7 1d a1 be ce 78 53 bc
       -0.08984537 0.069637656 -0.31467935 -0.01290722
000250 0f 7f 48 bd 03 59 41 3d 2d d7 96 be 17 01 df 3e
       -0.048949298 0.04720403 -0.2946104 0.4355552
000260 86 f7 6f bc 79 08 9e be 32 d3 d9 3c f2 17 f7 bb
       -0.0146464165 -0.3086584 0.026589964 -0.0075406963
000270 60 b1 2b 3e ed b3 7e bd e8 0c 57 3d af b5 33 bd
       0.16766882 -0.06218331 0.052502543 -0.04387444
000280 b8 47 1b be a1 59 b9 3e 7f 48 4c bd 5f 91 53 be
       -0.15164077 0.36201194 -0.049873825 -0.20660923
000290 af 83 29 3e bb fd e5 be 66 80 7d 3e 2c 93 af 3e
       0.1655414 -0.44920143 0.24756011 0.3429197
0002a0 c1 51 58 3e 83 e1 6f be a1 0f 77 3d fc 56 f7 3d
       0.21124937 -0.2342587 0.06031764 0.12077138
0002b0 bd 07 94 3e 77 39 5c 3d 0d 3e ad bd ce 4e e8 be
       0.28912154 0.05376574 -0.08459101 -0.45372623
0002c0 88 09 45 3e ed 48 01 be ca 88 a8 3e 34 7a 91 bd
       0.19241917 -0.12625475 0.32916862 -0.071033865
0002d0 0b ad 07 be 6e 28 21 be 37 29 82 be 2d ab a0 be
       -0.13249604 -0.15738079 -0.2542207 -0.31380597
0002e0 40 fe 3f 3e 63 2b 2f be d9 52 8e bd bc 87 00 bf
       0.18749332 -0.17106394 -0.06949396 -0.50207114
0002f0 1c ad 45 3d fc 8d 7e 3d b9 e1 9d 3c 75 e4 49 bd
       0.048260793 0.062147126 0.019272672 -0.04929014
000300 bc 8c 64 3d 2a ba 54 bd 66 f3 04 3e b0 f9 be 3e
       0.055798277 -0.051935352 0.12983474 0.3729987
000310 f8 ef a1 bd 9e 23 0c be 55 2e 4a 3e 67 80 a1 bd
       -0.079070985 -0.13685462 0.19744237 -0.07885819
000320 79 4e 29 be 8d 9f 90 3b 31 25 bb 3e 91 f7 4b be
       -0.16533841 0.004413551 0.36551812 -0.19918658
000330 0d e0 47 3e 58 1e cc bc 5d b4 87 be 0d cc fe bd
       0.19519062 -0.024916813 -0.26504794 -0.12441263
000340 cd 2f 04 bd a5 ed a1 3d ff 62 7b be a3 72 d9 bd
       -0.03227215 0.07906655 -0.24549483 -0.10617568
000350 a1 05 a8 3d 0c 8a f2 bd d9 79 12 3e 58 2f 0c be
       0.08204199 -0.118427366 0.14304294 -0.13689935
000360 5a cf 96 3e 6a 43 85 be 76 c5 34 3e 32 89 97 bd
       0.29455072 -0.26027995 0.1765345 -0.07399215
000370 f7 eb b0 be 66 2f 24 3e c6 d1 8c 3d cc 7b b6 3d
       -0.34555027 0.16033706 0.068759486 0.08910331
000380 8e ac 6d be 45 c7 74 3d 09 fb 43 bd f1 06 e4 3d
       -0.23210356 0.05976035 -0.047846828 0.111341365
000390 58 84 11 3e ce 0f 56 be 03 77 d3 3d 87 54 f4 3d
       0.14210641 -0.20904467 0.10325434 0.11930185
0003a0 ab f7 7d 3e ce 3d 9c bc cc a1 3b 3e db 2f fc 3e
       0.24801509 -0.01907244 0.1832344 0.4925526
0003b0 59 87 f8 bd 7b c8 75 3d a3 07 07 be c8 fb 03 be
       -0.121351905 0.060005646 -0.13186507 -0.12889016
0003c0 de c4 3e bd 8b 4e 7b 3d 63 be ba 3d 16 55 6e be
       -0.046574466 0.0613542 0.09118345 -0.23274645
0003d0 a5 e1 97 3e c9 81 9b 3d 85 1a a8 3d 92 03 23 be
       0.2966434 0.07593114 0.08208183 -0.1591933
0003e0 bb bb a2 bd 91 28 b2 be 6a 2c cc bd 72 08 27 bd
       -0.07945963 -0.34796575 -0.09969409 -0.04077954
0003f0 d5 c3 e7 bd de 4f 4c bd d4 3b ac 3d 18 1b 01 3e
       -0.11316649 -0.049880855 0.08409849 0.12607992

model._layers.2.weight f4 [64, 64]
000000 c4 f1 b2 3d 78 b7 97 3e 3a 4e a2 3b 15 a5 69 bc
       0.087375194 0.29632163 0.004953173 -0.01426055
000010 c2 62 ee be 1e 50 cf bd 8d 12 14 be 1c 19 01 bd
       -0.4655972 -0.10122703 -0.14460202 -0.031518087
000020 dd f3 97 be 70 9e 5e 3e 5e 7f 03 3e 9e 44 e8 3e
       -0.2967824 0.21740127 0.12841555 0.4536485
000030 88 3f 49 3d 81 17 d7 3d 56 ad 11 3c 08 b3 8e 3e
       0.049132854 0.1050253 0.008891424 0.27870965
000040 06 da f6 3e 0e 7a 6d 3e 89 33 93 bd f6 12 3a be
       0.48213214 0.23191091 -0.07187564 -0.18171296
000050 c5 b8 37 3e b9 ea 94 3e 25 da c5 3c 0f 51 a2 be
       0.17941578 0.2908533 0.024151871 -0.31702468
000060 3a 79 be 3c f2 6d c1 bd 54 00 16 3d 26 58 8a bd
       0.023251165 -0.094447985 0.036621407 -0.06755094
000070 ab c8 5c 3e 0c 5f 2a be 5e c1 67 3e 22 b5 1c 3e
       0.21560924 -0.1663782 0.22632357 0.15303472
000080 78 9d 5b 3e a8 ec e3 3d f4 46 db bb af fb 11 3e
       0.21446788 0.11129123 -0.006691808 0.14256166
000090 fc 8f 80 3e 7d 56 c7 bd d3 fb 74 be 66 74 06 bc
       0.2510985 -0.09733293 -0.23924188 -0.0082064625
0000a0 3d 1c 82 3e 2f 46 aa be fb 68 dc 3b 39 5d c1 3b
       0.2541217 -0.3325667 0.006726382 0.0059010056
0000b0 24 b7 1a be 4f 9f a6 3e 3c 25 53 3e 12 41 9e be
       -0.15108925 0.32543418 0.20619673 -0.3090902
0000c0 a6 a8 dd 3d 61 41 6a bd 1d d8 4e be 1f 88 cc be
       0.10823183 -0.057191256 -0.20199628 -0.39947602
0000d0 e6 58 23 3c ae 04 b9 bd 04 65 a1 3e 49 2b 3c ba
       0.0099699255 -0.09034096 0.3152238 -0.0007178081
0000e0 bd 9b 45 bd 65 76 0f be c2 7a 9f 3e 7d ce 10 3d
       -0.048244227 -0.14010008 0.31148344 0.035353173
0000f0 b9 8e 9f bb 6c fa e3 bd 18 b7 3b 3e 7d db 13 be
       -0.004869309 -0.111317486 0.18331563 -0.14439197
000100 98 c8 84 be 7b d0 8a 3e 33 11 23 3d e1 e1 74 be
       -0.2593429 0.27112183 0.039811324 -0.23914291
000110 81 f6 5a 3d 96 63 d1 3d 47 44 e8 bc 0c 35 f2 bb
       0.05345774 0.10224073 -0.02835287 -0.0073915776
000120 8c 06 ad bd f3 16 36 3d 08 d3 7a 3e dc 9e 63 3e
       -0.08448514 0.04445548 0.24494565 0.22228569
000130 50 90 1e be 36 ce 8e be c9 b4 33 be 0b 43 ad 3e
       -0.15484738 -0.278917 -0.17549433 0.33840212
000140 4c 12 77 3e 3f 4c 15 be bd d6 33 3e e7 91 03 bf
       0.24128073 -0.14579867 0.17562385 -0.51394504
000150 b0 75 fc bd 63 b7 df 3d 8d 1a c8 3d 33 7e 04 3e
       -0.123271346 0.1092365 0.09770689 0.12938766
000160 5d 5e 35 be 5b eb d7 3d e4 a1 9e 3d e9 1d 09 be
       -0.17711778 0.10542937 0.07745722 -0.13390316
000170 4e 6e 18 be e9 73 38 be 83 6f 53 bd d5 61 b8 3e
       -0.14885828 -0.18012966 -0.051620018 0.3601214
000180 5f a0 90 be 64 5f bf 3d ce 75 44 be f2 01 fe 3d
       -0.28247353 0.09344366 -0.19185564 0.12402715
000190 4d 18 a3 be ba c1 5a be c2 9c c3 3e e8 c7 2e be
       -0.31854478 -0.21362963 0.38205534 -0.17068446
0001a0 65 72 90 be 23 c7 02 bf 71 98 89 bd 00 f2 ab 3e
       -0.28212276 -0.5108511 -0.06718529 0.3358307
0001b0 5e dc 1c 3d 8b 7c 20 3e 51 e7 5f 3e 06 d5 25 be
       0.038296096 0.1567251 0.21865584 -0.16194543
0001c0 16 2e 5e be 27 3d 37 be fb dd e1 bd c8 e9 93 3e
       -0.21697268 -0.17894422 -0.110286675 0.28889298
0001d0 eb 2d 5a bd 7f b1 3d bd 40 52 44 bc a6 a6 1c be
       -0.053266447 -0.04631185 -0.011982501 -0.15297946
0001e0 6c 39 8f be e4 5c 4b 3e 1e d6 1f 3d 7f 80 ab 3e
       -0.27973497 0.19859654 0.039022557 0.33496472
0001f0 ab ce c3 3d 4c 8d 7d 3e 37 bd be bc f3 ba 03 3c
       0.09560903 0.24760932 -0.023283584 0.008040178
000200 77 17 8c 3e 5e cd 9a bd 08 38 5c 3e f6 4b 31 bd
       0.27361652 -0.07558702 0.21505749 -0.043285333
000210 24 74 25 3d 63 03 fe 3d af c8 4f bd b5 a9 0a bd
       0.040393963 0.1240299 -0.050728496 -0.03385325
000220 a2 fe e4 3e 01 ba 8a 3c f8 00 92 3e d7 77 88 be
       0.4472552 0.016934397 0.28516364 -0.2665393
000230 94 8d e4 be 94 18 4e 3e 6f fe ec bd be 41 b1 be
       -0.44639266 0.20126563 -0.11571967 -0.3462047
000240 39 b4 ea 3d 03 0f b1 be f1 b3 6f 3e ff 66 2e be
       0.11460156 -0.34581766 0.23408486 -0.17031477
000250 c6 78 85 be a6 34 c9 3d 84 71 3e 3e 47 23 a0 be
       -0.26068705 0.09824495 0.1859799 -0.31276914
000260 ae e3 2e 3d fd de 91 3e e4 31 30 be 66 ec 2b be
       0.0426976 0.2849044 -0.17206532 -0.16789398
000270 2d e2 64 be 0f dd 54 3e f5 6d f9 3d 3a b8 f9 3e
       -0.22351904 0.20787452 0.12179176 0.48773366
000280 31 33 8a be b9 09 d1 bd 3d 01 b9 3e eb 61 98 be
       -0.2699218 -0.102069326 0.36133757 -0.29762205
000290 9a 90 00 3e 04 74 1c be 52 8a ad bc f0 af ca 3d
       0.12555161 -0.15278631 -0.02118412 0.09896839
0002a0 12 a5 13 be 24 89 cf 3c e0 83 67 3e f8 42 aa 3d
       -0.14418438 0.025333948 0.226089 0.083135545
0002b0 e2 85 b1 3b 6c cf 95 bb 52 d9 01 be d7 8d aa be
       0.0054175714 -0.0045718458 -0.12680557 -0.3331134
0002c0 0a 7d 42 3e 45 40 27 be fd 46 5c 3e 38 7c 29 be
       0.18993011 -0.1633311 0.21511455 -0.16551292
0002d0 aa 2e 54 3e f5 76 0d bd 7c a2 0a 3e 55 8e 78 be
       0.20720926 -0.034537274 0.13538545 -0.24273045
0002e0 df f2 1e 3e 7f b2 0a 3e 57 c7 72 be fc 88 c4 be
       0.15522335 0.13544653 -0.23708855 -0.3838576
0002f0 01 da 7e 3e 90 48 15 3d a6 16 27 3e 0d cc b8 3d
       0.2488785 0.036446154 0.16317233 0.090232946
000300 27 88 c1 3d 95 be 9f 3d ac 28 47 be 91 d0 b8 bd
       0.09449797 0.078000225 -0.19449109 -0.09024156
000310 aa fe 80 3e 0d 4e 53 be 03 a2 63 3d 15 6b dc 3d
       0.25194293 -0.20635243 0.05557443 0.10762612
000320 26 98 08 be 3b 23 80 3d c0 09 72 bc d2 db 17 be
       -0.1333929 0.0625672 -0.014772832 -0.14829949
000330 01 bf 76 3e 06 e7 8b be 10 22 a6 3e 45 c6 1d 3e
       0.240963 -0.27324694 0.32447863 0.15407665
000340 7a 8e 5c bd 88 55 59 3d 03 ef 59 3e 6f de 0b 3d
       -0.053846814 0.053060085 0.21282582 0.034147676
000350 d3 76 9c 3c 79 c4 5a ba e3 75 28 be 8e a7 cf 3e
       0.019099629 -0.0008345317 -0.1645122 0.40557522
000360 3c 98 60 be 60 02 3b be 06 8a 8f be 6c ae be 3d
       -0.21933073 -0.18262625 -0.2803499 0.09310612
000370 25 cb 8e 3d e1 1f 73 be 28 61 7f 3d 77 f0 aa 3c
       0.069723405 -0.2374263 0.062348515 0.020866616
000380 d4 3e 28 3d 5e f4 f2 bb 10 0b 4e 3c e9 a1 98 bd
       0.041075543 -0.0074143847 0.01257588 -0.07452757
000390 8e b6 03 be f8 cf 79 3e 4b 2f c9 3e f5 76 97 bd
       -0.12862608 0.2439574 0.39293894 -0.07395736
0003a0 ae 07 7f be 52 97 62 3d 66 e7 4f be da 85 97 bd
       -0.24905273 0.05532009 -0.20303115 -0.07398577
0003b0 32 6c 58 3e 4c f3 b4 be 29 c0 36 be 2a 11 aa 3e
       0.21135023 -0.3534187 -0.17846741 0.3321622
0003c0 8f da 5a be 22 13 31 be f8 93 2d 3e a9 87 09 bd
       -0.21372436 -0.17292455 0.16950977 -0.03357664
0003d0 4b 3b 1a 3e 6b 2e 2a be 71 a3 01 3e bb 71 ea 3d
       0.15061681 -0.1661927 0.12660004 0.114474736
0003e0 02 2a d3 bd d4 e0 28 be 4d 3d 46 3e 18 e1 1e bd
       -0.10310747 -0.16492015 0.19359322 -0.038788885
0003f0 36 3e 8f 3d eb 1e 90 be 9a 30 22 bf 08 63 94 bd
       0.06994288 -0.2814859 -0.6335541 -0.07245451

model._layers.3.weight f4 [64, 64]
000000 dd 62 1a be 1d c8 99 bd 5f 40 6d ba 8c 13 71 be
       -0.15076776 -0.07508872 -0.00090504246 -0.23542613
000010 74 b1 02 be 48 a9 4f 3e 07 18 40 be e6 a8 26 3e
       -0.12763005 0.2027942 -0.18759166 0.16275367
000020 39 c6 80 be 75 5b 35 be 9a 17 90 3e 5a a1 d5 3d
       -0.25151232 -0.1771067 0.28143007 0.10431166
000030 7f 8f dd bd e7 8e 19 be 9a 69 4e 3d 76 99 6a be
       -0.10818385 -0.14995919 0.05039368 -0.22910103
000040 33 08 65 3e 90 58 1e be bb 3d 80 be 9d 16 ad bc
       0.22366409 -0.15463471 -0.25047097 -0.021128947
000050 29 95 5e bd 25 e8 cf 3e 72 e0 47 3e 74 a2 25 3e
       -0.05434147 0.406068 0.19519213 0.16175252
000060 b2 28 9a 3d ea 4d 35 be 13 7c 02 3e 71 88 bf bc
       0.07527293 -0.17705503 0.12742643 -0.02338049
000070 31 37 44 3e 55 c1 32 3e ce b2 36 bd f8 1a 9f 3e
       0.19161679 0.17456563 -0.044604115 0.31075263
000080 21 bf 3a be 4d 52 3a bd 69 19 80 3d 0b 87 82 3d
       -0.18236972 -0.045488644 0.062548466 0.06373414
000090 29 1e a4 bb 3d ed be bd 5f 9f 84 bd c7 cf 31 bd
       -0.005008478 -0.09322593 -0.0647571 -0.043411043
0000a0 be 41 30 3b 65 66 68 be c3 b5 06 3e df a3 9e 3c
       0.0026894654 -0.2269531 0.13155274 0.01936525
0000b0 54 e2 f2 bd c2 72 bd 3e 95 5c 14 be 76 41 74 be
       -0.11859575 0.37001616 -0.14488442 -0.23853096
0000c0 db ec da 3d 04 71 1c 3e b1 70 07 3e 7d e1 21 be
       0.10689708 0.15277487 0.13226582 -0.15808673
0000d0 f6 2b ed bd db 5b 25 3d 07 b1 8f be 89 ce 76 3d
       -0.115806505 0.040370803 -0.2806475 0.06025556
0000e0 e0 95 74 3d b6 f1 e3 bd 48 79 20 be 50 97 1c be
       0.059713244 -0.11130087 -0.15671265 -0.15292096
0000f0 7d 96 70 bd 96 e1 c5 3d e8 11 87 3d ba bb 4c be
       -0.058737267 0.09662168 0.06595212 -0.19993487
000100 25 b9 05 3d 96 cf ed bd 54 4b 59 3d f5 18 3d 3a
       0.03264727 -0.116118595 0.053050354 0.0007213497
000110 dd 71 f8 bc 56 99 63 3e 07 f6 92 3d 16 1b 90 bd
       -0.030327732 0.22226462 0.07175832 -0.07036416
000120 6c ca 1c 3e b8 ba 4c bd 41 cc 54 3e 9e 17 0d 3e
       0.15311593 -0.049982756 0.20781042 0.1377854
000130 fe 8e 8a 3e 60 08 02 3e 12 b1 48 3e 49 6c ea bd
       0.2706222 0.12698507 0.19598797 -0.11446435
000140 17 c4 a8 bd 46 88 55 be be f5 81 be 19 d8 2f 3e
       -0.08240526 -0.20852765 -0.253828 0.17172278
000150 8d c6 37 be 2b 2a 6d 3e 99 6b 44 3d e2 05 bc 3e
       -0.17946835 0.23160617 0.047954176 0.36723238
000160 c4 4f 27 bd d2 24 c1 bd 8b ce 44 3e 65 e9 df bb
       -0.040847555 -0.09430851 0.19219415 -0.0068332427
000170 85 6b d6 3e 4b cc 80 bd 4e 45 a9 bd 71 ec c3 3d
       0.41878906 -0.06288966 -0.08265172 0.09566582
000180 dc 61 15 3e d3 65 10 3c e3 c4 14 3e b6 39 9f 3d
       0.14588112 0.008813339 0.14528231 0.07774679
000190 5d 7a 79 3d 26 c1 27 be bb 32 7c be a1 d4 95 3d
       0.06090771 -0.16382274 -0.24628727 0.07315946
0001a0 7f d9 1f 3e 49 98 04 be 4f 4e 8d bc 98 66 78 3e
       0.15610312 -0.12948717 -0.017249255 0.24257886
0001b0 06 80 40 3d b4 66 1c 3e 37 e9 b4 be b3 51 8e bd
       0.046997093 0.15273553 -0.3533418 -0.06949177
0001c0 e9 c3 6f 3e 32 dc 67 bd 98 ea 4f be f6 2c 8e be
       0.23414578 -0.05660648 -0.20304334 -0.27768677
0001d0 c1 35 36 bd d3 e1 93 3b dc 48 39 be 90 97 1b be
       -0.044484857 0.0045130043 -0.180942 -0.15194535
0001e0 01 30 49 3e 56 e0 74 bd 0c c0 93 be e2 4f 56 3e
       0.19647218 -0.059784256 -0.28857458 0.2092891
0001f0 94 bd 11 3d e3 3f 09 3b 4d 49 9f 3d 74 df da be
       0.035581186 0.002094262 0.07777653 -0.42748606
000200 2e 20 60 bb 0e 12 1b 3c 9c c0 39 3d 98 a3 0c 3f
       -0.0034198868 0.009464754 0.045349702 0.54937124
000210 be b6 82 bd 86 18 c7 be 00 d9 bb 3d 5b f9 9e 3d
       -0.063825116 -0.38885897 0.09172249 0.077624045
000220 39 7c 96 be a1 a0 d3 bd f5 ea 40 be 5d 05 0b 3e
       -0.2939165 -0.10333372 -0.18839629 0.13576265
000230 83 de 31 3e 41 ce 43 3c 70 62 3d 3e 80 36 d2 bd
       0.17370038 0.01195103 0.18494582 -0.10264301
000240 1d aa be be c0 fc bc 3d 59 a4 18 3c 4b 54 d7 bc
       -0.3723916 0.09227896 0.009316527 -0.026285311
000250 1f f1 0d be a3 d2 90 bc 5c b8 2a bd 03 4a bf be
       -0.13861512 -0.017678564 -0.041679725 -0.37361154
000260 e5 1d 61 3d c4 c8 8a 3d 13 88 8d 3d cb f4 e5 3d
       0.05496015 0.06776574 0.0691072 0.11228331
000270 5c ec 51 3e 6a 14 2d 3d 0d f7 17 3d 05 38 46 be
       0.2050032 0.042255796 0.03710084 -0.19357307
000280 df 60 0c 3e d9 5e f5 bd 4d 4c 41 bd 26 42 a4 be
       0.13708828 -0.119809814 -0.047191907 -0.32081717
000290 8b 1e 1c be 66 24 d6 3e 50 4c 5e 3d 68 f6 c8 bc
       -0.15246026 0.41824645 0.054271996 -0.024531558
0002a0 63 e5 d6 be d7 66 92 3e 05 c2 c1 bd 96 ca 8a 3e
       -0.41971883 0.28594086 -0.094608344 0.27107686
0002b0 da 79 89 bd 17 26 28 be 15 d5 d0 bc 6e 81 04 3e
       -0.067126945 -0.1642078 -0.02549223 0.12939999
0002c0 19 69 c0 be 0b 3d 1c bd 24 8f c4 3d 64 1e 84 3e
       -0.37580183 -0.038144153 0.095976144 0.25804436
0002d0 51 34 80 bc d9 73 29 3d fe 43 0f 3d e9 96 c9 bc
       -0.015649946 0.041370247 0.03497695 -0.024608092
0002e0 d0 c7 c6 3d bb 0f 43 3e b9 8c b0 3d ee bd f4 bd
       0.0970608 0.1904897 0.08620591 -0.11950289
0002f0 ae 5c 23 3c 5e a7 77 3d ad 31 8f bd 38 90 7e 3e
       0.009970827 0.06046235 -0.06991897 0.24859703
000300 1d fa c0 3d 87 5f 25 be 66 77 17 be 26 bf 0a bc
       0.09422705 -0.16149722 -0.1479164 -0.008468425
000310 02 63 43 bd 88 10 fe bd 3f a8 b3 bd 5d fd 53 3e
       -0.047701843 -0.12405497 -0.08772325 0.20702119
000320 91 39 a3 be 61 4c 81 bd b3 13 c5 be 90 d6 33 bc
       -0.31879857 -0.06313396 -0.38491592 -0.010976449
000330 ad 73 fe bc d8 68 47 bc 5c 8f ea bc 9d dc 50 3e
       -0.031061018 -0.012170993 -0.028632812 0.20396657
000340 73 0b 59 3e c6 e0 53 3e c7 0e de bd 0a 9c a1 3c
       0.21195774 0.20691213 -0.10842662 0.019727726
000350 1c ed 0d 3d 1b 0f 83 bd 97 c3 ad 3d dc 11 0d 3e
       0.034649953 -0.063993655 0.084845714 0.13776344
000360 31 a1 a6 bd 42 c3 d2 be 1b 2e 6b 3e 07 ec ea bd
       -0.081362136 -0.41164595 0.22966807 -0.114708
000370 d4 5f 4a bc 4e aa bb 3d 6f 0a 59 bd eb 57 87 bd
       -0.012351949 0.091633424 -0.052988466 -0.06608566
000380 38 c8 d1 3c ce 55 84 bd 44 5e b8 be 15 3f 82 bd
       0.025608167 -0.064616784 -0.3600942 -0.06359688
000390 7e bd e0 3d e2 5a c7 3a 12 00 7d 3c 31 d9 12 be
       0.10973643 0.001520958 0.015441911 -0.14340664
0003a0 18 c9 21 be ec 4f 24 bc 22 d3 86 bd b9 77 5b 3e
       -0.15799367 -0.0100288205 -0.06583239 0.2143239
0003b0 14 7d 54 3e d1 70 f1 bd 68 ff a8 3d 93 2e 87 3e
       0.20750839 -0.11789096 0.0825184 0.2640272
0003c0 33 36 e7 3d a8 bd 15 be b1 45 ed be 4a dc 89 be
       0.112896346 -0.1462313 -0.46342233 -0.2692588
0003d0 0a 57 56 3d fc 94 00 bf e3 39 e9 3d 7a b2 ea bd
       0.0523291 -0.5022733 0.11387994 -0.11459823
0003e0 04 d1 0d be 33 df f3 bd 54 2e 3a 3c b9 2a aa bd
       -0.13849264 -0.11907806 0.011363585 -0.0830893
0003f0 e0 84 91 bd 8f 10 74 3e 67 4e a4 3d 0d a8 d6 3b
       -0.07105422 0.23834442 0.080227666 0.006550795

exp_avg f4 [64, 14]
000000 9d ed 90 bc cf ef b4 bc 1f 99 20 3c 61 75 0f bc
       -0.017691428 -0.022087006 0.009802132 -0.008756013
000010 32 c9 3f 3a 24 8b 32 b9 eb b6 6c 3a b3 b7 95 3c
       0.0007316052 -0.00017027237 0.00090299424 0.018276071
000020 94 c8 c1 3c 90 67 db 3a 5a ef a9 3b 2f f5 bb 3b
       0.023655213 0.0016739238 0.0051860036 0.0057360153
000030 0b 57 7a 3c cf c1 39 bb 49 ff fe bb 98 d8 e9 3b
       0.015279542 -0.0028344279 -0.007781897 0.0071364157
000040 a7 b2 2d bd b8 d8 3a bc 3a ca ed 37 4d c7 76 38
       -0.042406704 -0.011404209 2.834677e-05 5.8836584e-05
000050 41 8f 99 38 58 ba 73 3a a7 63 c7 bb 9f 78 98 b9
       7.322292e-05 0.0009297482 -0.0060848775 -0.0002908157
000060 65 41 88 bb 04 e2 82 ba e6 e4 c7 bb 4e 78 a2 3b
       -0.0041581863 -0.0009985571 -0.006100285 0.004958189
000070 41 0e 4a 3c fc 0b fe 3b 35 b9 53 3c c8 c8 0d bd
       0.0123325 0.0077528935 0.012922575 -0.034615308
000080 28 56 c3 3a df 6d 66 38 5e 0a 11 3b 2a 3c 3a 3d
       0.0014902996 5.49386e-05 0.0022131423 0.045467533
000090 9b f7 78 3c d5 e3 fb 3a ca b4 47 bc 6f b8 d9 3b
       0.0151957525 0.001921768 -0.0121891 0.0066443007
0000a0 da 50 ca bb 88 56 e0 3c 4b 5a 6c bc 5e 2e df 3c
       -0.006174189 0.027385011 -0.014425824 0.02724379
0000b0 ff df 7f bb 5f ff b1 bc 23 d6 af b9 49 95 f8 39
       -0.0039043424 -0.021728216 -0.00033538145 0.00047413472
0000c0 08 81 95 ba 93 67 be bc 82 89 d4 bc 61 77 0d bb
       -0.0011406252 -0.023242747 -0.025944475 -0.0021586048
0000d0 ef c4 f4 bb f5 21 e2 bb 02 09 8d bc d1 86 ea 3c
       -0.0074697654 -0.0069010206 -0.01721621 0.028628739
0000e0 ea 97 0e bd b7 51 8a bd 50 59 7f bd 8f de 40 3d
       -0.034812845 -0.06753867 -0.062341034 0.04708725
0000f0 0f 87 cc 3a 7e f2 a2 ba e7 fe 80 3b 13 ba 9e 3d
       0.0015604215 -0.0012431887 0.0039366367 0.077503346
000100 cf 99 9e 3d 3f ca de 3b 4c b8 b3 3c 8f f6 af 3c
       0.077441804 0.006799012 0.021938466 0.021479873
000110 0b a9 4b 3d c5 82 57 bd 2b 69 5a bc 44 11 ad bc
       0.04972176 -0.052614946 -0.013330738 -0.021126397
000120 45 30 28 3d e9 37 84 bc d3 80 62 3a fb c6 67 b9
       0.04106166 -0.016139941 0.0008640412 -0.00022104003
000130 3d 9d a5 3a 8d 30 bf 3c b0 83 fb 3c e4 93 12 3b
       0.0012635362 0.02333858 0.030702442 0.0022365982
000140 8c 05 fb 3b 17 ff f5 3b ac 38 aa 3c b1 9a 4c bb
       0.0076605733 0.0075072157 0.020778976 -0.0031220133
000150 0e 4e 1e 3e 33 6f 82 3c 66 9f 9e bd 4b 33 ad bc
       0.15459463 0.015922165 -0.077452466 -0.021142622
000160 95 f8 54 39 9d ac 88 b8 fa 4b 55 3a 54 d2 da 3b
       0.000203105 -6.517137e-05 0.00081366266 0.006677905
000170 2f ec 6d 3c 05 5f 90 3a af dd ea 3b b1 f0 58 3b
       0.014521643 0.0011014646 0.00716754 0.0033102448
000180 60 9c 5e 3c 5d 27 eb 3b 14 4e 82 bd 4d 98 f6 3b
       0.013587087 0.0071763233 -0.063625485 0.00752548
000190 ba a3 c5 bc ff cc 43 bc f8 c1 95 39 b4 ba f8 38
       -0.024125922 -0.01195073 0.00028564013 0.00011860338
0001a0 e6 ab a7 39 3b f0 d2 3b 1f dd 50 ba 3c 01 22 38
       0.00031980796 0.006437329 -0.000796752 3.862496e-05
0001b0 f0 5b 71 bb 47 b4 b8 39 0d fb 65 bb ca 27 35 3c
       -0.003682848 0.00035229532 -0.0035092265 0.01105685
0001c0 b4 d8 4c bd 66 08 62 3d b3 13 b0 b9 49 2b 0f bd
       -0.05001135 0.05518379 -0.00033584013 -0.03495339
0001d0 48 8a 9f ba a0 51 82 3a 17 8e 48 bb a0 00 79 bd
       -0.0012171948 0.0009942539 -0.003060227 -0.06079161
0001e0 6f 7f 7b bd d0 86 ae bb a3 d4 87 bc 93 51 8a bc
       -0.061400827 -0.0053261295 -0.016580885 -0.0168846
0001f0 b0 8f 1f bd 9c 86 28 3d 1d 88 8c 3c 5f 40 86 bc
       -0.03895539 0.041144 0.017154748 -0.016388116
000200 16 1e 85 3c 81 01 9d 3b 27 6b 21 3a 40 42 a7 b9
       0.016249698 0.004791439 0.00061576295 -0.00031902082
000210 53 4e b1 3a 17 02 d9 3c cd e0 cd 3c 36 8f 11 3b
       0.0013527371 0.026490254 0.025131607 0.0022210605
000220 2c ed b8 3b 9c dd e6 3b 7f 7b 7a 3c e8 47 2b bc
       0.0056435075 0.007045461 0.015288233 -0.0104541555
000230 33 ed 76 bd ef 35 fe bb dd ae a3 bc 7a 0a 5b bc
       -0.060284805 -0.007757894 -0.019980842 -0.013369197
000240 bf 41 3e 3a cf b8 15 37 55 8f 5f 3a 61 40 a5 3c
       0.0007257722 8.924121e-06 0.0008528133 0.0201723
000250 bf e8 0f 3c c9 29 6c 3a 80 73 b1 bb 61 35 53 3b
       0.008783518 0.0009008912 -0.00541538 0.0032227861
000260 04 cf 0d ba 5e be 0a 3c 9e 9a cf bd fb e6 86 bd
       -0.0005409571 0.008468239 -0.10136913 -0.06587025
000270 09 63 8d bc 27 a5 68 bc cf ca 1f 3b 87 8a 42 ba
       -0.017259138 -0.014199532 0.0024382358 -0.0007421155
000280 6a ed 7e 3b 4b f3 96 3d 4d dc b4 3d 55 4e d7 3b
       0.0038898834 0.07370623 0.088310815 0.006570617
000290 5b 97 a8 3c de a1 b5 3c 80 da 68 3d c3 4f 94 bc
       0.020579984 0.02217191 0.056849003 -0.01810444
0002a0 c2 08 40 bd 01 4b 25 bd 25 3a 12 3d 26 c8 ec bb
       -0.046883352 -0.040354732 0.035699982 -0.007226008
0002b0 66 2b f7 3a 28 bd f3 b9 39 00 38 3b af 4f 6a 3d
       0.0018857538 -0.00046489504 0.0028076305 0.0572049
0002c0 5c 9d 7a 3d 0b 18 a3 3b 0b ff 51 3c 99 69 84 3c
       0.061185226 0.0049772314 0.012817155 0.016163634
0002d0 fd 2a 1b 3d 4e e6 8d bb cb 29 c3 bd 90 16 4c 3d
       0.037882794 -0.004330433 -0.09529456 0.049826205
0002e0 82 98 0b bd 2d 17 f0 bc dd 52 ca b9 d3 17 63 3a
       -0.03408099 -0.029307926 -0.0003859018 0.0008662913
0002f0 17 f7 db ba 40 24 f1 bc 59 a3 42 bd dd 8e 72 bb
       -0.0016782013 -0.02943623 -0.04751906 -0.0037011423
000300 47 94 a9 bc 15 a3 3c bc 56 af 1b bd 56 f7 37 3d
       -0.020700587 -0.011513491 -0.03800901 0.044913612
000310 e8 b6 16 3d 16 a9 1b 3b 86 1a b2 3d 1f 26 5a 3c
       0.036795527 0.0023751906 0.08696465 0.013314753
000320 ed 18 59 b9 17 8b df 38 b8 7a 25 ba 8f 9c 50 bc
       -0.00020704018 0.00010659376 -0.0006312537 -0.012732639
000330 30 9c 04 3c 94 09 a4 39 b3 04 59 3c a0 d7 13 3a
       0.008093879 0.00031287654 0.013245749 0.00056397356
000340 ff a1 5e 3c 8d 5e 8a 3b e6 d3 82 bc 63 41 4e bc
       0.013588428 0.004222697 -0.015970182 -0.012588832
000350 39 05 07 bc 3b dd f4 3b 1a 55 46 39 8e 8f 63 b9
       -0.008240991 0.007472662 0.00018914454 -0.00021701885
000360 39 9f 18 3a b6 b4 2a 3c 89 ce 4e 3c e3 13 86 3a
       0.0005822066 0.010419061 0.012622484 0.0010229315
000370 dc eb 96 3b 66 fb 56 3b 4e 27 13 3c 6f 00 24 bc
       0.0046057533 0.0032803654 0.008981539 -0.010009869
000380 ef cc d6 bd d3 9a 7f bd e3 41 3c 3c 3c 88 06 bc
       -0.10488307 -0.06240351 0.011490318 -0.008211192
000390 c6 3c 2f 3b 86 61 27 ba cb 8f 7e 3b 75 92 a1 3d
       0.0026739105 -0.00063850766 0.0038843032 0.078892626
0003a0 60 a1 aa 3d 99 28 d6 3b 8e 9e 86 3c 8c 30 b3 3c
       0.08331561 0.0065356013 0.016433027 0.021873735
0003b0 46 38 4d 3d b3 f8 c7 bb a8 65 85 3b 9d 5b 95 bc
       0.050102495 -0.0061026453 0.0040709563 -0.018232161
0003c0 d9 0a d6 bb 9e 7f 4e 3c 39 1d 09 3a a5 00 c4 b9
       -0.006532055 0.0126036685 0.000523049 -0.00037384513
0003d0 30 52 ab 3a c0 3a dc 3c de 5a ac 3c e0 d5 09 3b
       0.0013070758 0.026883483 0.021039423 0.002103202
0003e0 e3 2a 7a 3b 35 a4 d3 3b 36 2f 3d 3c 2f 66 61 bc
       0.0038172535 0.006458784 0.0115469005 -0.013757273
0003f0 11 da 28 bd a3 0d b1 bc df eb 0c bd 21 3b 50 3c
       -0.04122359 -0.021612948 -0.03440463 0.01270941
