notebooks/lightning_logs/version_53551072/checkpoints/epoch=0-step=1.ckpt (torch, 225727 bytes, 18 tensors)

model._encoder.weight f4 [64, 14]
0	0x3d7d9652	0.061910935
1	0x3e835a32	0.2565475
2	0x3ee068e6	0.4383003
3	0xbe81dcc6	-0.2536375
4	0xbdd14f01	-0.10220147
5	0xbe1a35e7	-0.15059625
6	0x3e3fb65a	0.18721905
7	0xbea95733	-0.3307434
8	0xbda28960	-0.079363585
9	0xbe9a0699	-0.3008316
10	0xbcf69161	-0.030098619
11	0x3eacb23e	0.33729738
12	0xbe411d03	-0.18858723
13	0x3e82b713	0.255303
14	0x3db64e11	0.08901609
15	0xbe9ccb1f	-0.3062372
16	0x3e3ada20	0.1824727
17	0x3ec460ee	0.383552
18	0x3ef3769d	0.47551432
19	0x3e5d7a35	0.2162865
20	0xbed55750	-0.41668177
21	0xbd1ca807	-0.03824618
22	0x3e0522b4	0.1300152
23	0xbf13465f	-0.5752925
24	0xbe4cbf95	-0.19994958
25	0xbebe3186	-0.37147158
26	0x3d36e868	0.044655234
27	0xbea60e4e	-0.3243279
28	0xbcb3df03	-0.021956926
29	0x3e354b2f	0.17704462
30	0x3f1e3398	0.61797476
31	0xbe5379e7	-0.20651971
32	0x3f1aa0ff	0.6040191
33	0xbd8cfb17	-0.06883829
34	0xbea06541	-0.3132725
35	0x3e06c96a	0.13162771
36	0x3f419e59	0.75632244
37	0xbde82185	-0.11334518
38	0xbe427ae4	-0.18992192
39	0x3e2e0ff9	0.1699828
40	0xbe2e8292	-0.17041996
41	0xbdff0280	-0.12451649
42	0xbdbbcc28	-0.09169799
43	0xbeaf183b	-0.34198174
44	0xbe8364ba	-0.25662786
45	0xbc35fbc8	-0.011107393
46	0xbea18c93	-0.31552562
47	0x3e3e99c6	0.18613347
48	0x3ef127fb	0.47100815
49	0xbf06de6e	-0.5268315
50	0xbcc38979	-0.023869263
51	0xbe4ab852	-0.19796875
52	0x3eb3c99a	0.35114747
53	0x3dbe15bf	0.092814915
54	0x3d6fc912	0.058541365
55	0xbd078516	-0.033085905
56	0xbe5ca344	-0.21546656
57	0xbda25687	-0.0792666
58	0x3e875cfd	0.26438132
59	0x3eec5d03	0.46164712
60	0x3cef0d2c	0.029181086
61	0xbdcad29e	-0.09903453
62	0xbded814d	-0.11596928
63	0x3d9d14c2	0.07669975
64	0xbcde0f52	-0.027106915
65	0xbe083afb	-0.1330375
66	0x3f04cc4f	0.5187425
67	0xbe961b78	-0.29317832
68	0xbdb20ec0	-0.086942196
69	0xbe923778	-0.28557944
70	0xbd8c65dc	-0.06855366
71	0x3dbbfeab	0.091794334
72	0xbf13fe69	-0.57810074
73	0xbd8d7dc9	-0.06908757
74	0xbcafd464	-0.02146358
75	0xbe22dee4	-0.15905339
76	0x3bfe1a52	0.0077546025
77	0xbd977a8f	-0.07396423
78	0xbd882c9e	-0.06649135
79	0x3e37be3b	0.17943661
80	0x3e1a7d32	0.1508682
81	0xbe672075	-0.22570975
82	0x3ea12ffb	0.3148192
83	0x3e54b218	0.20771062
84	0x3e22783e	0.15866181
85	0xbe2e554b	-0.17024724
86	0x3d0ff0dd	0.035141815
87	0xbec73716	-0.38909215
88	0xbf0adf26	-0.5424675
89	0x3d69d45f	0.0570873
90	0xbd29f26d	-0.04149096
91	0x3e14d911	0.1453593
92	0x3eab52df	0.33461663
93	0x3e705c2e	0.23472664
94	0x3e0236af	0.12716173
95	0xbe3c042a	-0.18360963
96	0xbf547eb8	-0.8300586
97	0x3e0b42d9	0.13599719
98	0xbba381de	-0.0049898466
99	0x3f0ba2db	0.5454537
100	0x3e3d754e	0.1850178
101	0xbdf03bdf	-0.117301695
102	0x3ea17678	0.31535697
103	0xbeb79b9d	-0.3586091
104	0x3e3b5cb5	0.18297084
105	0xbe79c2e1	-0.24390747
106	0x3f0becbd	0.5465811
107	0xbd5492b6	-0.051897727
108	0xbe107c48	-0.1410991
109	0xbed53e31	-0.4164901
110	0x3ca7cc9b	0.020483306
111	0xbdf185b6	-0.117930815
112	0xbd98a065	-0.07452468
113	0xbe7e9120	-0.24860048
114	0xbd8546b8	-0.06507629
115	0x3eb4ed80	0.35337448
116	0x3ecf2165	0.40455166
117	0x3e2e0b9c	0.16996616
118	0xbe17e920	-0.14835024
119	0xbd8c243a	-0.06842847
120	0xbf017ede	-0.5058421
121	0x3d884a86	0.06654839
122	0x3d7bac5b	0.061443668
123	0x3e76ffc5	0.24121006
124	0x3d0d3d30	0.03448218
125	0x3c654c4b	0.01399524
126	0x3ee6c15d	0.450694
127	0x3e4202c2	0.18946365
128	0x3e64124a	0.22272602
129	0x3dd5d005	0.10440067
130	0x3efc75f5	0.49308744
131	0x3e2c4f81	0.16827203
132	0x3eb192c4	0.34682286
133	0x3ed735b0	0.42033148
134	0x3ee93097	0.45544884
135	0x3e3dc2b5	0.18531306
136	0xbd53e6c9	-0.051733766
137	0x3eac57bb	0.33660683
138	0x3e85a953	0.26105747
139	0xbe0068cd	-0.12539978
140	0x3f2c7d7d	0.6737898
141	0x3d2eecbc	0.042706236
142	0x3e32bb5a	0.17454281
143	0x3e1ba630	0.15200114
144	0x3eb32da5	0.34995762
145	0xbe51aebc	-0.20476812
146	0x3d80fa2d	0.06297717
147	0x3c8919a1	0.016735854
148	0x3cde9455	0.02717034
149	0xbea73a98	-0.3266189
150	0x3b06f575	0.002059308
151	0xbcadc901	-0.02121401
152	0x3e50ed38	0.20402992
153	0xbe479594	-0.19490653
154	0xbe65cf34	-0.22442323
155	0xbe8a6e9c	-0.27037513
156	0x3e1df7cc	0.15426558
157	0xbcfe04e6	-0.031008195
158	0xbc521e08	-0.012824543
159	0x3ef0b979	0.47016504
160	0xbd87782b	-0.06614717
161	0x3e5c4a8f	0.21512817
162	0xbd7d0317	-0.061770525
163	0xbbda2ec0	-0.006658405
164	0xbc90b925	-0.017666409
165	0xbde489d2	-0.111591
166	0xbe7d0efd	-0.24712749
167	0xbda937c1	-0.08262587
168	0xbf102491	-0.56305796
169	0xbd587b0e	-0.05285173
170	0x3d5b79f9	0.05358312
171	0xbe11ebab	-0.14250056
172	0xbdff2f51	-0.12460197
173	0xbebd467f	-0.36967847
174	0x3d9d9fe2	0.07696511
175	0x3ea78136	0.32715768
176	0xbe9f6d11	-0.311379
177	0xbe1ad8ea	-0.15121809
178	0xbeeb36d8	-0.4594028
179	0x3da60df6	0.081081316
180	0xbeb5476e	-0.3540606
181	0x3e1516b1	0.14559437
182	0x3d03311d	0.03202926
183	0x3d425b1c	0.04745017
184	0x3de75519	0.11295528
185	0xbdb83c8b	-0.08995923
186	0xbe315b32	-0.17319945
187	0xbd217fa8	-0.039428383
188	0xbcb0614c	-0.02153077
189	0x3eb72960	0.35773754
190	0x3ec21738	0.3790834
191	0x3d3a640e	0.045505576
192	0xbdeeaccd	-0.11654053
193	0xbebe727b	-0.37196717
194	0x3e24a925	0.16080149
195	0x3e8f9c29	0.28048828
196	0xbca32d9e	-0.019919213
197	0x3dc9a742	0.09846355
198	0xbdcf4580	-0.10120678
199	0x3e443a1a	0.19162789
200	0xbe2035b0	-0.1564548
201	0x3d389e6e	0.045072965
202	0xbd5f9e8c	-0.05459456
203	0xbe8d24ec	-0.27567232
204	0x3b9ec7c3	0.004845591
205	0xbf48dd3d	-0.7846258
206	0xbe8eeb73	-0.27914008
207	0x3dfe90d0	0.124299645
208	0xbebf9575	-0.37418714
209	0xbed367dd	-0.4129018
210	0xbdcbb56f	-0.09946715
211	0x3de0369c	0.10947916
212	0xbe836850	-0.25665522
213	0x3e1e80cb	0.15478818
214	0xbd91ae1a	-0.07113285
215	0x3e6e1092	0.23248509
216	0x3d1ef243	0.038805258
217	0x3e13cc37	0.1443337
218	0x3cced681	0.025248768
219	0xba45e23d	-0.0007548666
220	0x3e5c2b89	0.21500982
221	0x3ea52279	0.32252863
222	0xbf1ecfc2	-0.62035763
223	0xbe6d9ef8	-0.23205173
224	0x3e679d66	0.22618636
225	0xbe3d2e87	-0.1847478
226	0x3e25c926	0.16190013
227	0x3bead8f7	0.0071669775
228	0xbcab7282	-0.020928625
229	0x3f229e10	0.63522434
230	0xbc05d720	-0.008168966
231	0xbe64a5b5	-0.22328837
232	0x3ec251ef	0.37953135
233	0xbdaed4c0	-0.085366726
234	0x3d1e1880	0.038597584
235	0x3e07c8c2	0.13260177
236	0xbdc952ef	-0.098302715
237	0xbe1f5ecc	-0.15563506
238	0x3e40d9a3	0.18833022
239	0x3ef0bc37	0.47018597
240	0xbde45ac2	-0.11150123
241	0xbdf66b46	-0.120321795
242	0xbe24eb70	-0.16105437
243	0x3dee171d	0.11625502
244	0x3d356311	0.04428393
245	0xbdb039d5	-0.086047806
246	0xbcfa70b9	-0.030571328
247	0x3edd20d9	0.43189123
248	0xbd8b4594	-0.0680038
249	0x3ef7dd32	0.48410946
250	0xbd47f0fe	-0.048813812
251	0x3e0306f8	0.12795627
252	0x3a1bfb83	0.0005950259
253	0x3e9ace5c	0.30235565
254	0xbe7f26b1	-0.24917103
255	0x3d00a6a5	0.031408925

model._decoder.weight f4 [8, 64]
0	0x3dc67703	0.096906684
1	0x3953077b	0.00020125315
2	0x3ecfaa88	0.40559793
3	0x3da58d7b	0.08083626
4	0x3d5f68ea	0.054543413
5	0x3dfc6c42	0.12325336
6	0x3ba0b106	0.0049039153
7	0xbe0be493	-0.13661413
8	0x3d214204	0.039369598
9	0xbeec7d49	-0.46189335
10	0xbe2b931f	-0.16755341
11	0x3d5a850a	0.053349532
12	0xbda71714	-0.08158699
13	0x3e0a96aa	0.13534036
14	0xbe71f1f7	-0.23627459
15	0x3e07a083	0.13244824
16	0xbe5c36ec	-0.21505326
17	0x3d80b244	0.062840015
18	0xbd9f7fcb	-0.077880464
19	0x3d7bae95	0.06144579
20	0x3e1f3fa5	0.15551622
21	0x3e660a96	0.22464976
22	0xbc13dc4f	-0.009024694
23	0xbe10e0e3	-0.14148287
24	0xbde50237	-0.11182063
25	0xbe244e89	-0.16045584
26	0x3dd3e79c	0.1034691
27	0xbdc0ae32	-0.09408225
28	0x3de22300	0.11041832
29	0xbd2ad320	-0.04170525
30	0xbe83cd8b	-0.25742754
31	0x3dc033e4	0.09384897
32	0xbe99e3d0	-0.3005662
33	0xbeaad8a4	-0.3336841
34	0xbcdf1839	-0.02723323
35	0xbd6bc3e6	-0.05755987
36	0x3e98572f	0.29754016
37	0x3dbca091	0.09210313
38	0xbd62a366	-0.05533161
39	0x3d681c59	0.05666766
40	0xbdca01b9	-0.0986361
41	0x3c262c39	0.010142379
42	0xbec079e5	-0.37592998
43	0xbd99fcec	-0.07518944
44	0xbc4557df	-0.012044876
45	0x3e01e8e9	0.12686504
46	0xbe1da813	-0.15396146
47	0xbe985d64	-0.2975875
48	0xbb1e2cc8	-0.0024135578
49	0x3dde3994	0.10850826
50	0xbc15c821	-0.009141953
51	0x3deb8760	0.1150043
52	0xbd0e76ca	-0.034781255
53	0xbbfdcddf	-0.007745489
54	0x3da663d2	0.08124508
55	0x3e7c0182	0.2460995
56	0xbcd05d5c	-0.025435142
57	0x3c75d85d	0.015005198
58	0x3dc40361	0.09570957
59	0x3dec580a	0.115402296
60	0x3e36651c	0.17812008
61	0xbc193570	-0.009351119
62	0xbdf77246	-0.12082343
63	0x3de0db74	0.10979357
64	0xbda589b7	-0.08082908
65	0xbe268732	-0.1626251
66	0x3e508af5	0.20365508
67	0x3e968789	0.2940028
68	0x3e0a3543	0.1349688
69	0xbe21be5b	-0.15795271
70	0x3b4dac91	0.0031383375
71	0x3e89d220	0.26918125
72	0xbe096639	-0.13417901
73	0x3e48d18e	0.19611189
74	0xbe070058	-0.13183725
75	0x3df809be	0.12111233
76	0xbe578b51	-0.21049239
77	0x3e991c7f	0.29904553
78	0xbd0b2830	-0.033973873
79	0xbdaade28	-0.08343154
80	0x3dad39d0	0.084582925
81	0xbdf032da	-0.11728449
82	0x3e1ded13	0.15422468
83	0xbced6c28	-0.028982237
84	0xbe206044	-0.15661722
85	0x3e8e5c61	0.27804855
86	0x3ebc73d5	0.36807123
87	0x3d08f4c9	0.03343657
88	0x3eb76016	0.35815495
89	0x3d01ac0f	0.03165823
90	0x3d63f131	0.05564994
91	0x3e81e94e	0.2537331
92	0xbd82ca65	-0.0638626
93	0xbe99db5a	-0.30050164
94	0x3de52fc8	0.11190754
95	0xbea32116	-0.3186118
96	0x3e69679d	0.22793432
97	0x3e3dc194	0.18530875
98	0x3ed838f9	0.42230967
99	0xbea997b6	-0.3312356
100	0x3e4c97f9	0.19979848
101	0x3e02da3e	0.12778565
102	0xbe7416f7	-0.23836885
103	0x3dc36db4	0.095424086
104	0x3ce76b60	0.028249443
105	0xbe2c4aa2	-0.16825345
106	0xbea93737	-0.33049938
107	0xbd639bfb	-0.055568676
108	0xbdd3dea9	-0.103452034
109	0x3d33c6c3	0.043890726
110	0x3e2662fc	0.16248697
111	0xbdb13ada	-0.08653803
112	0xbe7cb739	-0.24679269
113	0xbeb376de	-0.35051626
114	0xbe566fda	-0.20941105
115	0xbd8b133b	-0.06790777
116	0x3d96b789	0.07359225
117	0xbe860617	-0.2617652
118	0x3c0696cb	0.008214663
119	0x3c773552	0.015088396
120	0x3ed5d0b4	0.4176079
121	0xbe759ced	-0.23985644
122	0x3de5095f	0.11183428
123	0xbdd1e0f5	-0.10247985
124	0x3dc7326b	0.09726413
125	0x3e81e459	0.25369528
126	0xba0eca05	-0.00054469734
127	0x3df9beda	0.12194605
128	0x3e6d3288	0.23163807
129	0xbe8871e2	-0.26649386
130	0x3da92e7a	0.08260818
131	0x3d736bdd	0.05942904
132	0x3e36e218	0.17859685
133	0xbec9e062	-0.39429003
134	0xbe2beba6	-0.16789111
135	0xbe1e5f96	-0.1546615
136	0xbdaaa3cc	-0.08332023
137	0xbb9bd5a0	-0.0047556907
138	0x3cdc7475	0.026911
139	0x3e5244ab	0.20534007
140	0xbea17989	-0.31538036
141	0xbce39e9c	-0.027785592
142	0xbbe68e28	-0.0070359893
143	0xbe1a919e	-0.15094611
144	0x3e8ef9ea	0.27925044
145	0xbde363f2	-0.111030474
146	0xbe0cdc11	-0.13755824
147	0xbc42b70d	-0.011884463
148	0xbd2d7110	-0.042344153
149	0xbde825ed	-0.11335359
150	0x3de87d19	0.113519855
151	0xbe8950f5	-0.26819578
152	0xbe90a597	-0.28251335
153	0x3dae947c	0.08524415
154	0xbe8dfe9c	-0.27733314
155	0xbd928781	-0.071547516
156	0x3e43fde4	0.1913982
157	0xbcb660f6	-0.022263031
158	0xbea1b693	-0.31584606
159	0xbe06eb19	-0.1317562
160	0x3ddaee81	0.10690022
161	0xbd99f12b	-0.07516702
162	0xbe280c72	-0.16410998
163	0xbe922af2	-0.2854839
164	0x3ea7d3f1	0.32778886
165	0x3dddbf6b	0.10827526
166	0xbb82ae52	-0.0039880658
167	0xbc294898	-0.010332249
168	0xbc99e0be	-0.018783923
169	0x3d649b7d	0.055812348
170	0xbd828040	-0.06372118
171	0x3ea35888	0.3190348
172	0xbd9291bc	-0.07156703
173	0xbe5649b6	-0.20926556
174	0x3e12152d	0.1426589
175	0xbd8f7fb2	-0.07006778
176	0xbc5da338	-0.013527684
177	0xbeac6a0b	-0.33674654
178	0xbe052a94	-0.13004524
179	0xbe085286	-0.1331273
180	0x3e55df63	0.20885997
181	0x3d20ee21	0.039289597
182	0x3e192676	0.14956078
183	0x3e102e92	0.14080265
184	0x3d2124ff	0.039341923
185	0xbdde6ada	-0.10860224
186	0x3d10ed42	0.035382517
187	0x3da513e2	0.08060433
188	0xbe8a4808	-0.2700808
189	0xbe13f886	-0.14450273
190	0x3e7fa718	0.24966085
191	0xbe4c636d	-0.19959803
192	0xbdbb394c	-0.09141788
193	0xbe05fa72	-0.13083819
194	0x3d0520aa	0.032501854
195	0xbdfa6415	-0.122261204
196	0xbe132f88	-0.143736
197	0x3e065490	0.13118196
198	0x3e577fa8	0.2104479
199	0x3bdc76c1	0.0067280238
200	0x3da1e755	0.07905451
201	0x3c8e3391	0.017358573
202	0xbe609a67	-0.219339
203	0xbe455bea	-0.19273344
204	0xbe6160a8	-0.22009528
205	0xbe7033a8	-0.23457205
206	0xbdada105	-0.08477978
207	0xbd739001	-0.059463505
208	0xbed10ed5	-0.40831628
209	0xbd8ab20f	-0.06772243
210	0x3e265cc4	0.16246325
211	0x3efb2ea0	0.4905901
212	0x3e571b69	0.2100655
213	0x3dbf8509	0.09351546
214	0xbe56e119	-0.20984305
215	0xbcb3cebb	-0.021949163
216	0xbe0a9361	-0.13532783
217	0xbe8066ea	-0.25078517
218	0x3e16b2a5	0.14716585
219	0xbd8a01a5	-0.06738595
220	0x3e4fc00f	0.20288108
221	0x3d0ded6f	0.034650262
222	0x3e14a525	0.14516123
223	0xbded4120	-0.11584687
224	0xbe65bac4	-0.22434527
225	0xb9221e83	-0.0001546089
226	0x3e679587	0.22615634
227	0xbec3f0ff	-0.38269803
228	0x3d4aea91	0.049540106
229	0x3dc5dd1c	0.09661314
230	0x3e83e34d	0.25759354
231	0xbe286a73	-0.16446857
232	0xbe4c1912	-0.19931439
233	0x3e01692f	0.1263778
234	0x3d36032d	0.044436622
235	0x3eed3010	0.4632573
236	0xbe994ab7	-0.29939815
237	0xbc7c0755	-0.0153826075
238	0x3df1a4de	0.11799024
239	0xbdbe050a	-0.09278305
240	0x3e86953e	0.26285738
241	0x3d9926b5	0.07478086
242	0x3e7f3eef	0.24926351
243	0x3ac0426e	0.0014668235
244	0x3ddfb883	0.10923865
245	0xbe019e04	-0.12657934
246	0xbdfaa827	-0.12239104
247	0x3e1b288c	0.15152186
248	0xbe6cae6b	-0.2311341
249	0x3dea6cc9	0.1144653
250	0xbde5ead4	-0.112264305
251	0xbe4a0437	-0.1972817
252	0x3ecf8fba	0.40539342
253	0x3d4eb12d	0.050461937
254	0x3dba3e42	0.09093906
255	0xbdea5ea1	-0.1144383

model._layers.0.weight f4 [64, 64]
0	0xbe85e3b9	-0.261503
1	0xbcb65c30	-0.022260755
2	0x3cb0ac11	0.021566423
3	0xbda9e209	-0.08295066
4	0xbd174f7f	-0.036941048
5	0xbeacfe15	-0.337876
6	0xbe3ec67b	-0.18630402
7	0x3c19de13	0.0093913255
8	0x3e4da6f0	0.20083213
9	0xbe24c5a7	-0.16091023
10	0x3ca78c2d	0.020452583
11	0x3c4c48f7	0.012468568
12	0x3db917dd	0.09037755
13	0xbde3a36f	-0.11115157
14	0x3e8a7a6f	0.27046534
15	0x3d04d488	0.032429248
16	0x3e2f928d	0.17145748
17	0xbe2bfcf8	-0.16795719
18	0xbe4f2364	-0.20228344
19	0x3e8e5d5e	0.2780561
20	0xbceb56b2	-0.028727863
21	0xbc6ffc08	-0.014647491
22	0x3d287f8f	0.041137274
23	0x3d84d672	0.06486215
24	0xbe6e2be1	-0.23258926
25	0xbe6aad18	-0.22917593
26	0xbdc5006c	-0.09619221
27	0x3e715951	0.23569228
28	0x3c1def97	0.009639642
29	0xbe2f9454	-0.17146426
30	0xbdfb3d2c	-0.12267527
31	0x3d898b21	0.0671599
32	0xbe908309	-0.28224972
33	0x3e760d08	0.24028409
34	0x3d0e4982	0.03473807
35	0xbcedda8c	-0.029034875
36	0xbdd55fb9	-0.10418648
37	0x3d5651d3	0.052324127
38	0x3ddd6f63	0.10812261
39	0x3df05b97	0.117362194
40	0xbaec58b3	-0.0018031806
41	0xbec57aa4	-0.3857013
42	0xbdb36191	-0.08758844
43	0x3ec7d24a	0.39027625
44	0x3d6f400b	0.058410686
45	0x3e6c1a47	0.23056899
46	0x3c9ccf02	0.019141678
47	0xbe745ed5	-0.238643
48	0x3de889ac	0.11354384
49	0x3e9ebb32	0.31002194
50	0xbe9f7210	-0.3114171
51	0xbd9424d9	-0.07233591
52	0x3c02d5a3	0.007985505
53	0xbdd7a23e	-0.10528992
54	0xbe9ccfb8	-0.30627227
55	0x3ed6c384	0.41946042
56	0xbe4f091e	-0.20218322
57	0x3e5b6b50	0.21427655
58	0xbd893386	-0.066992804
59	0x3d89ea32	0.06734122
60	0xbe8d9c0d	-0.2765812
61	0xbd36a70a	-0.044592895
62	0x3d85e0c5	0.06537012
63	0x3dfc7d51	0.1232859
64	0xbdeb5551	-0.11490882
65	0xbe743676	-0.238489
66	0xbed5f9db	-0.41792187
67	0x3e8defc0	0.27721977
68	0xbdc22595	-0.094798245
69	0x3e3375f7	0.17525469
70	0x3e3e1d92	0.18565968
71	0x3e39ef89	0.18157782
72	0x3db5d828	0.08879119
73	0xbe5a82cc	-0.21338958
74	0x3dda8630	0.106701255
75	0xbea653a9	-0.32485703
76	0x3cf6ba90	0.030118257
77	0xbe14d92f	-0.14535974
78	0x3df95af8	0.12175554
79	0x3dba56b9	0.09098572
80	0x3d5361e7	0.05160704
81	0x3e9e8d54	0.309672
82	0xbd8281f0	-0.0637244
83	0xbe052bb4	-0.13004953
84	0x3e044096	0.12915263
85	0x3cf9ab6f	0.030477254
86	0x3d20fa19	0.03930101
87	0xbe95e5eb	-0.29276976
88	0x3d973cdc	0.07384655
89	0xbe17fa53	-0.14841585
90	0x3d8599af	0.065234534
91	0xbea5ebdb	-0.32406506
92	0x3d4cc21b	0.0499898
93	0xbdca0f69	-0.098662205
94	0xbd125ae7	-0.035731222
95	0xbdec89fb	-0.11549755
96	0xbdac61dd	-0.084171034
97	0xbe930cb6	-0.28720635
98	0x3e4f3603	0.20235448
99	0xbe0a995a	-0.13535061
100	0x3e2c92d5	0.16852887
101	0xbe054985	-0.13016327
102	0xbd3c49a6	-0.045968674
103	0xbda77a43	-0.081776164
104	0x3c7f482f	0.015581175
105	0x3e2c00ef	0.16797231
106	0xbd184dc3	-0.037183534
107	0x3e406e66	0.18792114
108	0xbea17a6f	-0.31538722
109	0x3c480ce0	0.012210101
110	0xbd8c19be	-0.068408474
111	0x3dda6d8c	0.10665426
112	0x3e2b4930	0.16727138
113	0xbd8c37c5	-0.06846575
114	0x3db6d90a	0.08928116
115	0xbe691f5e	-0.22765872
116	0x3e325892	0.174166
117	0xbd21de54	-0.03951867
118	0x3cf29961	0.029614152
119	0x3e0c36fb	0.13692848
120	0xbe330809	-0.17483534
121	0x3ea4ebb5	0.3221108
122	0xbe0c6b83	-0.13712887
123	0xbe0d06d4	-0.13772136
124	0xbc24ba6e	-0.010054214
125	0xbe2743cb	-0.16334455
126	0xbe2572ec	-0.1615712
127	0x3dafff14	0.08593574
128	0x3e6ad63a	0.22933283
129	0xbc3dad77	-0.011577002
130	0xbc4e0d6a	-0.01257644
131	0xbd331ac6	-0.043726705
132	0xbe16cfab	-0.14727657
133	0x3e1fc7b5	0.15603526
134	0x3deb6c2f	0.11495244
135	0xbe89a5aa	-0.26884204
136	0xbdfa8962	-0.12233235
137	0x3e370843	0.17874245
138	0xbeaa6298	-0.33278346
139	0xbe3c7648	-0.18404496
140	0x3ca1c5eb	0.019747695
141	0x3d7e389e	0.062065713
142	0xbe20c45b	-0.15699904
143	0x3e478935	0.19485934
144	0xbe20b84b	-0.15695302
145	0x3ead66e2	0.33867556
146	0xbba3ece8	-0.0050026067
147	0x3cdbd0ae	0.026832905
148	0xbde4da8a	-0.111744955
149	0x3e3b51d3	0.18292932
150	0xbd5bfab5	-0.05370589
151	0x3e86dedd	0.26341906
152	0x3db62277	0.088932924
153	0x3d10e6fb	0.03537653
154	0xbe60ba90	-0.21946168
155	0x3e254e3e	0.16143128
156	0xbe03792f	-0.12839197
157	0xbc7297d6	-0.014806708
158	0x3e596004	0.21228033
159	0x3e91b81e	0.28460783
160	0xbd89091d	-0.06691191
161	0xbeb75802	-0.35809332
162	0xbdf477f3	-0.11936941
163	0x3c26ea61	0.010187716
164	0x3eb39f78	0.35082603
165	0xbe2e4369	-0.17017902
166	0x3d3d269d	0.046179403
167	0xbcc55875	-0.024090031
168	0xbe93c728	-0.28862882
169	0xbe8b173a	-0.27166158
170	0x3e58fb7a	0.2118968
171	0x3dfb61f1	0.1227454
172	0x3dcc5ad7	0.09978264
173	0xbd517775	-0.051139314
174	0xbb215bfc	-0.0024621477
175	0xbd956c7a	-0.07296081
176	0xbdc60b6e	-0.09670149
177	0x3e08553d	0.13313766
178	0x3e5c66ae	0.21523544
179	0xbde5ce63	-0.11221006
180	0xbd753b83	-0.059871208
181	0xbda4d920	-0.08049226
182	0xbe9dfeec	-0.30858552
183	0xbdcf1681	-0.10111714
184	0x3ec892fb	0.39174637
185	0x3ea1f7c3	0.3163434
186	0xbda3733a	-0.07980962
187	0x3eb5c0c1	0.35498622
188	0xbe361851	-0.17782713
189	0x3eafb7da	0.34319955
190	0xbddde6bd	-0.108350255
191	0xbe2fbb04	-0.17161185
192	0xbe364dd7	-0.17803131
193	0xbd2273c8	-0.0396612
194	0x3d8fd57c	0.07023141
195	0xbd47bb90	-0.048762858
196	0xbd4d1a87	-0.050074127
197	0xbd9e03bc	-0.07715556
198	0x3cb28e97	0.021796508
199	0xbd9d4cea	-0.07680686
200	0x3da0d5bd	0.07853267
201	0x3d2111e8	0.039323717
202	0xbe8099f2	-0.2511745
203	0x3dc77b14	0.09740272
204	0xbdc12731	-0.09431303
205	0xbda258b4	-0.07927075
206	0x3dd2a589	0.102854796
207	0x3b6f414a	0.0036507421
208	0xbdc2b4a6	-0.09507112
209	0xbd571dbf	-0.052518602
210	0xbc18848d	-0.009308946
211	0xbe458fb7	-0.19293104
212	0xbe4e83db	-0.20167486
213	0x3e1b0e39	0.15142144
214	0xbe11025c	-0.14161056
215	0xbecbbb03	-0.39791116
216	0xbd5691f6	-0.052385293
217	0xbd351792	-0.04421193
218	0x3e41cc33	0.18925552
219	0x3ea145e8	0.31498647
220	0xbd655089	-0.055985007
221	0x3dd2177d	0.10258386
222	0x3c5334c5	0.012890999
223	0xbd3824b1	-0.044956867
224	0xbde04467	-0.10950547
225	0x3e8bd4b9	0.27310732
226	0xbb6d1150	-0.003617365
227	0xbdb4a1da	-0.08819933
228	0xbd46ce96	-0.04853686
229	0xbd39c065	-0.045349497
230	0x3e70f755	0.2353185
231	0x3e62d244	0.22150522
232	0xbe097def	-0.13426946
233	0x3d07b7ef	0.033134397
234	0xbe3ad05c	-0.18243545
235	0xbea5200b	-0.3225101
236	0x3dcba1b7	0.09942954
237	0xbe77859e	-0.24172065
238	0xbd8a6151	-0.06756843
239	0xbe81117f	-0.2520866
240	0x3e195aa4	0.14975983
241	0x3e6a946c	0.22908181
242	0xbeb7e4c6	-0.35916728
243	0xbe892e9a	-0.26793367
244	0xbd1b0787	-0.037848976
245	0x3e27d69b	0.16390459
246	0xbe25261a	-0.16127816
247	0xbe13f0b3	-0.14447288
248	0xbe21c4df	-0.15797757
249	0xbdcc5d7b	-0.099787675
250	0xbd6a3a9a	-0.057184793
251	0xbdb196e4	-0.08671358
252	0xbcdc6d9b	-0.026907733
253	0x3dce0b04	0.10060695
254	0xbc63f0a9	-0.013912358
255	0x3e8efd04	0.2792741

model._layers.1.weight f4 [64, 64]
0	0x3d10c608	0.035345107
1	0xbe3ed001	-0.18634035
2	0xbcec9ead	-0.028884256
3	0x3e0276ad	0.12740584
4	0x3e07834d	0.13233681
5	0xbe05b1b4	-0.1305607
6	0x3db97919	0.09056301
7	0x3e7655cf	0.24056171
8	0xbd21b199	-0.03947601
9	0x3d84c1d5	0.06482283
10	0xbd9e443f	-0.07727861
11	0xbe6a4428	-0.22877562
12	0xbedff2c0	-0.4373989
13	0x3e2a8ea5	0.16655977
14	0x3e3d6e23	0.18499045
15	0x3e42f2ac	0.19037884
16	0xbe0b3fba	-0.13598529
17	0xbdd30ddd	-0.103053786
18	0xbc25ec17	-0.010127089
19	0x3dcea9fe	0.10091017
20	0xbe9dbe0b	-0.30809054
21	0x3e2e59ad	0.17026396
22	0x3dc42ae9	0.09578497
23	0xb97ce5c2	-0.00024118184
24	0x3cedf7d6	0.029048841
25	0x3e705e37	0.2347344
26	0xbd0823ce	-0.03323727
27	0x3e993f70	0.2993121
28	0x3dd9b9c6	0.106311366
29	0x3dcc6455	0.09980074
30	0x3e065da2	0.13121656
31	0x3e96eaa4	0.29475892
32	0x3c629169	0.013828614
33	0x3e7225c0	0.23647213
34	0x3ec2fb6c	0.38082445
35	0xbdba23fa	-0.09088893
36	0x3e717fba	0.2358388
37	0x3ead4e99	0.33849028
38	0xbea8db4e	-0.32979816
39	0x3e2a14f4	0.16609555
40	0xbdacf5b3	-0.08445301
41	0xbdde736d	-0.108618595
42	0xbd7eae93	-0.062178206
43	0xbea00601	-0.3125458
44	0x3dbf16fb	0.09330555
45	0xbe031540	-0.12801075
46	0x3dc5c65a	0.09656973
47	0x3e0005dc	0.12502235
48	0x3d69e7de	0.05710589
49	0xbdcc2998	-0.09968871
50	0xbe39d17e	-0.18146321
51	0xbea2841f	-0.31741425
52	0xbdc7d087	-0.0975657
53	0x3e5e1c13	0.21690397
54	0x3daa9f8d	0.08331213
55	0x3d09b5d8	0.033620685
56	0xbd3db698	-0.046316713
57	0x3da23b45	0.07921461
58	0xbcd1b15a	-0.025597263
59	0xbd8aa98d	-0.067706205
60	0x3d3e7f15	0.046507914
61	0xbd99088b	-0.074723326
62	0x3e54e99b	0.20792238
63	0x3d975b01	0.073904045
64	0xbd38740b	-0.045032542
65	0x3ec6d388	0.3883326
66	0xbeb6234b	-0.355738
67	0xbd006845	-0.03134944
68	0xbdb0d6fc	-0.08634755
69	0xbdbfc0bc	-0.09362933
70	0x3e47f938	0.19528663
71	0xbd330da0	-0.043714166
72	0x3d150ce9	0.036389265
73	0x3e7bf03a	0.24603358
74	0x3d851709	0.06498534
75	0xbd1ef08b	-0.03880362
76	0x3d83dfc7	0.064391665
77	0xbd3ab84d	-0.04558592
78	0x3e258da7	0.16167317
79	0x3e39c9a6	0.18143329
80	0xbe59fe2c	-0.21288365
81	0x3d9010d5	0.070344605
82	0x3d6e7fd6	0.058227383
83	0xbd732273	-0.059359025
84	0xbb81ea8e	-0.0039647287
85	0x3e4523b0	0.19251895
86	0x3e0b5d71	0.13609864
87	0x3dee182a	0.11625703
88	0xbd820653	-0.063488625
89	0xbee5cc4a	-0.44882423
90	0xbd931f63	-0.07183721
91	0x3e5feb10	0.21867013
92	0xbd63db25	-0.055628914
93	0xbeab1bd8	-0.3341968
94	0x3e8f147e	0.27945322
95	0x3d90bed2	0.07067646
96	0x3e38c3fe	0.18043515
97	0x3e0534d4	0.13008434
98	0xbd5ab188	-0.053391963
99	0xbe7710d4	-0.24127513
100	0x3dbab2bf	0.09116124
101	0x3e3fa974	0.18716985
102	0xbcc93ea3	-0.024566
103	0xbddf0c0e	-0.10890971
104	0xbe1fe8ba	-0.15616122
105	0xbeae5edd	-0.3405675
106	0x3b0ae7b1	0.0021195228
107	0xbdc5bc73	-0.096550845
108	0x3dbc6597	0.09199064
109	0xbe12c15f	-0.14331578
110	0xbe59e60d	-0.21279164
111	0x3e7812ca	0.24225917
112	0x3d811fcb	0.06304892
113	0x3e8d5450	0.27603388
114	0xbdf5caf6	-0.12001602
115	0x3d993b8a	0.07482059
116	0x3e3a8be9	0.18217434
117	0xbb8f20a6	-0.0043679057
118	0xbd5f9330	-0.05458373
119	0x3cb41b70	0.02198574
120	0x3dfb9ae4	0.122854024
121	0xbe1db665	-0.15401609
122	0xbe77266a	-0.24135748
123	0xbc70709b	-0.014675285
124	0x3e0d4a06	0.13797769
125	0xbe67e96a	-0.22647634
126	0x3e1ace58	0.15117776
127	0x3e1864d2	0.1488221
128	0x3d841eb9	0.064511724
129	0xbe013b41	-0.1262026
130	0xbe3eacb0	-0.18620563
131	0x3e268e99	0.16265334
132	0xbea6bca5	-0.325658
133	0x3cf21184	0.029549368
134	0xbe927ee3	-0.28612432
135	0xbe62d9bf	-0.22153376
136	0x3db8e348	0.090277255
137	0x3eaadab3	0.3336998
138	0x3ddfcc8b	0.10927685
139	0xbd17cc1b	-0.037059885
140	0xbda31fd2	-0.079650536
141	0xbe6c5062	-0.23077539
142	0x3d2dfd05	0.042477626
143	0x3c081f08	0.00830818
144	0xbb9643d3	-0.004585722
145	0x3e5fdc49	0.21861376
146	0x3dcbc49a	0.09949608
147	0xbe8c82f7	-0.27443668
148	0x3bf4536d	0.007456234
149	0x39c1d6fd	0.00036972007
150	0x3e511413	0.20417814
151	0xbd30c689	-0.043158088
152	0x3b6c7dee	0.0036085802
153	0xbe65e89a	-0.22452012
154	0x3e2e25d3	0.17006616
155	0xbe03b160	-0.12860632
156	0x3e94bb4d	0.2904915
157	0x3ea30957	0.31843063
158	0x3e0ab7b6	0.13546643
159	0x3e4dd049	0.20098986
160	0xbeab0d27	-0.33408472
161	0x3e39399e	0.18088385
162	0x3e190cb1	0.14946248
163	0x3e36943d	0.17829986
164	0x3e4298af	0.19003557
165	0xbdffb2b9	-0.124852605
166	0x3dc41b50	0.09575522
167	0xbde62688	-0.11237818
168	0x3df5b4ab	0.1199735
169	0xbd0cefdd	-0.03440844
170	0xbe385449	-0.18000902
171	0x3e89c83d	0.26910582
172	0x3d7db4c3	0.061939966
173	0xbe16c5c1	-0.14723875
174	0x3e938200	0.2881012
175	0xbde4dea9	-0.111752816
176	0xbe5ba789	-0.21450628
177	0x3e3534a4	0.17695862
178	0xbe870d0f	-0.2637715
179	0x3e256fe2	0.16155961
180	0xbe1add78	-0.15123546
181	0x3d72a34f	0.059237774
182	0xbda52321	-0.08063341
183	0xbc875c64	-0.016523547
184	0x3da4b341	0.080420025
185	0x3ef40ad2	0.47664505
186	0x3d05b5b6	0.032643996
187	0x3daabb72	0.083365336
188	0x3d11cd5d	0.03559624
189	0xbd7c7c14	-0.061641768
190	0xbe07d08b	-0.13263147
191	0xbdd5ac28	-0.10433227
192	0x3dfbd27a	0.122960046
193	0xbd6b529b	-0.057451826
194	0x3ca9569f	0.020671187
195	0x3daf2de9	0.085536785
196	0x3e00e36e	0.12586758
197	0xbe13419a	-0.14380494
198	0xbd951249	-0.07278878
199	0x3dba4b39	0.09096379
200	0xbe324d77	-0.17412363
201	0x3e942403	0.28933725
202	0xbec793cb	-0.38979945
203	0x3db3148f	0.087441556
204	0xbe05730b	-0.13032167
205	0x3e2a8903	0.16653828
206	0xbd7bf0e7	-0.06150904
207	0x3da5b1f9	0.08090586
208	0x3d4f12c9	0.050555024
209	0xbd4d15e2	-0.050069697
210	0xbcc48611	-0.02398971
211	0xbeebfa41	-0.46089366
212	0x3df28901	0.11842538
213	0xbf012f02	-0.50462353
214	0x3e19c694	0.15017158
215	0xbe8bdd4a	-0.27317268
216	0x3e964d3b	0.29355797
217	0x3d908ca7	0.07058077
218	0xbd2d3e45	-0.042295713
219	0x3c9e9605	0.019358644
220	0x3d887fde	0.06665014
221	0xbdbb6c36	-0.09151499
222	0x3e3d79c3	0.1850348
223	0xbd8a0e6f	-0.06741034
224	0x3ea0add5	0.31382623
225	0xbda6298f	-0.081133954
226	0xbd8bf241	-0.06833316
227	0x3e30d4e8	0.17268717
228	0x3daa56ac	0.083173126
229	0xbee43dee	-0.445785
230	0x3e2c8f62	0.16851571
231	0xbebd5c2d	-0.36984387
232	0x3e3ad968	0.18246996
233	0x3e042f02	0.12908557
234	0x3b889671	0.0041683246
235	0xbc57bd97	-0.01316776
236	0x3d8a877e	0.06764124
237	0xbe470aa1	-0.19437648
238	0xbded0cf6	-0.11574738
239	0xbdd94b38	-0.1061005
240	0x3d2a53fd	0.041584004
241	0xbd2e76d5	-0.042593796
242	0xbd7dd4c6	-0.061970495
243	0x3debfcc6	0.11522822
244	0xbca332c3	-0.019921666
245	0x3da7bc43	0.08190205
246	0xbec02de9	-0.37535027
247	0x3d39e898	0.045387834
248	0x3d7a903c	0.06117271
249	0x3e85b50b	0.26114687
250	0xbe1cd126	-0.15314159
251	0x3e27b837	0.16378866
252	0xbd21504c	-0.039383218
253	0x3e6a7f20	0.22900057
254	0x3e412c7e	0.18864629
255	0x3e4518f9	0.19247808

model._layers.2.weight f4 [64, 64]
0	0x3cc9f879	0.024654614
1	0xbe56ec9c	-0.20988697
2	0xbe76b4e8	-0.24092448
3	0x3d76963d	0.060201872
4	0xbd2cea07	-0.042215373
5	0x3d5db5bd	0.054128397
6	0xbd13414f	-0.035950955
7	0x3e9398b3	0.28827438
8	0x3e1c3903	0.15256123
9	0x3de07424	0.10959652
10	0xbb915ba0	-0.0044359714
11	0x3eb7b9c8	0.35883927
12	0x3e95c348	0.2925055
13	0x3cc5ac79	0.024130093
14	0xbe139169	-0.14410938
15	0x3e40a8c0	0.18814373
16	0x3dc1b8c4	0.09459069
17	0x3e3132b1	0.17304493
18	0xbc6e5cd8	-0.014548503
19	0x3bf8a445	0.007587942
20	0x3e94096a	0.28913432
21	0x3df8ade4	0.12142542
22	0xbd48a7a5	-0.048988003
23	0x3df94ee8	0.12173253
24	0x3c68e154	0.014213879
25	0x3c0e036e	0.00866781
26	0xbd183e1d	-0.03716861
27	0x3e41b559	0.18916835
28	0xbd5ba007	-0.05361941
29	0xbe6f451e	-0.2336621
30	0xbdf278c3	-0.1183944
31	0x3dfb73f1	0.122779734
32	0xbee7c3cf	-0.45266578
33	0xbe02d415	-0.12776215
34	0x3e1e663c	0.15468687
35	0x3cddea01	0.02708912
36	0x3ca38049	0.019958632
37	0x3e23b540	0.1598711
38	0x3dfa4446	0.122200534
39	0xbcab4b4e	-0.020909932
40	0xbe95df03	-0.29271707
41	0x3d3d79a5	0.046258587
42	0xbe768e3d	-0.24077697
43	0xbda21d37	-0.079157285
44	0xbcc0e263	-0.02354545
45	0x3e05c845	0.13064678
46	0x3dc723af	0.09723603
47	0xbcb4be30	-0.022063345
48	0xbe365305	-0.17805107
49	0xbc8b8fce	-0.017036345
50	0x3c9f6032	0.01945505
51	0x3e3776cc	0.17916411
52	0x3db44689	0.08802516
53	0xbed53d3b	-0.41648278
54	0xbe8a3d31	-0.2699981
55	0xbe583396	-0.21113428
56	0x3ddecb8b	0.108786665
57	0x3cad839b	0.021180918
58	0xbd3b70c5	-0.045761842
59	0x3db9f48f	0.09079849
60	0x3da02dc4	0.07821229
61	0xbe99948e	-0.2999615
62	0x3e17eadb	0.14835684
63	0xbd74d3d7	-0.05977234
64	0xbe5f3f1f	-0.21801423
65	0xbda0adca	-0.07845648
66	0x3b387eba	0.0028151707
67	0xbe65c5f3	-0.22438793
68	0x3decfd2e	0.11571728
69	0x3e56fc61	0.20994712
70	0x3e418867	0.1889969
71	0x3cb9c8cc	0.022678755
72	0xbcba095d	-0.022709543
73	0x3e1edbf9	0.155136
74	0xbddf98f0	-0.109178424
75	0x3d823c91	0.063592084
76	0x3d664eb7	0.056227412
77	0xbdfacffa	-0.122467
78	0x3e061536	0.13094029
79	0xbe6db528	-0.23213637
80	0xbd4c1c73	-0.04983182
81	0x3d2eb9d1	0.042657677
82	0xbdb51437	-0.08841746
83	0x3e89c25c	0.26906097
84	0xbdddeb19	-0.10835857
85	0xbd9878d6	-0.074449226
86	0x3e4e9c85	0.20176895
87	0xbca54d2a	-0.020178396
88	0x3e4185fa	0.18898764
89	0xbdd905aa	-0.105967835
90	0xbde6671f	-0.112501375
91	0x3bc06a24	0.005872028
92	0x3e793c27	0.24339353
93	0xbde597d0	-0.112105966
94	0xbe8c20cd	-0.27368775
95	0x3dd6acae	0.10482155
96	0xbd4a495c	-0.049386367
97	0xbc8a2331	-0.016862484
98	0xbe704264	-0.23462826
99	0xbe1ba217	-0.15198551
100	0x3c06b957	0.008222899
101	0x3e7695cf	0.24080585
102	0x3e8db20a	0.27674896
103	0x3e32031b	0.17383997
104	0xbda70908	-0.081560194
105	0xbd1fabc6	-0.038982175
106	0x3da184f7	0.07886689
107	0x3d778501	0.060429577
108	0xbe6b3a2b	-0.22971408
109	0x3e2c277e	0.1681194
110	0x3c97f1e1	0.018547954
111	0x3d6e219d	0.058137525
112	0xbd164328	-0.03668514
113	0xbe34aec5	-0.17644794
114	0x3e2dc592	0.16969898
115	0xbe4e8f0b	-0.20171754
116	0xbcbb6359	-0.022874521
117	0xbbd54a28	-0.0065090843
118	0x3e4eb012	0.20184353
119	0xbccefe19	-0.025267648
120	0xbe2f9762	-0.17147592
121	0xbe1cc19a	-0.15308228
122	0x3e5c90de	0.21539637
123	0x3db6513d	0.08902214
124	0x3ceb8df9	0.028754221
125	0xbe476623	-0.19472556
126	0xbd0c2a9e	-0.03422033
127	0xbe85c758	-0.2612865
128	0x3d5ebe34	0.05438061
129	0xbdab8d21	-0.083765276
130	0x3e19862a	0.14992586
131	0xbe8f74cb	-0.28018793
132	0x3d7efb8a	0.062251605
133	0xbdc9fec0	-0.09863043
134	0x3ec0ce92	0.376576
135	0x3c642a33	0.013926077
136	0x3e741c8e	0.23839018
137	0xbd90e02f	-0.070740096
138	0x3d743d17	0.059628572
139	0x3e3acae4	0.18241459
140	0xbd3d6496	-0.046238504
141	0x3ea08177	0.31348774
142	0xbd6d131a	-0.057879545
143	0x3e7cc1a5	0.24683245
144	0xbcf76d64	-0.030203529
145	0xbd98e43f	-0.074654095
146	0xbeb1b759	-0.34710196
147	0x3989e83a	0.00026303699
148	0x3ded329c	0.115819186
149	0x3ead45fe	0.33842462
150	0x3e145153	0.14484148
151	0x3d97644c	0.07392177
152	0xbdea0c97	-0.114281826
153	0x3dcf6bdd	0.10127995
154	0xbeab7df6	-0.33494538
155	0x3e5af6e3	0.21383242
156	0xbe8932d0	-0.2679658
157	0x3dd6b703	0.104841255
158	0xbcb46c5e	-0.02202433
159	0x3dac9503	0.08426859
160	0xbd884acf	-0.066548936
161	0x3e16d4d9	0.14729632
162	0xbe919dc0	-0.28440666
163	0xbdbda221	-0.09259439
164	0x3e01fff4	0.12695295
165	0xbe50db62	-0.20396188
166	0x3e01c365	0.12672193
167	0xbcff118c	-0.031136297
168	0xbdc7b952	-0.09752144
169	0xbe243ecb	-0.16039579
170	0xbbe3b4fe	-0.006949066
171	0xbe50466e	-0.20339367
172	0x3dbcb16d	0.09213529
173	0xbe91326c	-0.2835878
174	0xbec1eb4d	-0.37874833
175	0xbe8fc3fb	-0.2807921
176	0x3de7129b	0.112828456
177	0x3ca4bc61	0.020109357
178	0x3d9da031	0.0769657
179	0x3d709986	0.05874016
180	0xbe6b6e39	-0.22991265
181	0x3d81e8f7	0.06343263
182	0x3f0a0e25	0.5392783
183	0x3da2bb48	0.07945877
184	0xbdec5ece	-0.1154152
185	0x3e0a4ecc	0.13506621
186	0x3e6e324f	0.23261379
187	0xbdd52965	-0.10408286
188	0x3e3e8d6f	0.1860864
189	0x3d506905	0.050881404
190	0xbd764e69	-0.06013337
191	0xbcae8550	-0.021303803
192	0xbe9f327c	-0.31093204
193	0x3e4e0b11	0.20121409
194	0xbebe94e7	-0.37222978
195	0x3e097806	0.13424692
196	0xbe3b4cac	-0.18290967
197	0xbe0c1bf3	-0.13682537
198	0x3dace4e0	0.08442092
199	0xbe3b0111	-0.18262126
200	0x3e0ed3c4	0.1394797
201	0xbe8febfa	-0.28109723
202	0xbcddab9a	-0.027059365
203	0xbd54eb7f	-0.0519824
204	0xbd05b516	-0.0326434
205	0xbe26b8bc	-0.16281408
206	0x3de0a10b	0.109682165
207	0xbe44b37c	-0.19209093
208	0x3e3babab	0.18327205
209	0x3dceab8a	0.10091312
210	0x3ea56b09	0.32308224
211	0x3ca154d2	0.019693766
212	0xbde64e93	-0.112454556
213	0xbe56ac3f	-0.20964144
214	0x3e7d7558	0.24751794
215	0xbd012c15	-0.03153618
216	0xbc5a8c45	-0.013339107
217	0x3e3cafc6	0.18426427
218	0xbd0bb5e2	-0.034109004
219	0xbd21e59a	-0.039525606
220	0xbe028f55	-0.1274999
221	0x3c231ba1	0.009955318
222	0xbc3d5bbe	-0.011557518
223	0x3cd28d8d	0.025702262
224	0xbe1d160d	-0.15340443
225	0x3dd6e0af	0.10492074
226	0xbdf52820	-0.11970544
227	0x3d65d71e	0.056113355
228	0xbce56f6e	-0.028007235
229	0x3e651c2e	0.22374031
230	0xbc1ad0ba	-0.009449178
231	0xbdf29c49	-0.11846215
232	0xbccbf78a	-0.02489831
233	0xbdb9c09a	-0.09069939
234	0x3e6c2544	0.2306109
235	0xbd279b6b	-0.040919703
236	0xbd1b1260	-0.03785932
237	0xbe5d80c0	-0.21631145
238	0x3d9bfe22	0.07616831
239	0xbe6cc828	-0.23123229
240	0x3daeb880	0.08531284
241	0xbba9e2c1	-0.005184502
242	0x3cec1dc2	0.028822783
243	0x3d943f4e	0.07238637
244	0xbe9ee6ae	-0.3103537
245	0x3dafc10f	0.08581745
246	0x3eb25c5c	0.3483609
247	0xbdbc323a	-0.091892675
248	0x3e8dd244	0.27699482
249	0xbd64b4dc	-0.055836543
250	0x3e3739be	0.1789312
251	0xbd4ae644	-0.049536005
252	0xbd89b855	-0.06724612
253	0x3e8ab4df	0.2709112
254	0x3e0ae2ee	0.1356313
255	0x3e949152	0.2901712

model._layers.3.weight f4 [64, 64]
0	0xbd9ffc03	-0.07811739
1	0xbe3793bf	-0.17927454
2	0x3e900c87	0.28134558
3	0xbe0a41af	-0.13501619
4	0x3deaa4c4	0.11457208
5	0xbe2b2948	-0.16714966
6	0x3d07d3a2	0.033160813
7	0xbe0a800e	-0.13525411
8	0xbd2ef095	-0.042709906
9	0x3d9942ea	0.07483466
10	0xbe94a9a9	-0.2903569
11	0xbc8e855d	-0.017397577
12	0x3d45854c	0.048222825
13	0x3e819c28	0.2531445
14	0x3e647bee	0.223129
15	0x3d24f965	0.040276904
16	0xbda922b4	-0.08258572
17	0xbd52350f	-0.051320132
18	0x3c53cdc4	0.012927476
19	0x3dcd3593	0.10019984
20	0x3da8cecd	0.08242569
21	0x3df7e9b4	0.12105122
22	0x3eaf20e0	0.3420477
23	0xbea38660	-0.31938457
24	0x3e57edba	0.21086779
25	0x3e939e4d	0.2883171
26	0xbe31c389	-0.17359747
27	0xbe0ab450	-0.13545346
28	0x3edee283	0.4353219
29	0x3aca2095	0.0015421087
30	0x3ec77c3c	0.3896197
31	0xbd3499a6	-0.044091843
32	0xbc03af61	-0.008037419
33	0xbe9b25d0	-0.30302286
34	0x3e0e3545	0.13887508
35	0x3d9bdaed	0.07610116
36	0xbd1d8f08	-0.038466483
37	0x3e08f11b	0.13373224
38	0x3e71564a	0.23568073
39	0x3ce32690	0.027728349
40	0x3ea52a77	0.3225896
41	0xbdb241fd	-0.087039925
42	0xbe404dc7	-0.1877967
43	0x3d324060	0.043518424
44	0x3d2480b2	0.040161796
45	0x3d5120c0	0.051056623
46	0x3d9f77eb	0.077865444
47	0x3c23eb78	0.010004871
48	0xbe35cf3b	-0.17754833
49	0xbdfe9c75	-0.124321856
50	0x3e83a4ac	0.25711572
51	0x3e22b971	0.15891053
52	0x3e9e82b5	0.30959097
53	0xbcf76c2d	-0.03020295
54	0xbe6e2414	-0.2325595
55	0x3d1d675a	0.03842864
56	0xbd9a3d63	-0.0753124
57	0x3e5488dd	0.20755334
58	0xbe522d42	-0.20525077
59	0x3d468b00	0.048472404
60	0xbdc94890	-0.09828293
61	0x3d6bd758	0.057578415
62	0xbdc0b6d0	-0.09409869
63	0xbdd865ec	-0.10566315
64	0xbeb65c9a	-0.35617524
65	0xbe7d2dca	-0.24724498
66	0x3e1500bc	0.14551061
67	0x3ec311ab	0.38099417
68	0xbe53d398	-0.20686185
69	0xbe1ce68f	-0.15322326
70	0x3de13b9d	0.109976985
71	0x3d9b704a	0.07589777
72	0x3db58dc1	0.08864928
73	0xbb7631d5	-0.0037566323
74	0xbe3eeffe	-0.18646237
75	0x3d4362cf	0.047701653
76	0xbe315972	-0.17319277
77	0x3e6140f4	0.21997434
78	0x3d862a98	0.06551093
79	0x3dd2c185	0.10290817
80	0xbd1d03bd	-0.038333643
81	0x3e30ea00	0.17276764
82	0xbe5e3764	-0.21700817
83	0xbe836216	-0.2566077
84	0x3e165515	0.14680894
85	0xbe80a43e	-0.25125307
86	0xbd059d07	-0.032620456
87	0xbe52f19b	-0.20599978
88	0xbd8e1040	-0.06936693
89	0x3cf657a0	0.03007108
90	0x3f1259f1	0.5716849
91	0xbe32e06c	-0.17468423
92	0xbe222bee	-0.1583707
93	0x3eacffef	0.33789012
94	0x3caa6618	0.020800635
95	0x3db429a9	0.087970085
96	0xbd6df1d5	-0.058091957
97	0x3d3c1c49	0.045925412
98	0xbe191c35	-0.14952166
99	0x3e808713	0.25103053
100	0x3c5f3f74	0.013625968
101	0xbc3f02d3	-0.011658388
102	0x3d844124	0.06457737
103	0xbeab3acd	-0.334433
104	0x3d9ec8c3	0.07753136
105	0x3ed47eb1	0.41502908
106	0x3e247d79	0.16063489
107	0x3e8d1fad	0.2756323
108	0xbb53b242	-0.0032302295
109	0x3d1fa67a	0.038977124
110	0xbe9af976	-0.3026845
111	0xbe00ee58	-0.12590921
112	0x3ddaca9c	0.10683176
113	0x3e4c68d6	0.19961867
114	0xbe44da68	-0.1922394
115	0x3eb5c86f	0.3550448
116	0xbd9a4534	-0.07532731
117	0x3f00f370	0.50371456
118	0x3ec1789b	0.37787327
119	0x3dec9d44	0.115534335
120	0x3e104051	0.14087035
121	0x3db00f0d	0.08596621
122	0x3e1bc6d4	0.15212566
123	0xbc664115	-0.014053603
124	0x3e3edfb8	0.1864003
125	0x3dceda9b	0.101002894
126	0xbe3f7985	-0.186987
127	0xbe056d91	-0.13030078
128	0x3e1e448f	0.1545584
129	0x3dcef4a5	0.10105256
130	0xbe995ebf	-0.29955098
131	0xbf112976	-0.5670389
132	0x3e119500	0.14216995
133	0xbed967ef	-0.42462108
134	0xbe59b1ff	-0.21259306
135	0x3dbf6c79	0.093468614
136	0xbe97fee7	-0.29686663
137	0xbe9c6b84	-0.30550778
138	0x3d0c89eb	0.034311216
139	0xbeb0e7dd	-0.34551898
140	0xbeb10613	-0.34574947
141	0xbdec1d94	-0.11529079
142	0x3bfefaf7	0.007781382
143	0xbd32c5ec	-0.043645784
144	0xbd96c304	-0.07361415
145	0xbe1a4f8b	-0.15069406
146	0x3edcc008	0.43115258
147	0x3d6d8cc3	0.05799557
148	0xbea91a85	-0.33028045
149	0xbdea9a94	-0.11455265
150	0xbc639452	-0.013890343
151	0xbe5b525c	-0.21418136
152	0x3e248ab6	0.16068539
153	0x3d5f8120	0.054566503
154	0x3e8026a9	0.25029495
155	0x3da86f8e	0.08224402
156	0x3e4ba11c	0.19885677
157	0x3ec19f3f	0.37816808
158	0xbea4878f	-0.32134673
159	0xbe76ab74	-0.24088842
160	0xbe16f2f7	-0.14741121
161	0x3e43b77f	0.19112967
162	0x3dd7c524	0.105356485
163	0x3e28e805	0.16494758
164	0xbe0e87cf	-0.13918994
165	0xbc905ede	-0.017623361
166	0xbe574ca7	-0.21025334
167	0x3eb2f228	0.34950376
168	0xbeb94a7f	-0.36189649
169	0x3e7a37d2	0.24435356
170	0xbd988ef8	-0.07449144
171	0xbe708550	-0.23488355
172	0x3e356158	0.17712915
173	0xbe283957	-0.16428123
174	0x3e1d01fe	0.15332791
175	0x3cae2e9e	0.021262463
176	0x3e968a2e	0.29402298
177	0x3e49a520	0.19691896
178	0x3dd7550b	0.105142675
179	0x3e39b16e	0.1813409
180	0xbe16112a	-0.14654985
181	0x3e1d6d17	0.15373646
182	0x3d82bfc9	0.06384236
183	0xbeb0805f	-0.3447294
184	0x3e7b88ba	0.24563876
185	0xbd9497b6	-0.07255499
186	0x3e359c6e	0.17735454
187	0x3e05cdcf	0.13066791
188	0xbe2ec067	-0.17065583
189	0xbe66a884	-0.22525221
190	0x3df949cb	0.12172278
191	0xbed76a10	-0.42073107
192	0x3e3ce6c3	0.18447404
193	0xbde00843	-0.10939076
194	0xbe898470	-0.26858854
195	0x3da00233	0.078129195
196	0xbe2963ac	-0.16541928
197	0xbe64bf65	-0.22338636
198	0xbd789ee2	-0.060698397
199	0xbdcb29e3	-0.09920099
200	0xbeaa998a	-0.33320266
201	0xbeae3781	-0.3402672
202	0x3e984871	0.29742768
203	0xbd582200	-0.0527668
204	0xbe852b50	-0.26009607
205	0x3d4f830e	0.050662093
206	0x3d618454	0.05505784
207	0xbc78f0be	-0.015194116
208	0xbd29b4dc	-0.041432247
209	0x3e9294c1	0.28629115
210	0x3e7d602c	0.24743718
211	0xbdf2541c	-0.11832449
212	0xbc1ca901	-0.009561778
213	0xbe5ade8d	-0.21373959
214	0xbe682575	-0.22670539
215	0x3d30e8b7	0.043190684
216	0xbdfe1794	-0.12406841
217	0x3eb23398	0.34804988
218	0x3dda7af0	0.1066798
219	0x3dd7f58d	0.10544882
220	0xbd8e0bed	-0.069358684
221	0x3e576f97	0.21038662
222	0x3df5920b	0.11990746
223	0xbc84c4f4	-0.016207196
224	0xbdd3b7c4	-0.10337785
225	0xbc5ac22a	-0.013351956
226	0xbe3a2b14	-0.18180496
227	0xbe29cd2b	-0.16582172
228	0xbc301820	-0.010747939
229	0xbd3662c8	-0.0445278
230	0x3d76d9b9	0.06026623
231	0xbd1272eb	-0.035754126
232	0xbdd802a0	-0.10547376
233	0x3bf6fa48	0.00753716
234	0xbdf94166	-0.12170677
235	0x3e2d7344	0.16938502
236	0xbeaef154	-0.34168494
237	0xbe78d2aa	-0.24299112
238	0x3ce769f2	0.02824876
239	0x3f044289	0.51664025
240	0x3a577f26	0.0008220546
241	0xbe1a92e9	-0.15095104
242	0xbdbb5caa	-0.09148534
243	0xbd18d757	-0.03731474
244	0x3cdc0338	0.026857004
245	0xbe094f0d	-0.13409062
246	0xbe1e806f	-0.15478681
247	0xbe360c18	-0.17778051
248	0x3dab0913	0.0835134
249	0xbcb7b36b	-0.02242442
250	0xbe8a005c	-0.269534
251	0x3d5126fd	0.051062573
252	0xbe380b77	-0.17973123
253	0x3d0d413b	0.034486037
254	0xbc10095b	-0.008791293
255	0x3c8f9a0a	0.017529506

exp_avg f4 [64, 14]
0	0x3c1b93d0	0.00949569
1	0xb5a052ed	-1.1945064e-06
2	0x3ca28ae3	0.019841617
3	0x392b2276	0.00016320669
4	0x33485087	4.6639368e-08
5	0x33b81d83	8.573536e-08
6	0x3719c4fd	9.165376e-06
7	0x3928a7c2	0.00016084223
8	0x391f8cd7	0.00015215889
9	0x374ef40a	1.2335377e-05
10	0x3807da6f	3.238994e-05
11	0x382e2073	4.1515053e-05
12	0x38d7865f	0.000102770275
13	0x375f72e7	1.3318589e-05
14	0xbc3e1d8e	-0.011603726
15	0xb6ae7328	-5.19901e-06
16	0x3c2cd9a3	0.0105499355
17	0x392ceb35	0.0001649082
18	0x32d20a68	2.445195e-08
19	0x34b4cd65	3.3677057e-07
20	0xb6d4efbf	-6.3460025e-06
21	0xb92e6549	-0.00016631665
22	0xb94fd15b	-0.0001981905
23	0xb786badc	-1.6061058e-05
24	0xb850d79a	-4.979186e-05
25	0xb855b0a7	-5.0947678e-05
26	0xb8fb5c9a	-0.00011985861
27	0x36bd2580	5.6370045e-06
28	0xbd56cbab	-0.052440327
29	0xb7c136bf	-2.3032886e-05
30	0xbe7855f7	-0.24251543
31	0xbabc4a15	-0.001436534
32	0x349b0aab	2.8878762e-07
33	0xb40b9962	-1.3001184e-07
34	0xb896f0be	-7.197399e-05
35	0xba656c68	-0.00087518105
36	0xba68c64f	-0.0008879648
37	0xb8868d43	-6.41593e-05
38	0xb972f41d	-0.00023169858
39	0xb9729a1b	-0.00023136327
40	0xba625e58	-0.0008635274
41	0x37a591a7	1.9737357e-05
42	0xba74d6fd	-0.0009339897
43	0x398c569c	0.0002676741
44	0x3df277b2	0.11839236
45	0x399e6089	0.00030208033
46	0x3594abf8	1.1076909e-06
47	0x3578c75b	9.26773e-07
48	0xb7a9ec7d	-2.0256493e-05
49	0xb89a27c5	-7.3507e-05
50	0xb653b920	-3.1549207e-06
51	0x363928c3	2.7590875e-06
52	0xb68e9180	-4.248868e-06
53	0xb65f5647	-3.327981e-06
54	0x396c8fc8	0.00022560277
55	0x39712f48	0.00023001165
56	0xbcc18c57	-0.02362649
57	0x370697e1	8.0223845e-06
58	0xbde52cab	-0.1119016
59	0xba35693c	-0.0006920283
60	0x33f23f3b	1.1280505e-07
61	0x336510e0	5.3333565e-08
62	0xb8050ce3	-3.1721673e-05
63	0xb9c4b1f7	-0.00037516627
64	0xb9d9f19d	-0.0004156948
65	0xb7f67b50	-2.9382907e-05
66	0xb8f4eeb3	-0.00011679288
67	0xb8dcfec3	-0.000105378705
68	0xb9d746b5	-0.00041060676
69	0x375ee09b	1.3284526e-05
70	0xbd286b43	-0.041117918
71	0xb98fc442	-0.0002742131
72	0x3d5d80fd	0.05407809
73	0x3a6f56cb	0.00091300596
74	0xb58415aa	-9.841071e-07
75	0xb509c6eb	-5.132594e-07
76	0xb7f4d43f	-2.9185901e-05
77	0xba09c462	-0.00052553986
78	0xba3bc90f	-0.0007163444
79	0xb8601042	-5.3420903e-05
80	0xb958537b	-0.00020630464
81	0xb9373b91	-0.0001747443
82	0xb9f4d9eb	-0.00046701668
83	0xb95438f8	-0.00020239118
84	0x3d0f98c3	0.035057794
85	0x38799c33	5.9511698e-05
86	0x3d2cd85a	0.042198516
87	0x371bcd05	9.286455e-06
88	0x33b581e0	8.4520934e-08
89	0x351d04d2	5.849407e-07
90	0x380e44b7	3.3919434e-05
91	0x3a06de3f	0.00051448116
92	0x3a1725dc	0.00057658344
93	0x3836dfbf	4.360056e-05
94	0x391949d8	0.00014618726
95	0x391af7a8	0.00014778844
96	0x3a00d52b	0.0004914577
97	0x3882c9a3	6.236441e-05
98	0xbcd02fc5	-0.025413403
99	0x37b4e494	2.1564112e-05
100	0xbc98a027	-0.018631054
101	0xb9873e95	-0.00025795834
102	0x33b19bcd	8.270545e-08
103	0x3436ecef	1.7036267e-07
104	0xb7aea96f	-2.0821315e-05
105	0xb9e1915d	-0.00043023648
106	0xb9c40130	-0.00037384918
107	0xb8099334	-3.280044e-05
108	0xb89906ab	-7.2968505e-05
109	0xb8e0826a	-0.00010705444
110	0xb954f9d7	-0.00020310968
111	0x37e6f63b	2.7532797e-05
112	0x3cbb7be2	0.02288622
113	0x39a4e06e	0.0003144773
114	0x3e0f9b64	0.1402412
115	0x38d67d78	0.000102276856
116	0x35e2789f	1.6873418e-06
117	0xb4df1348	-4.1551016e-07
118	0xb4d030dd	-3.8778572e-07
119	0x39498c49	0.00019221114
120	0x39d8824d	0.00041295812
121	0x38058419	3.1832697e-05
122	0x39196839	0.00014630043
123	0x38c5920d	9.420896e-05
124	0x3a129cea	0.000559284
125	0x39684a65	0.00022152958
126	0x3c8fc8c6	0.01755179
127	0x37a5b8ff	1.9755678e-05
128	0x3e056f07	0.13030635
129	0x3a3dd812	0.0007241975
130	0x348c6d7c	2.6156692e-07
131	0x33e918c0	1.085441e-07
132	0x3800198f	3.054138e-05
133	0x39a109c0	0.00030715577
134	0x39a21b73	0.000309195
135	0x37adaa88	2.0702617e-05
136	0x38bf653c	9.126446e-05
137	0x38a6e9bf	7.9590354e-05
138	0x39c279cf	0.00037093318
139	0x376001ba	1.3351842e-05
140	0x3b1e5a8b	0.0024162855
141	0x376e8ce5	1.421871e-05
142	0x3e530a15	0.20609315
143	0x3aa5ec1f	0.001265887
144	0xb4419943	-1.8030282e-07
145	0xb3007743	-2.991079e-08
146	0x37d9f697	2.5983243e-05
147	0x38be3c72	9.071165e-05
148	0x38b096a3	8.420392e-05
149	0xb3eb5e4a	-1.0960191e-07
150	0x38200fce	3.8161692e-05
151	0x378da2e7	1.6884367e-05
152	0x399d3e34	0.00029991718
153	0x366d3bed	3.5350633e-06
154	0x3c473864	0.012159441
155	0xb89c0277	-7.439119e-05
156	0x3d0e1685	0.034689445
157	0x39a99ad2	0.00032349542
158	0xb4af5a66	-3.2662064e-07
159	0xb4078e93	-1.2624723e-07
160	0x37c02e56	2.290976e-05
161	0x395fe26f	0.0002135129
162	0x395698b8	0.00020465523
163	0x375f9e48	1.33286885e-05
164	0x3871dafa	5.7662815e-05
165	0x385e3b4b	5.2984145e-05
166	0x3923e58b	0.00015630403
167	0xb861b4e7	-5.381266e-05
168	0x3c6c2d0b	0.014415036
169	0x38efc6a0	0.00011433405
170	0x3bc72deb	0.006078472
171	0xb98d7234	-0.00026978704
172	0x351c7f23	5.8299537e-07
173	0xb3196732	-3.5716944e-08
174	0x37b1089b	2.1104051e-05
175	0x395f3e8f	0.00021290242
176	0x3978e277	0.00023735488
177	0x37856c1d	1.590518e-05
178	0x38a6335b	7.9250625e-05
179	0x3878adc3	5.9289636e-05
180	0x394000c7	0.00018310836
181	0x38ab59a0	8.170609e-05
182	0xbd05d3e6	-0.032672785
183	0x36d0cf82	6.22304e-06
184	0xbe3e2aa2	-0.1857095
185	0xba8d840b	-0.0010796798
186	0x348e8c6f	2.655174e-07
187	0x338dcfa7	6.603596e-08
188	0xb84ceb32	-4.8856433e-05
189	0xba0b59e4	-0.0005315824
190	0xba1372eb	-0.0005624729
191	0xb8239f57	-3.9010625e-05
192	0xb92350cb	-0.00015574989
193	0xb9166f81	-0.00014346653
194	0xba1e2df7	-0.0006034071
195	0x37b4a510	2.1534535e-05
196	0x3ca6b2b6	0.020348888
197	0x390325bf	0.00012507195
198	0x3e169bd7	0.14707886
199	0x3a393693	0.0007065322
200	0x35135675	5.488758e-07
201	0xb3d3e7e2	-9.8676324e-08
202	0x3779f1df	1.4897872e-05
203	0x399824cb	0.00029019112
204	0x39b417e8	0.00034350087
205	0x37e1e8c5	2.6930482e-05
206	0x38c89988	9.5653406e-05
207	0x38b8d916	8.814239e-05
208	0x39ddc58b	0.00042299586
209	0x388792e9	6.464666e-05
210	0xbc50ac0a	-0.01273633
211	0x38a31899	7.777027e-05
212	0xbc5970a2	-0.013271483
213	0xb9636a67	-0.00021688045
214	0x352fb72b	6.5459125e-07
215	0xb41e0cb7	-1.4719522e-07
216	0xb7b0c637	-2.1073136e-05
217	0xb968788f	-0.00022170156
218	0xb953788d	-0.00020167437
219	0xb771640b	-1.43880125e-05
220	0xb84c0afa	-4.8647613e-05
221	0xb8627292	-5.39893e-05
222	0xb91334eb	-0.00014038726
223	0x389239ca	6.9725866e-05
224	0x3cf09c7d	0.029371494
225	0x3892d330	7.001159e-05
226	0x3d8678e5	0.065660276
227	0x39b0dc3d	0.00033733426
228	0x34f08198	4.4797775e-07
229	0x3533cdeb	6.6982346e-07
230	0x38094069	3.2723332e-05
231	0x3a056c8f	0.0005089724
232	0x39e888bf	0.00044352372
233	0x3815ce00	3.571622e-05
234	0x38cd5f1f	9.7928794e-05
235	0x39024b01	0.00012425707
236	0x39b2117f	0.0003396384
237	0x38951fe2	7.110812e-05
238	0xbba21eb1	-0.0049475064
239	0x38de0dff	0.00010588392
240	0x3d5a5735	0.053305823
241	0x3928f3f0	0.00016112602
242	0x35560107	7.972271e-07
243	0x33eb195d	1.0947654e-07
244	0xb732b67c	-1.0652115e-05
245	0xb8a53763	-7.87813e-05
246	0xb8c401ab	-9.346319e-05
247	0xb6bb2246	-5.5770242e-06
248	0xb7b8abec	-2.2014567e-05
249	0xb7b81809	-2.1945702e-05
250	0x37643550	1.3602272e-05
251	0x38f5c7ea	0.00011719747
252	0x39896c71	0.0002621147
253	0xb998010f	-0.00028992488
254	0xbc9a8814	-0.018863715
255	0x39fd27e8	0.00048285653
