notebooks/lightning_logs/version_53551072/checkpoints/epoch=999-step=1000-v1.ckpt (torch, 225791 bytes, 18 tensors)

model._encoder.weight f4 [64, 14]
00000000: 7887 203e 31d6 e13e 028f cf3e 2f2e e2be
00000010: 9d30 c9bd 77a1 19bd 54d8 ff3c ccb2 02bf
00000020: 7d5c 91be a4b3 ffbe d375 76be fbbc 0d3e
00000030: 175e cabe 8877 8e3e e5f3 ec3d a4cb 04bf
00000040: e6e4 1c3e a3dc 133f 63ee ef3e 0431 aa3d
00000050: 721d 80be 5cd1 153e f707 b03e 6886 bfbe
00000060: 44d5 9b3c 3f41 2bbe 1f18 8a3e e219 b9be
00000070: 3f7f 8c3c 7c45 b03e 74b3 183f 7b97 b7be
00000080: 2906 1e3f 5276 0c3d 2cad d8be d423 373b
00000090: ddfe 1a3f b119 88be 2d5d b2be f353 b23c
000000a0: d62a a7be 9703 d9bd b15b 633c 35a4 16bf
000000b0: ab3e aabe f3f9 0fbe af64 adbe a50f 5e3c
000000c0: 8e0d 0a3f 2b7d ddbe ad73 f73d bcd2 57bd
000000d0: 7b4d 093f d969 683e cd96 913e 759e 16be
000000e0: 64c0 9ebe a894 8bbd 9797 943e f407 dc3e
000000f0: 16e2 2a3e 9be3 093d eedd 30be 32d6 2d3d
00000100: df2e 32bd b0fa 31be 758c f43e 3c8d a4be
00000110: b025 e6bd 8eb9 16be ab71 f3bb 68a4 053e
00000120: fa40 2abf c14d a1bd e12a 843b c43e adbd
00000130: e13f cb3c 036b 26bd d50c 6b3b 1c93 723e
00000140: 3be1 713e c1e4 2abe b7a7 ce3e 92b0 903e
00000150: f8ca 933e 2147 7dbe fa2c 4c3d c5aa d5be
00000160: 9db9 29bf 9aa2 1ebd adcb 643b 8e70 463e
00000170: f62e 8c3e 7001 703e 3461 783d ea44 56be
00000180: 2951 67bf 4c95 8fbc 070e 273e e3e7 3e3f
00000190: c9d8 f93d 32a8 a9be b0ec ac3e ed13 62be
000001a0: 000e 43bb 81c5 dfbe b361 a83e ff27 84be
000001b0: 46b4 bbbe 3b8a 20bf b04d 51be 59f6 98bd
000001c0: 5803 e2bd d29b f7be a555 26be 32d7 123f
000001d0: a1f3 803e 9b51 1e3e b3bf cabe 7d8a 11be
000001e0: b3ee 2fbf 4e51 cebd edd0 0abe a347 993d
000001f0: c66c cebd b148 06bd c181 173f 2386 ab3e
00000200: a380 453e fe6f a3bd e2ad 003f fa17 993e
00000210: 6b83 1b3e f0fe 623e 54e7 613e 99db 0dbd
00000220: bfa5 95be 062a e83d ca69 b03c 3c13 babd
00000230: 924b 513f 6eea e73b d7f1 bb3d bd9d 9b3e
00000240: 3383 993e a550 46be 6018 993d a8e6 ec3d
00000250: 5759 d83d 34b6 3ebe 6957 d43d 2d01 ac3d
00000260: c8a7 8e3e 96e8 46be e71b 82be d889 42be
00000270: 8216 343e 9fe5 6ebe efb1 33bd 52b7 043f
00000280: efb2 fd3b aa9f 043e 6d05 84be ebfa 4ebe
00000290: 0bc6 55be 4eb7 9abe aee5 dcbe ca53 b7bd
000002a0: 2141 2bbf a348 bc3b 2658 523d 3df7 adbe
000002b0: 7193 ccbd c70e 9ebe c753 803e 2034 b33e
000002c0: ccb1 02bf 175e b7be f8f7 28bf f20c f3bd
000002d0: 38aa 09bf 5984 6f3c f7b7 503d d414 393e
000002e0: d31b dc3d 48ca 67be e297 20be d015 303d
000002f0: 27e4 04be 1eec 6f3e 17f3 7d3e a25d cabd
00000300: 8a68 84be 179d 01bf 2a20 df3c db08 973e
00000310: 37ac 68bd c146 3f3d d872 26be b317 b73e
00000320: 9ff9 42be e94b 39bd 4095 823d d027 0abe
00000330: b534 2d3e de1e 27bf f80e f4bd 3f5f 8c3e
00000340: 93d7 6cbe c9a3 efbe aa17 15be 7761 ad3e
00000350: 8540 99be 69ce f43d 1b84 9fbd b143 ce3e
00000360: 1b8c b1bd e5a0 863b e0c6 13be 4d4b 31be
00000370: dda5 ef3c d03b 213e b2cc 52bf bc85 30be
00000380: 3af9 ba3e 3909 cdbe 81c6 a23d 2b66 0e3e
00000390: c644 36bd 3248 fe3e 269b 9d3d 7d52 bfbd
000003a0: 0b7e fe3e 116f 703d a394 293e b054 853e
000003b0: 6c71 093d 8d01 57be 846b 843e 6f72 2e3f
000003c0: 8c48 45be 26ba 6dbe c54f 26be 28ab 5b3e
000003d0: 45bf c53d 1b3c 0abe c174 6cbd 8524 c93e
000003e0: 0b98 8cbd ff7e e43e d0a5 f9bd b416 123e
000003f0: 7d8b e83d 613d bf3e 7f40 aebe 9e6e 4f3e
0.15676677 0.44108728 0.40538794 -0.4417586 -0.098237254 -0.0375075 0.031231083 -0.5105407
-0.28390875 -0.49941742 -0.24068384 0.13841622 -0.3952491 0.2782557 0.11569957 -0.5187323
0.15321693 0.5775854 0.46861562 0.0831013 -0.25022465 0.14630646 0.34381077 -0.3740723
0.019022591 -0.16724108 0.26971528 -0.3615256 0.01715052 0.34428012 0.59648824 -0.35857758
0.6172815 0.034292527 -0.4231962 0.002794494 0.6054514 -0.265821 -0.34836712 0.021768546
-0.3264987 -0.10596388 0.013876841 -0.5884431 -0.33250937 -0.14060192 -0.33865878 0.013553535
0.5392693 -0.43259558 0.1208261 -0.052691206 0.5363385 0.22696628 0.28435364 -0.14708884
-0.31006157 -0.06815463 0.29021904 0.42974818 0.16687807 0.033664327 -0.1727216 0.0424406
-0.04350173 -0.17380786 0.4776341 -0.32139003 -0.11237657 -0.14719221 -0.0074293218 0.13050997
-0.66505396 -0.078761585 0.004033432 -0.08459237 0.024810733 -0.040629398 0.0035865803 0.2368893
0.23621075 -0.16688825 0.4036233 0.28259712 0.2886579 -0.24734165 0.04984758 -0.4173185
-0.6629885 -0.038729288 0.003491144 0.19378874 0.27379578 0.23438048 0.060639575 -0.20924726
-0.90358216 -0.017527245 0.16313945 0.7457258 0.121995516 -0.33136135 0.33774328 -0.22077914
-0.0029762983 -0.4370537 0.3288704 -0.25811765 -0.36660975 -0.6271092 -0.20439792 -0.07468862
-0.11035794 -0.4836107 -0.16243608 0.5735961 0.25185874 0.15460818 -0.3959938 -0.14212985
-0.687236 -0.100741014 -0.13556261 0.07484367 -0.10079341 -0.032784168 0.59182364 0.33500776
0.19287352 -0.07980345 0.50265324 0.29901105 0.1518685 0.22167563 0.22060901 -0.034633253
-0.29228017 0.1133614 0.02153482 -0.090857 0.81755936 0.0070775067 0.09176987 0.30393782
0.2998291 -0.19366701 0.07475352 0.11567432 0.10563915 -0.18624192 0.10368235 0.08398662
0.27862382 -0.19424662 -0.25411913 -0.18997896 0.17586711 -0.23329781 -0.043870863 0.51842225
0.007742278 0.12951532 -0.2578539 -0.20212905 -0.20876329 -0.30217975 -0.43143982 -0.08951528
-0.66896254 0.0057459637 0.051353596 -0.3397769 -0.0998906 -0.3087065 0.25063917 0.35000706
-0.51052547 -0.35813972 -0.6600337 -0.118677035 -0.5377536 0.0146189565 0.050956693 0.18074352
0.107474945 -0.22635758 -0.15682939 0.042989552 -0.12977658 0.23429915 0.24799763 -0.0988114
-0.25861007 -0.50630325 0.027237017 0.29498944 -0.056804862 0.046698336 -0.16254747 0.3576027
-0.19040535 -0.04523841 0.063761234 -0.1349175 0.16914637 -0.65281475 -0.119169176 0.27416417
-0.2312911 -0.46804646 -0.14559808 0.33863422 -0.29932037 0.11953432 -0.07788869 0.4028602
-0.08669301 0.0041085356 -0.14431334 -0.17313881 0.029253894 0.15745473 -0.8234359 -0.17238516
0.3651827 -0.400461 0.07948018 0.13906161 -0.04449918 0.49664456 0.07695608 -0.09341905
0.49705538 0.05869967 0.16560607 0.26041174 0.033555433 -0.20996685 0.25863278 0.6814336
-0.19265956 -0.23215541 -0.16241367 0.2145201 0.096556224 -0.13499491 -0.057728533 0.39285675
-0.068649374 0.4462814 -0.12189829 0.14266473 0.1135473 0.37351516 -0.34033582 0.20257041

model._decoder.weight f4 [8, 64]
00000000: 466a 6c3e a4b4 383e a69c 0b3f 1058 d6bd
00000010: 93d6 2d3e 4100 833e a04c 953d 2b87 0bbe
00000020: 0442 213d f550 04bf 2b75 8bbe aa8c 5a3e
00000030: cf36 a6bd 1eb7 183e 231a 70be 1d1c 8c3e
00000040: 2a6e 36be 44b2 803d 18ac b03d 4784 fa3d
00000050: c555 713e 1735 bd3e 2245 073e 8aa6 98be
00000060: e1c1 ef3c 33d5 19be f406 8d3e c282 0fbe
00000070: 5bf4 8f3e 6a80 083e cefa dbbe b85a 623e
00000080: 9117 d4be 21e3 dbbe 596a ff3d e79e bdbc
00000090: ecd5 da3e 6bc6 853e e34f 2c3d e06b 373e
000000a0: 9f0e 93be 7019 0b3e 1e6d cbbe 9068 9ebd
000000b0: 22f2 cf39 6383 923e 5ca7 3fbe ce82 f2be
000000c0: 5add 503d 046f 8a3e 4828 7c3d 4abe 7d3e
000000d0: c5ad 70be 6492 863d 2feb 323e 990f b33e
000000e0: 422c cf3d 12cb e83c a3cd 903e 575b 7e3e
000000f0: 1c85 9c3e 4251 fd3d 8ce6 68bd 11da 7bbd
00000100: b8bf 7e3d 060a 90be 4f4b ab3e e109 db3e
00000110: 4627 8d3e c3d5 83be 7e3d ac3d b2f8 893e
00000120: 3966 09be 5ce5 b13e 55eb 85be 6201 763e
00000130: 85d0 4dbe 5586 9b3e 96b1 03bd 255f 673d
00000140: f149 773e da32 f0bd d1b3 a93e 883e b0bd
00000150: 73a9 4fbe 8ca5 cf3e 1484 053f 7de9 3c3d
00000160: 3896 ab3e 2fc2 303e 875c 69bd 68e7 c63e
00000170: bca6 05be 466d debe ce90 853e 6b61 edbe
00000180: b8bf c63e 8dfc 6d3e 8cc3 0d3f 4184 f0be
00000190: cfde ad3e 1608 a03e b878 c3be 9315 763e
000001a0: fbc6 253e f1db 81be bbb2 ecbe db44 033d
000001b0: 132c b0bd ec6b 243e 25aa 993e d654 03be
000001c0: e43c 92be d1b7 54be 00a7 6fbd 72ba 603d
000001d0: b6e4 5f3e b074 c4be 178e b8bc d48a 8a3d
000001e0: 925f 0a3f ea57 85be 8661 46bc 6e0f 1e3d
000001f0: d5f8 713e 47dd db3e 7c06 a4bd c303 953e
00000200: 1d0b a33e 3297 c1be 74a9 163e 3832 353e
00000210: 1b27 8a3e 998a eabe e822 79be fd25 1ebe
00000220: cca3 aabd 98d8 05be 6217 ed3c d6d4 143d
00000230: 92ae a1be c68d debc 37e9 10bc 5fe9 10be
00000240: 4401 c13e f263 e3bd 7b97 bbbd 4781 003e
00000250: 27d0 f33d d960 d7bd cb79 843e d312 c8be
00000260: df2f bcbe 7622 643e b56c cabe b740 aebc
00000270: 6e50 5a3e cee7 98bb ce03 babe 9b52 c2ba
00000280: 5536 973d ab7a 7e3d 6b2d 2bbe 1b20 e7be
00000290: 900d dc3e 797a 503e 7761 8b3a d6e0 5a3d
000002a0: 0cc2 48bc 8358 483e 91a6 503d d441 e43e
000002b0: 91ac aabd 915a 52be 5277 843e 1919 b7bd
000002c0: 4896 aabd d32f c6be ba0d c8ba 26a1 8ebd
000002d0: a27b 8b3e 05c8 2b3e 815b ac3e 83e0 8d3e
000002e0: b4b1 903d 527d eb3c 9325 6dbd 74f7 5b3e
000002f0: 3a3a 72be c4fc 8c3c 80d2 cb3e fe40 66be
00000300: 6c19 babd 9bac 5bbd e2ca 8e3d c8f2 7fbe
00000310: 91fc 10be 43aa 253e 5126 9b3e 35f7 de3b
00000320: 55e7 a13d 8f4c 2ebe 7a4e 4abe 6f5b 99be
00000330: acc6 60be 55dd 6fbe 09a6 b1bd f981 13bd
00000340: 3ed9 12bf 0fb2 8abd d998 4a3e 41ed 223f
00000350: 85db c03e a809 043e 3879 6abe 6e32 31be
00000360: 94ed eebd 1857 d5be 12a2 4c3e 7186 73be
00000370: 6bf5 aa3e d57c 583e 16c4 57bb 4833 0e3d
00000380: e5d9 c2be fd86 1d3d 5d18 313e b060 bdbe
00000390: aa73 963d 8c9a e63d b865 e13e 31d9 66be
000003a0: 76ef 9fbe ab09 8b3e 6040 cf3d af78 153f
000003b0: cf77 a0be 4dfe 2dbd bede b03d b9fc 40be
000003c0: 8af9 8e3e 3993 653d 6179 863e 5d54 393d
000003d0: ab32 85bc d89a c43c 683e 6d3d bb36 9b3e
000003e0: 5461 44be 5824 773e ee86 6abd 34f3 3dbe
000003f0: 34b3 d83e 5eda 53bd c793 813e bb5c 7ebe
0.23087415 0.18037659 0.545359 -0.10466015 0.16976385 0.2558613 0.07290006 -0.13625781
0.039369598 -0.5168603 -0.2723783 0.21342722 -0.08115923 0.14913604 -0.2344747 0.273652
-0.17815462 0.062840015 0.08626574 0.12232261 0.23567875 0.36954567 0.13209966 -0.2981456
0.029267253 -0.15022735 0.27544367 -0.14014724 0.28116116 0.13330236 -0.42964786 0.22104919
-0.4142423 -0.42946723 0.12471456 -0.02314706 0.42741334 0.26127943 0.042068373 0.17912245
-0.28722093 0.13583922 -0.39731687 -0.077347875 0.0003966252 0.28615865 -0.18716186 -0.4736542
0.050992347 0.27037823 0.061561853 0.24779621 -0.23503788 0.065708905 0.17472528 0.34972838
0.101158634 0.028417144 0.28281888 0.24839531 0.30570304 0.12369014 -0.05686049 -0.06148726
0.062194556 -0.28132647 0.33455893 0.42780975 0.27569026 -0.25749025 0.08410166 0.26947552
-0.13417901 0.347453 -0.26156107 0.24023965 -0.20099075 0.30375925 -0.03215178 0.05648722
0.241493 -0.11728449 0.33145002 -0.08605677 -0.20279483 0.4055599 0.5215466 0.04612111
0.33513045 0.17261575 -0.056973007 0.38848424 -0.13051885 -0.43442744 0.2608704 -0.46363387
0.38818145 0.23240872 0.55376506 -0.46975902 0.33959052 0.3125617 -0.3817804 0.24031667
0.16189186 -0.25363114 -0.4623011 0.032048088 -0.086021565 0.16056794 0.30012622 -0.12825331
-0.2856208 -0.20773245 -0.058508873 0.054865308 0.2186459 -0.38370275 -0.022528691 0.067647606
0.5405208 -0.26043636 -0.012108212 0.038588934 0.23630078 0.4294226 -0.08009049 0.29104432
0.31844416 -0.37810665 0.14713079 0.17694938 0.2698296 -0.45808867 -0.24329722 -0.15444179
-0.08332023 -0.13070905 0.028941814 0.03633579 -0.315785 -0.027167212 -0.008844665 -0.14151524
0.37696278 -0.111030474 -0.09159752 0.12549315 0.11904936 -0.10516519 0.2587417 -0.39076862
-0.36755273 0.22278771 -0.39536062 -0.021271093 0.21319744 -0.004666305 -0.36331028 -0.0014825644
0.0738341 0.062128704 -0.16716544 -0.45141682 0.42979097 0.2035922 0.0010633905 0.053437077
-0.012253296 0.19565015 0.0509401 0.44581473 -0.08333696 -0.20542361 0.25872284 -0.08940334
-0.08329445 -0.38708362 -0.001526288 -0.069643304 0.27242762 0.1677552 0.33663562 0.2771035
0.07065144 0.02874628 -0.05789716 0.21481115 -0.23655024 0.017210372 0.39809036 -0.2248573
-0.0908688 -0.053631406 0.069722906 -0.24994957 -0.14158846 0.16178231 0.3030267 0.0068043717
0.07905451 -0.17021392 -0.19756499 -0.2995257 -0.21950787 -0.23424275 -0.08674247 -0.036012623
-0.57362735 -0.06772243 0.19784869 0.6364327 0.3766748 0.12894309 -0.22897804 -0.17304394
-0.11666408 -0.4166801 0.199837 -0.23781754 0.33390364 0.2114137 -0.0032923273 0.034716874
-0.38056865 0.038458813 0.1729445 -0.3698783 0.0734628 0.11259946 0.44022918 -0.2254379
-0.31237382 0.27155814 0.101197004 0.58387274 -0.31341407 -0.04247885 0.08636235 -0.18846406
0.27924758 0.056048606 0.2626448 0.04524647 -0.016259512 0.023999617 0.057920843 0.30315194
-0.19177753 0.24134958 -0.057257585 -0.18549806 0.4232422 -0.051721923 0.25308058 -0.24840061

model._layers.0.weight f4 [64, 64]
00000000: 3679 13be 4fea 2fbe 8682 713c 5c4b 0bbe
00000010: 658f b8bd 0af5 9bbe 78e3 b6bd 4c51 2f3e
00000020: 92ed 763e 030d a7bd 1184 ac3d d8b2 21bc
00000030: d0b5 213e 57af a8bd 9f6c b43e 3c07 1f3e
00000040: b648 763d 8567 ffbb 83be 49bd 1905 673e
00000050: dbe8 34bd e93d 05bd 7682 013e f4e7 0b3e
00000060: f439 6ebe 25e6 03be cdb4 8ebd c993 7c3e
00000070: c977 673d 1d3b b8bb 4cc3 25be 65ca 273e
00000080: ef10 3ebe 895d d03e 2829 8a3d 526a 23be
00000090: 3f2a 19bd 96f0 2d3d ead8 933e e79f 883e
000000a0: 4b01 183e 3f71 f6be b325 973d d3b7 313e
000000b0: 16a1 6e3e 1bba d63e 263c 0e3d bad4 99be
000000c0: 76d0 a83d 46f7 a53e 541b f6bd 5fdc 67bd
000000d0: 601e 92bc 4501 50bd f51e 8fbe 9601 083f
000000e0: 8f8e 98bd e6d2 cb3e db7d 91bd b027 803e
000000f0: fa9d acbe 9549 7abc e79a 263e 4bbb b03d
00000100: bd5c 41be f0d7 a4bd 1db5 b4be 2e74 c83e
00000110: ca39 e03c 9fc9 903e 866d 913e 9e68 e43c
00000120: 9992 693d 7499 4bbe 94a7 353e 908e 58be
00000130: 5bcc bbbc defd dfbd b5c3 013e 8809 1b3d
00000140: 722b 463e 33e9 913e dabf 5f3c 42c7 0fbd
00000150: 78ff 813e 9993 113e b164 5b3c 90f4 56be
00000160: 4c81 a03d 44fe 25be 2c4d 3c3e d181 b4be
00000170: ff74 7e3d af8a 5cbe ba40 453d 297f 40be
00000180: 2e9c 53bd 9faa cbbe e44c 953e a3f9 9c3c
00000190: 9251 833d d026 46bd 8f06 103d f659 67be
000001a0: ad1f eebd 5808 a33e f7d2 47be 9969 e03e
000001b0: ee11 7abe b486 1ebe 404a 00bd c3ca 8f3e
000001c0: e0d8 963e 8e89 69bd d43d a8bd 4a3d 37be
000001d0: 04e0 983e fd4d 043c 12e3 143e 4ae8 8f3d
000001e0: a81e 2fbe d77e 663e 243b e0bd 5af8 9cbe
000001f0: bbfe 763d e53b c3bd 2799 09be 2351 443e
00000200: 5474 af3e 459c 03be 0b61 09bd a63c 0fbd
00000210: d02f 4fbe 1552 823e b388 3f3e 9522 0dbe
00000220: 8dd3 06bd 9abe 4c3e c4c9 a3be ae18 97bd
00000230: b264 2c3e 4f85 543d d5ba 21bd 3d04 993e
00000240: 3a60 71be 29d4 db3e b116 c43d fb06 bebd
00000250: 39a9 7fbe cad4 113e dc25 943d 52b9 ad3e
00000260: fef6 3d3e 8507 1a3e b2d2 8bbe 3092 043e
00000270: 7ce0 19bd 98c1 093e fc15 a13e 4561 bd3e
00000280: 95c3 ec3c a62a 24be d6ef 5dbe 03fb f8bd
00000290: 79a8 be3e 7ab3 ccbd 5ed6 1a3e fbf8 0d3e
000002a0: 54ac 18be d3ce 8ebe 73f8 8e3e dd55 70bd
000002b0: 3f88 563e 7e8a 0d3e 8fed ed3d dcb9 14be
000002c0: 94e8 f2bd f773 413d feb1 d03e 7246 f9bd
000002d0: 58b9 a5bd 9b9c 58be af80 a9be 83d3 24bd
000002e0: 64f0 043f 7ef9 f83e b889 803c 47f5 0a3f
000002f0: c5a2 21be 726d e33e f0f2 47bd 4a85 65be
00000300: a538 edbd 091b e73c 40db 943d c6e9 b1bc
00000310: c115 f8bd 24d2 2abd 296e da3d cecc 85bd
00000320: fac2 9a3d 3225 ab3d d1dd 71be 132f 113e
00000330: 7b0e 0b3d f6ab e0bd dca9 483e 7ac4 0c3d
00000340: 542f 3bbd 838f e9bc 2cb2 783d 14e6 83be
00000350: 8a84 72be ba0c 833d 61c2 89bd 2f13 98be
00000360: d21a 16bd 81b7 b0bd 52b9 343e bf79 633e
00000370: 5f93 163c f5b8 293d 0c5f e63d 0202 25ba
00000380: 6c3f d5bd 1e5b d23e 8fb4 7ebd 6f70 e4bd
00000390: 1d39 babd 60a1 55bc 4908 903e 3119 103e
000003a0: a0ff 4bbe 82bf e23d fa99 44be b8be bdbe
000003b0: c715 083e da81 c6be 93da f2bd 75e8 2cbe
000003c0: 2606 dc3d 4fd9 8c3e 7451 09bf 41d4 a8be
000003d0: 1238 8cbd 86de 2d3e 9dc2 13be bfe8 c4bd
000003e0: 1df3 febd 1190 213a 8e58 20bd 7e8d 78be
000003f0: f971 453d ea83 9c3d 7990 f73a 237b b23e
-0.14401707 -0.17179225 0.014740592 -0.13602966 -0.09011725 -0.30460387 -0.08930105 0.17120856
0.24114063 -0.08156779 0.08423627 -0.0098693 0.15792012 -0.082365684 0.3523912 0.15530103
0.060127936 -0.007794323 -0.04925395 0.22560538 -0.04416738 -0.032529745 0.12647423 0.13662702
-0.23264295 -0.12880762 -0.06968079 0.2466575 0.05651072 -0.005622281 -0.16187781 0.16385801
-0.18561147 0.40696362 0.06746131 -0.15958527 -0.037393805 0.04246577 0.2887643 0.26684496
0.14844243 -0.48133275 0.073802374 0.1735528 0.23303637 0.41938862 0.03472533 -0.3004511
0.08242886 0.32415217 -0.12016931 -0.056606647 -0.01783675 -0.05078246 -0.27953306 0.5312742
-0.07449066 0.3980934 -0.07104083 0.2503028 -0.33714277 -0.015276332 0.16270028 0.08629473
-0.18883033 -0.08048999 -0.35294428 0.39151138 0.027371306 0.28278825 0.28403872 0.027881917
0.057024572 -0.19882756 0.17739707 -0.21148133 -0.022924593 -0.10937093 0.12672313 0.037850887
0.1935251 0.2849823 0.013656581 -0.035102136 0.2539022 0.1421646 0.013390706 -0.2099173
0.078371614 -0.16210276 0.18388814 -0.35255292 0.062123295 -0.21537279 0.04815743 -0.18798508
-0.051662616 -0.3977861 0.29160225 0.019162005 0.06412043 -0.04837686 0.035162505 -0.22592911
-0.116271354 0.31842303 -0.1951407 0.43830565 -0.24420902 -0.15481073 -0.03132081 0.28084382
0.29462337 -0.057015948 -0.08214918 -0.17894474 0.2985841 0.0080752345 0.14539745 0.070267275
-0.17101538 0.22509323 -0.1094878 -0.30658227 0.060301524 -0.09532908 -0.13437329 0.19171576
0.3426844 -0.12852581 -0.033539813 -0.03496995 -0.20233083 0.2545325 0.1870449 -0.13782723
-0.032916594 0.19994584 -0.31989872 -0.07377754 0.16835287 0.051884945 -0.039484818 0.29886046
-0.23571864 0.42935303 0.095746405 -0.09278675 -0.24966897 0.14241329 0.072337836 0.3393045
0.18551251 0.15041931 -0.27309185 0.12946391 -0.0375676 0.13452756 0.31462085 0.36988273
0.028901855 -0.16031894 -0.21673521 -0.12157252 0.3723791 -0.0999517 0.15120837 0.1386451
-0.14909488 -0.2789217 0.27923927 -0.058675636 0.20950411 0.13822362 0.11617576 -0.14524025
-0.11860767 0.047229733 0.40760797 -0.121716395 -0.08091992 -0.2115349 -0.3310599 -0.040240776
0.51929307 0.48627847 0.01569067 0.54280514 -0.15784748 0.44419438 -0.048815668 -0.22414127
-0.1158307 0.028211134 0.07268381 -0.021717917 -0.12113524 -0.041704312 0.10665543 -0.06533204
0.0755672 0.08356704 -0.23619772 0.14178114 0.033949357 -0.10970299 0.19596046 0.034367062
-0.045699432 -0.028510815 0.060716793 -0.25761473 -0.23683372 0.06398912 -0.06726528 -0.29702136
-0.03664667 -0.086287506 0.17648819 0.22214411 0.009190409 0.041436154 0.112485975 -0.00062945497
-0.104124874 0.41085142 -0.062183913 -0.111542575 -0.09092925 -0.013038963 0.2813132 0.1407211
-0.19921732 0.110716835 -0.19199362 -0.3705957 0.13289557 -0.38770944 -0.11858096 -0.1688555
0.1074336 0.27509543 -0.5363991 -0.32974437 -0.06846632 0.16979417 -0.14429708 -0.09614705
-0.12448714 0.000616313 -0.039146952 -0.24272725 0.048204396 0.07642348 0.0018887661 0.3485957

model._layers.1.weight f4 [64, 64]
00000000: 0278 953d acf7 b6be 26b1 cf3d cdf4 183d
00000010: a5c3 c63d 4bf3 313c eb7b 793e 8031 8e3e
00000020: 3362 e7bc 9fc2 bc3d d91c bbbd bc53 85be
00000030: e99d 72be 662f 663e 18e0 b73e 472f c73e
00000040: 9add a0be f9b2 053e abda 19bd 498c 183c
00000050: d674 96be 7742 1d3e 7c42 503e 230c f1bc
00000060: bc19 263e e5d1 943e dc5b 01be 8fce fd3e
00000070: f357 803e ff4f a63e 68c6 863d d79a e63e
00000080: c442 2e3e 483a bb3e 735a 153f af72 44be
00000090: 3cb7 d63e c3e6 ea3e ae85 8cbe 2117 e93d
000000a0: 4675 d13d 7d6c 12be 42d5 2c3d 8fa2 10bf
000000b0: c99d 923e 0cd2 c83d fe75 b93d e844 f4b9
000000c0: 2b71 323d d491 f7bd 89ec 84bd 22c4 adbe
000000d0: 05b9 2ebe a585 373e 4123 443e 809b 183d
000000e0: 2fa3 943d 03a4 6f3e 26bd cd3d 8ccb 333c
000000f0: 157f 3e3d 2982 073e 69c7 c83e 2d6f d3bd
00000100: 4e87 a7bd 8c3d 0b3f 9758 dabe 33b8 993d
00000110: 89f6 bebc 3836 23bd 761d 3a3e 91fb c4bd
00000120: 6d6c 9c3d 87e6 5a3e 9aac c93d b958 14be
00000130: ab31 efbd 4ce5 b4bd 0d7d 0f3e f847 3e3c
00000140: c6e4 a0bd 2018 873d 29a7 453e b7b5 163d
00000150: 7c9f d53d 5c13 853e 8ab7 5e3d e65f 323e
00000160: c54b 6ebe 4acc e5be 3b4d 4d3d a6f5 173d
00000170: d0e0 fdbd 2d4b 01bf 82a8 bf3e b607 65bd
00000180: 480e 133e ec94 a73d eb87 44be 468c d5bd
00000190: e747 9fbd ecad d43d 0471 d93d 78a3 55be
000001a0: 971e 64be c202 87be a5b1 1dbe d456 653d
000001b0: aaec 293d 1326 aebe 0adc 55be c85f cd3e
000001c0: 78fd af3d 4ffd 8a3e 14ec 78be ee0c d63d
000001d0: bc34 823e ce08 d93d 0164 b13c b12f 1abc
000001e0: d3dc b13d 5430 65be 72bb 95be 1081 b4bd
000001f0: 064a 0d3e 1754 c8be 0c48 1c3e d8b7 8c3e
00000200: 5b52 2a3e 661a 88be 8a26 42bd 71d5 803d
00000210: 7678 afbe 64a4 103e 1a2c d4bd c6ac 1bbe
00000220: 55ee 233e 42b1 e73e 957b 1e3e ec11 4b3b
00000230: 940b b83d 6838 14be 36ac 013e 0fc9 363e
00000240: fd51 f5bd f0f2 a83e 3b3d 9d3d af21 c3be
00000250: 2ae4 223d cb23 26bd cd5d 9e3e e6b7 2abd
00000260: 146f ee3d 79f1 1cbe 00ba 843d 601a 233d
00000270: 09c6 db3e 3427 fd3e db8f 283e 7da6 a63e
00000280: e6ab 40be b8da a43e 9286 783e 65ed 8d3d
00000290: dccc ad3e 76a5 1eb9 c038 403e a617 58bd
000002a0: c482 8f3e 96dc 9a3d 404f f8bd 2dd3 3a3d
000002b0: 706d 693e 8b5b 613d 1672 b03e 9d68 4ebe
000002c0: 7d97 4fbe ac0f 7a3e 9cf7 45be 2329 333e
000002d0: 6ba0 2cbe f392 e13c 3815 16bc b708 e23d
000002e0: 09f5 433e c1a4 233f f580 073e 28e3 453e
000002f0: 5dcd 113d 9de4 e13d 6429 5cbc e16d 6cbe
00000300: 3139 2f3e b9da d13d 7536 283d e808 a03d
00000310: 7ebe 613d 5dec cbbd 349a b63d 94d5 853e
00000320: 8bb3 b3bc 1bff d53e 76c3 9fbe f4df 0a3e
00000330: 7072 91bc bbec 3d3e 0c41 c0bd bdb8 f83d
00000340: 3c82 553e e404 f4bd cb45 e33d b9ad f4be
00000350: 806e 833e 5f6a 1abf 3b18 903e 8d63 1bbe
00000360: 38c7 843e b3f4 0d3e a521 33bd a801 233c
00000370: deb6 333e b54f 4f3d 1418 a53e cb48 e6bc
00000380: 0f69 9f3e 5f6a c8bc f539 81be 3a12 493e
00000390: 5438 0b3e cacf c4be fba4 a83e 9da8 60be
000003a0: f48b 6c3e 3fc1 8f3e 9a0f 00be 3eb7 c4bc
000003b0: bcfa fd3d 07dd 0fbe 61a8 503c 217b 2cbc
000003c0: b101 883d dba0 603c 1dd3 f2bd adbc a03d
000003d0: 3675 a3bd 6d1d cd3d e3f4 c4be 111d 1a3e
000003e0: c13f cb3d 706e d13e f1e3 2cbe 2fc8 513e
000003f0: 4c50 21bd f1e0 a43e 60a2 f83d 2597 c63e
0.0729828 -0.35735834 0.1014121 0.037342835 0.09705285 0.010861228 0.24363677 0.2777214
-0.028245067 0.092168085 -0.09136362 -0.26040447 -0.2369305 0.22479019 0.35913157 0.38903257
-0.3141907 0.13056554 -0.037562054 0.00931079 -0.29386014 0.15357386 0.20337862 -0.029424733
0.16220754 0.29066387 -0.12632698 0.49571654 0.250671 0.32482907 0.06580812 0.45040008
0.17017657 0.36567903 0.5834114 -0.19184373 0.41936672 0.45879182 -0.2744574 0.113813646
0.10227446 -0.14299197 0.042195566 -0.56498045 0.28636006 0.09805688 0.09055708 -0.00046590646
0.043564957 -0.120883614 -0.06490428 -0.339387 -0.17062767 0.17922075 0.19154073 0.03725767
0.07257687 0.2340241 0.10045843 0.010973822 0.046507914 0.13233246 0.39214638 -0.103239395
-0.08180104 0.5439079 -0.42645714 0.07505836 -0.023310916 -0.03984663 0.18175301 -0.09618295
0.07637868 0.21377002 0.09847374 -0.1448697 -0.11679395 -0.088327974 0.14012547 0.011613838
-0.07856135 0.06596398 0.19302048 0.03679439 0.1043081 0.25991333 0.054374255 0.17419395
-0.23271091 -0.44882423 0.05012248 0.037099503 -0.12396395 -0.50505334 0.3743325 -0.055915557
0.14360917 0.081827015 -0.19192474 -0.10427146 -0.07777386 0.103847355 0.10617259 -0.2086314
-0.22277294 -0.26369292 -0.15399797 0.05599101 0.041485466 -0.34013423 -0.2088472 0.40112138
0.08593267 0.27146384 -0.24308807 0.10451685 0.25430858 0.105973825 0.02165413 -0.009410785
0.08684697 -0.22381717 -0.29244572 -0.08813679 0.13797769 -0.39126655 0.15261859 0.27484012
0.16632979 -0.2658264 -0.047400035 0.06290711 -0.34271592 0.1412521 -0.10359974 -0.15202627
0.16008885 0.45252424 0.1547683 0.0030986024 0.08986583 -0.14474642 0.1266335 0.17850135
-0.11978529 0.32997847 0.076776944 -0.38111636 0.039768375 -0.04056148 0.3093094 -0.041679285
0.1164228 -0.1532649 0.06480789 0.039820075 0.42924526 0.49443972 0.16461127 0.32548895
-0.18815574 0.3219812 0.24270085 0.06930045 0.33945358 -0.00015129693 0.18771648 -0.052756928
0.28029454 0.07561605 -0.12124491 0.04561155 0.22795653 0.055018943 0.3446204 -0.20157094
-0.20272632 0.24420041 -0.19332737 0.17496161 -0.1685807 0.027535891 -0.009160332 0.110368185
0.19136442 0.6392327 0.13232787 0.19324934 0.03559624 0.11029933 -0.013437603 -0.2308879
0.1711166 0.10246796 0.04106756 0.07814199 0.055113308 -0.09957192 0.08916131 0.2613951
-0.021936199 0.41796193 -0.31203812 0.13561994 -0.017754763 0.18547337 -0.09387407 0.12144611
0.20850462 -0.11914995 0.11097296 -0.4778879 0.25670242 -0.6031856 0.28143486 -0.15174694
0.25933242 0.13862877 -0.043733258 0.009949125 0.17550227 0.050613124 0.32244933 -0.028110882
0.3113484 -0.024464784 -0.2523953 0.19635859 0.13595706 -0.3843978 0.3293837 -0.21939321
0.23100263 0.28077123 -0.12505952 -0.024013158 0.124013394 -0.14049159 0.012735457 -0.010527403
0.066409476 0.013710226 -0.11856673 0.07848487 -0.079813406 0.10015378 -0.38468084 0.1505015
0.099242695 0.4090457 -0.16883828 0.2048652 -0.039383218 0.32202867 0.121403456 0.3878719

model._layers.2.weight f4 [64, 64]
00000000: be29 f93d 42ac bebe 7df6 08be 00be 2b3e
00000010: 9b7f 60bd 948c 983c 053b fcbb d44a e83e
00000020: 0339 1c3e dd5c 493e 5cdb 0dbb 4a18 cf3e
00000030: ad51 d73e 4567 983d b396 89be 5683 ac3e
00000040: 3b94 d8bc 1aca f03d 089d 19be 34a2 3abd
00000050: 73b9 b73e 0e1d 8c3e a48e 973d fa1f cd3d
00000060: b45c d03d f119 1b3e 77e6 11be 2e3a b43e
00000070: cc0e 2cbe e66a dfbd 6bf6 89bd 866b 753e
00000080: 4aec d5be f32c 7fbd 9cac 8cbc 9567 ffbd
00000090: 6f15 9c3d 71da 783e 2d54 313e 56ce 1c3e
000000a0: c80a 6abe 861b 423d 1481 48bd 03ad 3fbe
000000b0: d612 a63d 9ef5 893e 4b0a 4d3e 0ab6 cbbd
000000c0: c577 02be d92e 203c a917 b93d 8591 533e
000000d0: abbf 26bd 1b32 03bf a623 30be 3384 62be
000000e0: f219 883e 14bd 3d3d c318 14bd 1fec 4a3e
000000f0: 7929 653e 1660 60be b31b 943d 8e00 873c
00000100: 3875 89be 6bdb 68bd 2176 d2bd edc9 89be
00000110: e7ac b93d 6641 a63e 0daa 933e 799a 20be
00000120: 5d09 babc 84f1 923d 8511 37be f636 f5bc
00000130: 322f 06bd b1e7 8bbd 6557 8b3e acfe 9dbe
00000140: dbad 08be a7ab 323e a849 143d 5a0a 973e
00000150: d387 b9bd 8467 c4bb 1dc1 c43d 7043 0abe
00000160: 1681 a23e 516b 5abe f621 493d d782 613c
00000170: c790 c33e 548a 1ebd f9b9 96be dd18 be3d
00000180: 3f3e bf3d fe91 0ebe b14d 95bd 4591 9a3b
00000190: aff1 abbd 89a7 7c3e eb79 d23e e608 513c
000001a0: 9352 a1bd 6811 29be bbdf 803d fcd6 2c3e
000001b0: 1470 63be 3a62 9e3d b68b 94bd 84b8 5a3d
000001c0: f11f 95bd 84a8 45be baaa 703e ef89 43be
000001d0: bf3e 7d3e ace2 d33d d908 913e b8b8 edbc
000001e0: 1fca a5be 72a9 77be e6f6 a33e c874 9c3d
000001f0: 1773 5cbb 20c3 2dbe aa9c 8a3c 99ac dcbe
00000200: af8f 3f3e 41ae 64be 5067 933e 93ab 3cbe
00000210: f65b 943d 672c 0bbe 1160 a03e 7b99 863e
00000220: 8e1c 743e 2089 743d 2a08 9c3d f1dc 563e
00000230: cb1e 8c3d b714 b33e 5a8d 36be cf85 d03e
00000240: 06f5 07be cd17 89bd 3cc7 fcbe 4c92 87bc
00000250: 8185 503e 4ee0 f93e 6f86 963e ad0f 773d
00000260: 96c0 423c e2f4 7a3e 2fca d3be ed80 ba3e
00000270: 667b 95be 4460 4b3e f463 6f3d ffa0 5c3e
00000280: 40a9 393c 9dfa 993e d942 dbbe 7553 76be
00000290: 77d4 853e f635 37be f1ae 273e 1e9e f83d
000002a0: ab0c a73c 4461 02be 33f7 4dbb 718c a1be
000002b0: db0e 3e3e 1139 1fbe 8aa9 7bbe ff7b a4be
000002c0: ab36 333e 5a86 f73d 08cf 263e 4dea 243e
000002d0: 3d52 9bbe 7a71 60bc 29f9 173f 96b6 113e
000002e0: 61b1 ab3d 1d42 463e 787a 743e 3c71 043d
000002f0: 853f ad3e b304 1c3e 3d24 0abe af4b f93c
00000300: 219e cabe d706 a63e 5a58 b3be 0e09 9c3e
00000310: 57eb 09be a83e 21be bf87 623e b0e2 a6be
00000320: c4d3 0e3e c2af 52be cc9b 823d fbfd 96bd
00000330: 0a96 67bb 1c5e 85be a366 b63d afa5 4abe
00000340: 5910 ac3e 5ae6 8abd 542e bd3e c0d8 223d
00000350: ea4e 113c 3fcb 82be 27d7 a03e b352 0c3e
00000360: ef4f 18be c12a a33e 7f56 0cbe 17d8 7fbd
00000370: 11d1 86be 178e b23c 1613 353e a70e 24be
00000380: 9b00 56be 6234 803e 3dad 97be b039 09bd
00000390: aefc f83d 2afc 7c3d 5a2a 38bd 14b9 8d3d
000003a0: 7e3b 5a3d ad3a d83d b6ea f23d 7c2c da3d
000003b0: 580f 38bd e5e1 3abe 0b75 723e e02b 13be
000003c0: 0ac1 363e eb6a 83bd 17f2 043d af89 8d3c
000003d0: f677 13bf 43e2 023e 85f5 ab3e da27 78bc
000003e0: 06eb e93e ffdc 873d 608d 273e 10ec ffbc
000003f0: 4531 68bc bb68 aa3e 13ef 3d3e 10ed f83e
0.12166165 -0.37240797 -0.13375278 0.16771698 -0.054809194 0.01862172 -0.0076974654 0.4536959
0.15256123 0.19664331 -0.002164564 0.4044822 0.420545 0.07441572 -0.26872787 0.3369395
-0.02643787 0.11757298 -0.15001309 -0.045564845 0.35883674 0.27365917 0.074002534 0.10015865
0.10173932 0.15146615 -0.14248072 0.35200638 -0.1680252 -0.10909061 -0.067364536 0.23966798
-0.41781837 -0.062298726 -0.01717215 -0.124709286 0.07621276 0.24302079 0.17317267 0.15313086
-0.22855675 0.04738953 -0.048951223 -0.18718342 0.081090614 0.26945204 0.20023458 -0.099468306
-0.12741001 0.009776794 0.09037716 0.2066098 -0.040710133 -0.5124833 -0.17201099 -0.22120742
0.26582295 0.046322897 -0.036156427 0.19816636 0.22379102 -0.21911654 0.07231846 0.016479757
-0.26847243 -0.05684988 -0.102764376 -0.2691187 0.09066182 0.3247177 0.28840676 -0.15683927
-0.022709543 0.07174972 -0.17877777 -0.029933434 -0.032759853 -0.06831301 0.27215114 -0.30858362
-0.1334757 0.17448293 0.036203057 0.29500085 -0.090591095 -0.0059937853 0.09607146 -0.13502288
0.3173911 -0.2133 0.049104653 0.013764105 0.38196394 -0.03870614 -0.2943876 0.09282086
0.093380444 -0.13922879 -0.07290209 0.0047170245 -0.08395707 0.24673285 0.4110864 0.012758469
-0.07877078 -0.16510546 0.06292673 0.16878885 -0.22210723 0.07733579 -0.0725321 0.053398624
-0.07281483 -0.19302565 0.23502627 -0.19095586 0.24730967 0.103459686 0.28327063 -0.029018745
-0.3238077 -0.24185732 0.32024306 0.07639462 -0.0033637935 -0.16968966 0.016920406 -0.43100432
0.18707155 -0.22332098 0.2878976 -0.18424825 0.07244103 -0.13591157 0.31323293 0.2628897
0.23839018 0.059701085 0.07618745 0.2098272 0.06841811 0.34976742 -0.17827359 0.40727088
-0.13277063 -0.06693993 -0.49370754 -0.016549252 0.20363428 0.48803943 0.2939944 0.060317684
0.011886736 0.24507478 -0.4136519 0.36426488 -0.29195708 0.19860941 0.058444932 0.2154579
0.011331856 0.30074015 -0.42824438 -0.24055274 0.2613866 -0.17891678 0.16375329 0.121395335
0.020391783 -0.12732416 -0.003142786 -0.3155246 0.18560354 -0.15549113 -0.24576393 -0.32125852
0.17501323 0.120861724 0.16289914 0.16105004 -0.3033618 -0.01369893 0.59364563 0.14229807
0.08383442 0.19361158 0.23874843 0.03233455 0.33837524 0.15236168 -0.13490386 0.030431597
-0.39573768 0.32427093 -0.35028344 0.30475658 -0.13468681 -0.15746558 0.22122096 -0.32594824
0.1394797 -0.20574859 0.06377372 -0.07372662 -0.0035337233 -0.26048362 0.08906295 -0.19789766
0.33606222 -0.06782217 0.36949408 0.03975749 0.008868912 -0.2554569 0.31414148 0.13703422
-0.14874242 0.31868556 -0.1370487 -0.06246194 -0.2633138 0.02179627 0.17683062 -0.16021214
-0.20898668 0.25039965 -0.29624358 -0.03350228 0.1215757 0.06176392 -0.044962265 0.069200665
0.053279392 0.105580665 0.11861174 0.10653016 -0.044936508 -0.18250234 0.23677461 -0.14372206
0.17847076 -0.06416877 0.032457437 0.017277567 -0.5760492 0.12781624 0.33585754 -0.01514622
0.4568712 0.066339485 0.16362524 -0.031240493 -0.014171903 0.33283028 0.18548231 0.48618364

model._layers.3.weight f4 [64, 64]
00000000: c6d3 a83d fc13 93be a521 e93e 08b0 e2bd
00000010: a2bd 783e aba8 5abe 4683 e03d e520 63bc
00000020: ce9b a03d 2fcd 543e dfb3 6abe 6581 8d3d
00000030: 2bbd 0f3e 1d65 de3e 3e44 8c3d 863a 393e
00000040: 0578 cdbd 0f35 52bd 41d2 173d 00fe 6b3e
00000050: 393c 743e ce43 823e 3d58 043f 3fed 42be
00000060: b408 a33e f2b0 d93e caf9 80be c5f2 f2bb
00000070: ae34 d03e 9520 ca3a 6aa6 013f 473a 36bb
00000080: 82ea 7c3c 2243 0dbe 5660 2d3e 630a 093d
00000090: cb8b 273e 1625 903e 2710 b13e 9e96 583e
000000a0: 1371 b33e ab76 dbbd c66b 89be f578 2d3e
000000b0: 6906 4c3e 7b23 3a3e 5434 473e 3daf 1bbc
000000c0: c20e adbc b55f b23c 55cc bd3e 5d6b 773e
000000d0: 09cb b83e fac0 a53d 7395 95bd 9fc9 033e
000000e0: a576 893c 640e ae3e c35e 2dbe adc2 4e3e
000000f0: b2e3 883c c537 5c3e dc14 fb3b b3ba f5bd
00000100: 587d c9be 894e e2bd b700 223d 0699 8b3e
00000110: 5648 83be fe33 fabc 4568 bd3d db67 f73c
00000120: 341b 523a 6595 9dbd fa94 85be e46a c53d
00000130: e558 2abe 2225 5d3e 5efb 503e 1c42 2a3e
00000140: b278 b4bd 00ea 303e ee31 82bd 1a62 8dbe
00000150: 0709 e33d 1836 5dbd 8fee 25be f45e 6dbe
00000160: 0b4d 873d 571e 7fbd 01db 3d3f 31cb a8be
00000170: 63f9 2d3b efff ac3e 38b4 edbd 5ab6 743e
00000180: 3784 7b3d f10c 83bd 2613 b6bd 1a79 ce3e
00000190: be2b c0bd 54cf 2e3d 32d5 393e 5926 eebe
000001a0: b101 873d 775f 953e 18bd 513e 185d 5d3e
000001b0: 8611 d6bd 5a80 a13d 2563 d7be db38 7ebe
000001c0: 908a 933d 1ffe 263e b499 53be b63f e43e
000001d0: 3f36 babd 9c72 273f 75bc 053f d23f b73d
000001e0: 4591 c63d 317d 333d 93a3 823e b931 56bd
000001f0: 3456 6a3e 40d8 5e3c 3ea1 87bd f92c 19be
00000200: b6ed 8d3e a78d 223d c678 2dbe 6cf4 23bf
00000210: 8ea6 8c3e 4179 d9be afc3 44be 4000 693e
00000220: 2a92 1dbe 236b 50be 602f 873c d1d4 65be
00000230: d620 78be ec12 fc3c 3a2c 29be 9aab b63d
00000240: fc47 3dbe 8b4f 1abe 3fc5 f13e 9562 3e3e
00000250: 7e7d 58be 6ea0 ae3c 303f fc3d 13c0 14be
00000260: 8e42 913e 9448 363e c52c 663e 0e15 493e
00000270: 9cea 9e3e 3f9f c13e c59e 8bbe c212 efbd
00000280: eee0 0dbd e8fc a43e 187d 043e 2cff 0c3e
00000290: 5ec0 14bb 1643 383e b7f7 b3bd 45a1 063f
000002a0: 6158 babe 0d15 413e 86fb 3dbe 6c36 4fbe
000002b0: 9ff8 b23e 4a86 6ebd a698 843e aaf2 c1bd
000002c0: 23e3 cd3e 1e0b a13e a730 813e 3153 913e
000002d0: b93c dfbd 8a3a 873e ba0e 5e3e a16c 7bbe
000002e0: 2e0d ba3e a242 223d c67b 0e3e e986 7a3e
000002f0: 1669 48bc 0454 1bbd c88c 4e3e f469 23bf
00000300: 0c81 703e 1d9a 22be 04d5 13be 5ebd 843e
00000310: e723 ccbd 5bfa 84be c085 893d a082 8c3c
00000320: ea68 9ebe a9f8 6cbe 015b d33e d5ac 16bd
00000330: 10f8 6fbe 5a83 b13d 423d 893d d8e2 8fbb
00000340: e47a 893c c194 923e 56af 563e 3d95 cdbd
00000350: 13f6 003e 071a 99be b917 c9bd 84ae 563e
00000360: 0978 6abe 8ee5 e43e d39b 123c e514 823e
00000370: 761a 5ebe 976f 573e a9d4 963e 399b 1fbe
00000380: 5955 4bbe 1d72 f43d 89cf 1fbe f405 41be
00000390: 7470 053e e658 bbbc 5481 9b3d 48fa df3d
000003a0: eb60 8b3c 563e 3b3e 02a9 11be 7b51 873e
000003b0: c93b 68be 73f4 adbe a648 213e 8370 243f
000003c0: 0d15 603d 3e06 03be af09 3fbd 374b fabd
000003d0: 8787 3f3d 6124 59be 6561 e3bd 9bb1 10be
000003e0: cc09 5b3e a0d5 a13d 24b1 94be 93e0 013e
000003f0: e76e 1cbe 7fed 4c3e 7da4 433d 5549 4e3e
0.082435176 -0.28726184 0.4553348 -0.110687315 0.24291089 -0.21353404 0.109625384 -0.013862823
0.078422174 0.20781396 -0.22920178 0.06909446 0.14037006 0.43436518 0.06848954 0.18088731
-0.100326575 -0.051320132 0.037065748 0.23046112 0.23851098 0.25442356 0.5169714 -0.19035815
0.31842577 0.4251781 -0.25190574 -0.0074141943 0.4066519 0.0015421087 0.5064455 -0.0027805732
0.01543677 -0.1379514 0.1693128 0.03345717 0.1636192 0.28153294 0.34582636 0.21151206
0.35047206 -0.107159935 -0.26840037 0.16940673 0.1992432 0.18177597 0.19453555 -0.009502229
-0.021125201 0.021774152 0.37069955 0.2416205 0.36092404 0.08093448 -0.07303896 0.12869881
0.016780207 0.33995354 -0.1693068 0.2019145 0.016710136 0.2150565 0.0076623987 -0.11998501
-0.39353442 -0.11050136 0.039551463 0.27265185 -0.25641125 -0.03054237 0.092484035 0.03020089
0.0008014918 -0.0769451 -0.26090223 0.096395284 -0.16635473 0.21596196 0.20408389 0.16626781
-0.08812083 0.17276764 -0.063571796 -0.27613908 0.11085706 -0.054006666 -0.16204284 -0.23180753
0.06606492 -0.062284794 0.741623 -0.32967523 0.002654635 0.33789012 -0.116066396 0.23897687
0.061405387 -0.06398953 -0.08890371 0.40326768 -0.09383343 0.042678192 0.18147734 -0.46513632
0.065921195 0.29174396 0.2048229 0.21617544 -0.10452561 0.07885809 -0.4206783 -0.24826376
0.07204163 0.16307877 -0.20664102 0.44579858 -0.09092378 0.65409255 0.5224069 0.0894772
0.09695677 0.043820564 0.25515422 -0.052293513 0.22884446 0.013601363 -0.066225514 -0.14958562
0.27720422 0.03968587 -0.16940603 -0.64044833 0.2747082 -0.42475322 -0.19215272 0.22754002
-0.15387788 -0.2035337 0.016502082 -0.22444464 -0.24231276 0.030770741 -0.16520777 0.08919449
-0.18484491 -0.15069406 0.472208 0.18592294 -0.21141621 0.021316733 0.123167396 -0.14526395
0.2837109 0.17801124 0.22478016 0.19636938 0.31038368 0.37816808 -0.2726957 -0.116735
-0.034638338 0.32224202 0.12938344 0.13769215 -0.0022697668 0.17994341 -0.08787482 0.5258983
-0.36395553 0.18855686 -0.1855298 -0.20235604 0.34955308 -0.058233537 0.25897712 -0.094701126
0.40212354 0.31453794 0.2523243 0.28383783 -0.10900254 0.2641185 0.21685305 -0.24553157
0.3633818 0.039614327 0.13914403 0.24465527 -0.012232086 -0.03792192 0.20170891 -0.63833547
0.23486727 -0.15879102 -0.14436728 0.25925726 -0.09967785 -0.25972256 0.06714964 0.01715213
-0.30939418 -0.23141731 0.41280368 -0.03678592 -0.23434472 0.086676314 0.06701137 -0.0043910556
0.016782232 0.28629115 0.20965323 -0.100382306 0.1259387 -0.2990267 -0.09818978 0.2096501
-0.22897352 0.44706386 0.008948284 0.25406566 -0.21689782 0.21038662 0.29459122 -0.15586556
-0.19856776 0.11935828 -0.15606512 -0.18849927 0.13031179 -0.022869539 0.07593027 0.10936409
0.017013988 0.18285498 -0.14224628 0.26429352 -0.22679056 -0.33975562 0.1575037 0.6423418
0.054707576 -0.1279535 -0.046640094 -0.12221377 0.04676011 -0.21205284 -0.11102561 -0.14130251
0.21390456 0.07902074 -0.29041398 0.12683325 -0.15276681 0.20012473 0.04776429 0.20145161

exp_avg f4 [64, 14]
00000000: 1a87 3d3b adea b7bc 15e7 a33c cd29 723b
00000010: 5ce5 9839 cef2 5739 0a64 d3ba 7656 84bc
00000020: 9d37 133c 3a27 92ba 671b 433b 39ce 38ba
00000030: 145e 2b3c a5a3 d33c 2944 77bb 6a86 f73c
00000040: a444 63bc 952f 0dbc 6505 40b9 b400 bcb9
00000050: 97f0 d53a 482d 5c3c a356 12ba 672d 413a
00000060: d0f2 97b9 f90f b43a 0f0f f9bb a38b d0bc
00000070: 0fdc d9bb 422f 5dbc 19c0 373c 6beb ca3a
00000080: 99e2 ef38 d666 0139 a3d8 5aba 5a8a 00bc
00000090: c56f dbba f885 0bba bd36 1bba 855e 91ba
000000a0: 9cda 273a 301e 233c d665 583b 2281 d63c
000000b0: 766c 893c 408b 9dbc 569a f637 9c8d 82b9
000000c0: 0609 ba3a 5573 453c 4426 bf3b c29e f5b6
000000d0: aaaf bfb9 acbc d43a 376d 6abc b3f4 88bc
000000e0: f007 5b3b 3806 ac3b 6bfa 21ba 6d4c 633a
000000f0: 9ad7 92b8 566b 5eb8 c661 e539 ecd6 a03b
00000100: c58d 5539 ce76 8b39 0424 3bba 7d4c 013a
00000110: e014 e5ba 8d0c b6bb c1a6 cfbc 5469 aa3b
00000120: 5bb8 463b 7934 69ba c0a2 b236 83d0 7db8
00000130: 9a47 5239 b8b3 a73a c8f6 ffba 2c3e 01b9
00000140: 9811 d6ba 2dc0 8cb9 1eef c6bb 91f0 6fbb
00000150: 6274 6cbc 22fd 97bb 73e0 dd3b 06c1 1c3b
00000160: a4a2 b239 bf0b 8cb9 0edf 9bba 6b8e a5bc
00000170: 233b b03c 8bff 86ba 9ff6 093c 7910 413a
00000180: 7c1c b43c a3c7 8c3c 4266 ffbc b0df c6bc
00000190: 8ee8 a13d c150 6ebb c728 a739 9942 013a
000001a0: 4245 e9ba a199 a7bc 7ec1 573c 4150 97ba
000001b0: 9c8b a43b f325 05ba dfef 7a3c 108b 393d
000001c0: d752 adbc 5c9a 733c 9a98 053b b3a2 80bc
000001d0: 1051 ad38 b4f4 58b9 38d6 b23a 792c 053c
000001e0: d01d 003c 1a2c 8339 4864 813a cc56 f93a
000001f0: a326 e4bb cea7 debb eaf4 9dbc 182a 34bc
00000200: 0b74 f63b 9912 8ebb 5460 a839 e6e5 ba38
00000210: 6b82 a0ba 15af 97bc a5d8 993c 9b5c 6eba
00000220: c208 ee3b d7d7 133a 2057 a03c e908 013d
00000230: 49a5 cbbc d7a4 d43b a500 bb3d 8dca a9bb
00000240: 0fa9 f237 1f74 8bb8 0f9a 13b9 d783 22bc
00000250: 7e58 b73b bb0d c0b9 7476 9f3b ceab 7eb9
00000260: f40b 1b3c 8f30 1f3b 80e1 33bc 9341 a9b9
00000270: 4b5c 53bc ebdc 763b ca57 2639 8521 0238
00000280: 60c9 17ba 8670 2fbb ff55 e93a cb16 68b5
00000290: 4cb3 5739 8264 2539 713e b13a 33c9 783c
000002a0: f848 8cbb 390b bebb 1c7c 9f3d 8904 483c
000002b0: dc71 4d39 3626 ae37 563e d6b9 9030 d33a
000002c0: 228e 943b ef54 a939 e715 633a 4ef4 8b3a
000002d0: 55f5 283b 0c36 5e3c 4483 653c 73b3 9abb
000002e0: a233 4ebc be58 edba a452 c4b7 48a8 ff38
000002f0: 61c7 2ab9 8257 61ba cb05 4fbb 3271 dfb8
00000300: c4cc 93ba 4f9d 0bba 2eea 23bb f6c8 623b
00000310: 1e22 63bc 7c19 56bb fc6d 663b e605 7e39
00000320: 781f 06b8 283c 9f38 c67d 9238 7ae9 bf3a
00000330: d496 05bb 8890 5339 3464 e7b9 6bc3 cc36
00000340: 4cd3 33ba 9281 793b 9740 f5bc ef72 d5bc
00000350: b110 773b d007 633c 96d1 7737 f5d9 0c38
00000360: 99dd 5bba 9401 c9bb 15e1 c83a 5067 0c39
00000370: 3a7b ca3a 0e1a e5b8 e335 5e3c 1300 df3b
00000380: be5d cc3b a385 ac3c d7a5 babc af8b c8bb
00000390: bd82 8b37 5f6d ebb9 08fe 723a f607 103b
000003a0: 235b 573c 8f28 3338 ab5f 9a3b 357e fb3a
000003b0: c2a8 c83b 0e89 6fbc 0763 9e3b 7fcc e0bc
000003c0: 8188 ddbb f1c9 be3c 046f abb8 886f f839
000003d0: 3958 f7ba 2e44 69bc 93d5 09bc 306e 16b8
000003e0: c34d 2b3a 709c 0bbb 4d82 8d3c 514c f23c
000003f0: 7896 11bd 1274 d5bb 39f1 4b3b 049d 713a
0.0028919638 -0.02245077 0.02000765 0.0036951185 0.00029162585 0.0002059445 -0.0016127836 -0.016154509
0.008985427 -0.0011150606 0.0029770972 -0.00070497725 0.010459442 0.025834868 -0.0037729836 0.03021546
-0.013871346 -0.0086173015 -0.00018312556 -0.00035858678 0.0016322312 0.01343853 -0.0005582368 0.0007369131
-0.00028981874 0.001373767 -0.007600672 -0.025457209 -0.0066485475 -0.013500037 0.011215233 0.0015481537
0.00011438615 0.00012340708 -0.00083483214 -0.007845486 -0.0016741684 -0.0005322392 -0.00059209374 -0.0011090791
0.000640312 0.009955928 0.0033019683 0.026184622 0.016775351 -0.019231439 2.9397354e-05 -0.0002490104
0.0014193363 0.012051423 0.005833419 -7.320051e-06 -0.0003656124 0.0016230545 -0.014308265 -0.016718244
0.003342148 0.005249765 -0.0006178978 0.0008670751 -7.0019814e-05 -5.302889e-05 0.0004375113 0.004908433
0.00020366076 0.00026600662 -0.00071388506 0.0004932357 -0.0017477535 -0.0055556954 -0.02534807 0.0052005444
0.0030322287 -0.00088960637 5.32376e-06 -6.0514092e-05 0.00020053834 0.0012794649 -0.0019528503 -0.0001232556
-0.0016332148 -0.00026846063 -0.0060709855 -0.0036611895 -0.014432045 -0.00463833 0.006771141 0.0023918762
0.00034071982 -0.00026711632 -0.0011892037 -0.020209512 0.021512574 -0.0010299546 0.008420615 0.00073648203
0.021986239 0.017185038 -0.03117669 -0.024276584 0.079056844 -0.003636405 0.00031883104 0.00049308833
-0.001779713 -0.020458998 0.013168691 -0.0011544303 0.0050215255 -0.0005079202 0.015315979 0.045298636
-0.021157665 0.014868345 0.0020385147 -0.015702581 8.264382e-05 -0.00020690524 0.0013644164 0.008128279
0.007819608 0.00025019125 0.0009871805 0.001902306 -0.0069626137 -0.006794906 -0.019281823 -0.010996364
0.0075211576 -0.004335713 0.00032115227 8.911993e-05 -0.0012245899 -0.018516103 0.018780062 -0.0009092779
0.0072642276 0.00056397676 0.019572794 0.031502638 -0.024859088 0.006489377 0.09130982 -0.0051816166
2.8927372e-05 -6.649666e-05 -0.00014076404 -0.009919128 0.005595266 -0.00036631324 0.0048664156 -0.0002428733
0.009463299 0.0024290418 -0.010979056 -0.00032283048 -0.012900422 0.0037668298 0.00015863698 3.1025633e-05
-0.00057902 -0.002676995 0.0017802118 -8.6459903e-07 0.00020570791 0.00015773068 0.0013522637 0.015184688
-0.0042811595 -0.0057996777 0.07787344 0.0122081125 0.0001959274 2.076021e-05 -0.00040863705 0.0016112495
0.004533545 0.00032297472 0.00086626265 0.0010677667 0.0025780995 0.0135626905 0.014008347 -0.004721099
-0.012585552 -0.0018108112 -2.3403503e-05 0.00012190692 -0.00016286738 -0.00085961085 -0.0031589146 -0.00010654553
-0.0011276235 -0.000532587 -0.0025011408 0.0034604645 -0.013863115 -0.0032668998 0.003516077 0.00024225525
-3.1977397e-05 7.592916e-05 6.98525e-05 0.0014641725 -0.002038409 0.0002017637 -0.0004413441 6.1024234e-06
-0.0006859794 0.0038071615 -0.029938025 -0.026055781 0.0037699158 0.013856843 1.4771145e-05 3.358159e-05
-0.00083872076 -0.0061342213 0.0015325869 0.00013389927 0.0015448101 -0.00010924424 0.013562652 0.006805429
0.006236761 0.021059817 -0.022784157 -0.006120167 1.6630971e-05 -0.0004490418 0.0009269421 0.0021977401
0.013144287 4.27147e-05 0.0047111115 0.0019187393 0.006123633 -0.014620079 0.0048335823 -0.027441261
-0.0067606573 0.023289653 -8.174594e-05 0.00047385343 -0.0018870897 -0.014237447 -0.0084127365 -3.5865407e-05
0.000653472 -0.002130296 0.017274046 0.029577406 -0.03554389 -0.006514081 0.0031119122 0.00092168176
