notebooks/lightning_logs/version_53551072/checkpoints/epoch=999-step=1000.ckpt (torch, 225791 bytes, 18 tensors)

model._encoder.weight f4 [64, 14]
000000 36 1f f4 3d da a7 c9 3e f9 08 e8 3e 45 6a c6 be
       0.119200155 0.39385873 0.45319346 -0.38752952
000010 d1 f2 2f bd bc a0 1a 3b 51 02 4a 3d 47 06 f3 be
       -0.042956177 0.002359434 0.049318615 -0.47465727
000020 e3 c3 66 be 7d 54 ea be a2 85 3b be d7 ea 40 3e
       -0.22535662 -0.45767584 -0.18312696 0.18839584
000030 da a9 ab be f5 9d ba 3e 5b 94 1d 3e cb b4 e5 be
       -0.33528024 0.36448637 0.15388624 -0.44864497
000040 d6 1b 2e 3e 31 d9 05 3f 9e b5 d7 3e 36 9f 3e 3d
       0.17002806 0.5228453 0.4213075 0.046538554
000050 d2 8d 86 be cd 29 ee 3d 36 6d 99 3e be 8c d2 be
       -0.26280075 0.116290666 0.29966134 -0.41123003
000060 2f 1a d5 bc 40 21 54 be c4 66 60 3e f6 7d e2 be
       -0.026013462 -0.20715809 0.21914202 -0.44236726
000070 f5 2a ac bc 51 18 94 3e 1d 3e 24 3f 8d c3 a1 be
       -0.021016577 0.28924802 0.6415728 -0.31594506
000080 d6 8a 29 3f 24 6c 84 3d dd 25 d2 be 40 40 03 3d
       0.6622747 0.06465939 -0.41044512 0.032043695
000090 fc d9 24 3f b9 d6 6d be 1b 4a a0 be 7d e2 6b 3d
       0.6439512 -0.23226441 -0.31306538 0.057589043
0000a0 c1 5f 93 be 80 ee 1a bd 07 36 17 bd e0 e4 f2 be
       -0.28783992 -0.037825108 -0.03691676 -0.47440243
0000b0 97 cf 80 be c2 48 00 be 3b c9 c4 be 4b 45 ab 3c
       -0.25158378 -0.12527755 -0.38434777 0.020907065
0000c0 63 66 16 3f 78 f9 cf be 39 26 d3 3d df 91 a6 bd
       0.5874998 -0.40620017 0.10310025 -0.081332915
0000d0 d7 c5 f5 3e 4d c4 5d 3e 20 04 45 3e f5 c6 19 be
       0.48002502 0.21656914 0.19239855 -0.15017302
0000e0 a4 af 7e be bd bd 2c bc 12 f6 85 3e ac c3 ba 3e
       -0.24871689 -0.010543284 0.261643 0.3647741
0000f0 91 47 c5 3d c7 5e 21 bc 2f f4 30 be dd ce c2 3c
       0.09632791 -0.009849257 -0.17280649 0.02378028
000100 b0 37 ed bd 35 90 65 be b9 8c d1 3e 5c c3 c1 be
       -0.11582887 -0.22418292 0.40927675 -0.3784436
000110 da 36 3f be 7d 2b 62 be fb 85 27 bd ea 94 07 3e
       -0.18673268 -0.22086902 -0.040899258 0.132404
000120 6c 66 21 bf 2e 35 39 bd 48 06 a1 bc 7e bc 13 be
       -0.6304691 -0.04521673 -0.019656315 -0.14427373
000130 de 18 9e 3c 29 9b 65 bd 67 f1 32 bd 63 b4 4a 3e
       0.019298967 -0.056056175 -0.04368725 0.19795375
000140 9b 36 29 3e 12 9c 53 be 03 9b a8 3e aa f3 5f 3e
       0.16524737 -0.20665005 0.32930765 0.21870294
000150 c0 14 56 3e 6f 13 3c be 1b 30 86 3d 39 d3 b5 be
       0.20906353 -0.18366788 0.06552144 -0.35512713
000160 c0 80 12 bf aa 77 27 3c 04 d2 b7 3c 3d b4 60 3e
       -0.57227707 0.010221401 0.02243901 0.21943755
000170 dd 30 c4 3e 4f cd 98 3e 74 38 2f 3e be bb 01 be
       0.3831853 0.29844138 0.17111379 -0.12669274
000180 d1 6b 48 bf 24 91 b3 3d 2a 6a d9 3d 6d e9 34 3f
       -0.78289515 0.08767918 0.10615952 0.7066868
000190 75 b6 43 3e 87 25 91 be 3d e6 c7 3e 67 41 36 be
       0.1911257 -0.28348944 0.39042845 -0.17798387
0001a0 e8 ce bc 3c cb 99 cd be 42 e7 c5 3e 64 c7 5c be
       0.02304788 -0.40156397 0.38652998 -0.21560436
0001b0 7d 0f 9d be 38 e0 13 bf 36 7b 12 be df 44 9a 3c
       -0.3067588 -0.57764006 -0.14304814 0.018831668
0001c0 26 38 1a be d0 13 c6 be 51 ce e2 bd 94 96 f3 3e
       -0.15060481 -0.3868699 -0.11074508 0.4757582
0001d0 3a a7 96 3e b9 b4 3d 3d 54 4a 8b be d9 4e 6b bd
       0.2942446 0.04631493 -0.27205145 -0.05744824
0001e0 71 2e 12 bf 29 de 27 bc cc 2d 4c bd 9d 0c 3a 3e
       -0.57102114 -0.010245838 -0.049848363 0.18168874
0001f0 60 a9 15 bd d6 48 e3 bd da 26 06 3f 37 40 af 3e
       -0.03653848 -0.11097877 0.5240303 0.3422868
000200 70 bd 6c 3e e1 5b 03 bd 3d 20 10 3f 4d 62 ac 3e
       0.2311914 -0.032070044 0.5629919 0.33668748
000210 60 79 3f 3e 2d e5 84 3e 34 88 97 3e ef 2b 6e 3c
       0.18698645 0.25956097 0.29596102 0.014536842
000220 7c fa 57 be 77 bc 32 3e 11 09 d3 3d 88 03 cd 3b
       -0.21091646 0.17454706 0.10304464 0.0062565245
000230 15 84 38 3f ba a5 30 3d c7 38 16 3e b8 36 82 3e
       0.7207654 0.0431268 0.14670096 0.25432372
000240 9a 7e 95 3e 38 44 80 be 1b be a6 3d 3e e9 06 3d
       0.29198152 -0.25052047 0.081417285 0.03293728
000250 65 3d d8 3d cc ed 77 be 07 49 ec 3d 85 d3 50 3d
       0.10558585 -0.24211806 0.11537366 0.05098297
000260 17 df 99 3e 89 c1 73 be 7b 78 94 be a4 b7 1e be
       0.30053017 -0.23804297 -0.2899817 -0.15499741
000270 79 d3 3e 3e 93 f0 2b be 80 87 af 3d 13 10 1a 3f
       0.18635358 -0.1679099 0.085707664 0.6018078
000280 2e b7 06 be 5b 90 0c 3e a6 e3 45 be a0 c7 0e be
       -0.13155815 0.13726942 -0.19325122 -0.13943338
000290 51 1b 23 be be 86 76 be e1 a9 c2 be da ee 57 3c
       -0.15928389 -0.24074838 -0.38020232 0.013179505
0002a0 67 56 20 bf ed c1 f1 bc fb 12 b0 3d 25 3b 85 be
       -0.6263184 -0.029511416 0.0859737 -0.26021686
0002b0 6d b7 ce bc 78 aa 79 be 86 03 0b 3e ef 08 c1 3e
       -0.025233949 -0.24381435 0.13575563 0.37702128
0002c0 4b b8 e4 be 3c 88 93 be ba 6f 1d bf 54 b1 45 bd
       -0.44671854 -0.28814876 -0.61498606 -0.048264816
0002d0 1b 87 fa be 16 97 d5 3d c8 aa a5 3c 08 96 16 3e
       -0.48931202 0.10429208 0.020223036 0.1470567
0002e0 e8 62 0d 3e 25 51 46 be 9f 08 fc bd 09 8a ab 3d
       0.13807261 -0.19366892 -0.12306332 0.083759375
0002f0 b6 75 d8 bd 37 3d 8a 3e fb e6 8c 3e d1 61 84 bd
       -0.105693266 0.26999828 0.27519974 -0.064639695
000300 cf cc 70 be d7 43 f3 be 7f c1 4d 3d b3 a0 b6 3e
       -0.23515628 -0.47512695 0.05023336 0.3566948
000310 df f2 89 bd 0a 70 58 bc d0 cf 10 be 8d e8 9a 3e
       -0.06735777 -0.013210306 -0.14141774 0.30255547
000320 51 e9 71 be c1 39 96 bd a4 56 8e 3c 9d 8b 3e be
       -0.2362416 -0.073352344 0.017375298 -0.18607946
000330 84 6e c8 3d 56 03 31 bf a2 2e 38 be f7 f8 5e 3e
       0.09786704 -0.69145715 -0.17986539 0.2177466
000340 ce 2e 8e be 3e 31 01 bf de bb 13 be 13 98 63 3e
       -0.27770084 -0.5046576 -0.14427134 0.2222598
000350 e9 5f 96 be ba c3 f1 3d bf 76 b7 bc f8 24 be 3e
       -0.2937005 0.1180491 -0.02239549 0.3713758
000360 24 bd a9 bd fa 34 e6 3c eb b0 b9 bd 5c 7f fe bd
       -0.08288029 0.028101433 -0.090669475 -0.124266356
000370 f7 56 bb 3d 3f 72 51 3e 32 ae 3d bf 6b 71 16 be
       0.091474466 0.20453738 -0.74093926 -0.14691703
000380 c0 61 8e 3e 92 64 9e be fd 90 fa 3d 17 22 eb 3d
       0.27808952 -0.30936104 0.122346856 0.114811115
000390 b4 6b a7 bd bf 61 fa 3e 6c 87 be 3d 16 a9 ea bd
       -0.081748396 0.489027 0.093031734 -0.11458032
0003a0 6c 4f 00 3f 61 e5 18 3d ea a0 2d 3e 2f af 81 3e
       0.5012119 0.037328128 0.16955915 0.25328967
0003b0 5a 89 e8 3c 99 ca 81 be 75 af 95 3e 12 3c 18 3f
       0.028385807 -0.25349882 0.29235426 0.5946666
0003c0 5e e9 1b be f4 c0 53 be 8e 61 02 be 6a 65 70 3e
       -0.15225741 -0.20679075 -0.12732527 0.23476186
0003d0 ce 0b 6b 3d 8e 77 0f be 93 46 2f bd 4d 19 d6 3e
       0.057384305 -0.1401045 -0.042791914 0.41816178
0003e0 56 ce 93 bc d9 6c eb 3e 3b 96 46 bd 9b 8f 61 3e
       -0.018042725 0.45981482 -0.048483115 0.22027437
0003f0 28 06 53 3d 6a d9 91 3e 6a 04 98 be d3 a6 10 3e
       0.051519543 0.28486186 -0.29690868 0.14126138

model._decoder.weight f4 [8, 64]
000000 95 01 22 3e 95 fe d0 3d f5 34 f0 3e 7b 3b ae bc
       0.15820916 0.10204808 0.46915403 -0.021268597
000010 ca d4 c2 3d d0 08 4b 3e d3 a3 ee bb 93 e4 0b be
       0.095132425 0.1982758 -0.007282713 -0.13661413
000020 04 42 21 3d d4 0c d8 be 4d d8 62 be 07 49 bc 3d
       0.039369598 -0.42197287 -0.22152825 0.09193616
000030 cf 36 a6 bd aa 96 0a 3e 23 1a 70 be db e8 40 3e
       -0.08115923 0.13534036 -0.2344747 0.18838827
000040 91 09 28 be 44 b2 80 3d 47 82 14 bd 18 e7 85 3d
       -0.164099 0.062840015 -0.036257055 0.06538218
000050 a5 2f 35 3e 48 42 8a 3e bd dc 90 3d b7 61 56 be
       0.17693956 0.27003694 0.070733525 -0.20935713
000060 64 89 35 bd f1 5a fe bd 8f 8f 38 3e d3 e0 aa bd
       -0.04432048 -0.124196894 0.18023513 -0.08343663
000070 5c 5e 5a 3e f9 9d 2a bd b7 ec a6 be e4 33 c0 3d
       0.21325058 -0.04165456 -0.32602474 0.09384897
000080 cf 7b b0 be 35 b5 be be 2c d7 46 3c e5 ef 85 bc
       -0.34469458 -0.37247625 0.012136262 -0.016349742
000090 35 ad b7 3e a8 0a 45 3e 23 91 f5 bb 83 d3 de 3d
       0.35874334 0.19242346 -0.0074941083 0.108801864
0000a0 1d 83 0f be 35 f5 ad bb 51 8d ae be 67 8b d7 bd
       -0.1401486 -0.005308772 -0.3409219 -0.10524636
0000b0 5c 24 2d 39 48 59 2c 3e 90 15 45 be 05 e5 ca be
       0.0001651211 0.16830933 -0.19246507 -0.39627853
0000c0 be fb af 3c 86 26 19 3e 5f 59 13 bd 29 41 25 3e
       0.021482345 0.14956102 -0.035973903 0.16138138
0000d0 6f ab b0 bd 49 25 84 3c 82 39 ea 3d 54 91 8e 3e
       -0.08626448 0.01613106 0.1143675 0.27845252
0000e0 1a bb 5e 3c 9f 9e 7f 3b 77 b5 54 3e 29 c7 37 3e
       0.013594413 0.0039004458 0.20772348 0.17947067
0000f0 0e f4 6d 3e ac f4 24 3d 15 29 ee bd d8 0f 39 3d
       0.2323763 0.0402724 -0.116289295 0.045181125
000100 37 c2 49 bb f5 96 81 be 46 1f 83 3e 45 bb c4 3e
       -0.0030785927 -0.25310484 0.25609797 0.38424125
000110 51 82 54 3e 40 45 7d be b4 80 5f 3d 20 d2 89 3e
       0.20752837 -0.24733448 0.0545661 0.26918125
000120 39 66 09 be 9d c1 99 3e 62 e9 42 be af df 41 3e
       -0.13417901 0.30030528 -0.19034341 0.18932985
000130 85 d0 4d be 7f 1c 99 3e 96 b1 03 bd 8f 4a 98 bc
       -0.20099075 0.29904553 -0.03215178 -0.01859024
000140 4b 78 3f 3e da 32 f0 bd 95 28 72 3e 34 ad c8 bd
       0.18698232 -0.11728449 0.23648293 -0.09798661
000150 4c 88 81 be 17 bb b1 3e 47 cb ec 3e 1d 45 dc 3d
       -0.252993 0.3471305 0.46248838 0.1075537
000160 14 45 a8 3e f8 01 eb 3d c3 b4 f0 bc 37 34 a6 3e
       0.32865202 0.11474985 -0.029383069 0.32461712
000170 08 a7 19 be 59 de 99 be e0 e9 51 3e 16 21 a3 be
       -0.15005124 -0.3005245 0.20499372 -0.3186118
000180 66 c7 b2 3e 1b 89 31 3e 0d 87 fc 3e b0 82 d9 be
       0.34917754 0.17337458 0.49321786 -0.4248252
000190 02 fc 88 3e cc 86 78 3e a6 de b2 be 4f 8d 37 3e
       0.26754767 0.24270171 -0.34935492 0.17924999
0001a0 7b 4f dc 3d 06 31 1b be b5 fc db be 01 e4 25 bd
       0.10757347 -0.1515542 -0.42966238 -0.040500645
0001b0 de 7f b0 bd 51 04 d2 3d c6 8d 6f 3e 6c 9c c4 bd
       -0.08618139 0.102547295 0.23393926 -0.096001476
0001c0 25 17 54 be f1 29 98 be 12 a6 03 be 32 36 f4 bc
       -0.20711954 -0.297195 -0.1285632 -0.029810999
0001d0 54 06 21 3e ad 68 ae be d4 8e 84 bd 99 a7 16 bd
       0.1572507 -0.34064236 -0.06472555 -0.036780927
0001e0 fd e9 f4 3e 96 c8 9a be 27 72 01 bc 80 ae df bc
       0.4783477 -0.3023116 -0.007900751 -0.027304888
0001f0 94 39 19 3e d4 52 b9 3e 10 9c 8a bd b6 2e 6d 3e
       0.1496337 0.36196005 -0.06768048 0.2316235
000200 26 2c 89 3e e5 5b a9 be d3 4b bb 3d 8d f1 02 3e
       0.26791495 -0.33077922 0.09145322 0.12787457
000210 a2 dc 51 3e 97 2d eb be 85 af 5b be 96 5f 1e be
       0.20494321 -0.4593322 -0.21453674 -0.1546615
000220 cc a3 aa bd 4a bd 4f bd b0 c2 b1 3d 29 3d 20 3e
       -0.08332023 -0.05071763 0.08679712 0.15648331
000230 92 ae a1 be 9c 9e e3 bc 37 e9 10 bc 5e 11 48 be
       -0.315785 -0.027785592 -0.008844665 -0.19537875
000240 c8 42 a3 3e f2 63 e3 bd b6 09 45 be 70 de 8f 3d
       0.31886888 -0.111030474 -0.19241986 0.070248485
000250 44 fc 83 3d ff c2 17 be 47 33 4e 3e 16 84 ac be
       0.064446 -0.14820479 0.20136748 -0.33694524
000260 fa 2c b0 be 22 ac 27 3e 09 b1 ab be 36 02 87 bd
       -0.34409314 0.16374257 -0.33533505 -0.065922186
000270 45 09 27 3e 1d 71 b6 bc b6 8b a5 be 19 eb 06 be
       0.1631213 -0.022270733 -0.32333153 -0.1317562
000280 fc 99 10 3e 40 31 73 bb f0 14 4d be e7 15 bb be
       0.1412124 -0.0037108213 -0.20027518 -0.36540148
000290 c5 9a c0 3e 63 c8 17 3e a0 4c 29 bd 1b 2f be bb
       0.3761808 0.14822535 -0.04133284 -0.0058039553
0002a0 36 b1 d8 3c 70 65 97 3d 04 ee 54 3d 72 7c c4 3e
       0.026451688 0.073923945 0.051984802 0.38376194
0002b0 ff bd aa bd 2f 0f 81 be 85 c5 3e 3e aa 34 23 bd
       -0.0833702 -0.25206897 0.18630035 -0.039845146
0002c0 be 51 60 bd 2d 3e c6 be cf 34 cf bd 95 f9 0d be
       -0.054765455 -0.3871931 -0.10117494 -0.13864739
0002d0 7b 92 8a 3e 58 37 f3 3d 6d f4 90 3e ff 2d 66 3e
       0.2706488 0.1187579 0.28311482 0.22478484
0002e0 11 7b 1d 3c 6c da f1 bc 2d 60 62 bd e6 5a 1e 3e
       0.009611861 -0.029523097 -0.0552675 0.15464363
0002f0 91 4b 97 be 02 2e 2f bd 2c 42 ad 3e b9 a1 17 be
       -0.2954984 -0.042768486 0.33839548 -0.14807786
000300 f6 6e 28 be 04 b4 ec bd 24 07 2a ba a7 f5 3f be
       -0.16448578 -0.11557773 -0.00064860494 -0.18746053
000310 a5 36 70 be cc f8 f5 3d 75 9b 71 3e c1 76 dc 3b
       -0.23458345 0.12010345 0.23594458 0.0067280238
000320 55 e7 a1 3d 49 8f c6 bd ec 72 24 be 3c 71 8b be
       0.07905451 -0.09695298 -0.16059464 -0.27234828
000330 ac c6 60 be a8 33 70 be 09 a6 b1 bd 69 62 f6 bd
       -0.21950787 -0.23457205 -0.08674247 -0.12030489
000340 e7 ae 01 bf 0f b2 8a bd a4 00 8f 3d b4 eb 13 3f
       -0.50657505 -0.06772243 0.06982544 0.5778153
000350 c5 78 a3 3e 8a a5 87 3c 55 2f 9e be 93 68 c1 bd
       0.31928077 0.016558427 -0.30895486 -0.09443774
000360 3c 46 34 be 22 30 a3 be 58 2c 01 3e 16 96 1b be
       -0.17604917 -0.3187266 0.12614572 -0.15193972
000370 27 bb 8b 3e 74 0b 0e 3d a7 e8 95 3d 20 41 ed bd
       0.27291223 0.03467889 0.073197655 -0.11584687
000380 ad 96 97 be bc c8 57 3d 08 2a 17 3e eb c7 bc be
       -0.29607144 0.05268167 0.14762127 -0.36871275
000390 bd 8b 82 3b d1 5f 2b 3d e2 8a c6 3e 33 b1 79 be
       0.0039839433 0.041839425 0.38777834 -0.24384002
0003a0 70 81 59 be ec d3 0f 3e 52 1c 24 3e e0 8a 08 3f
       -0.21240783 0.14045686 0.16026428 0.53336906
0003b0 ec 7c a0 be f5 0c af bd e0 10 b8 3d b4 cb fe bd
       -0.31345308 -0.08547393 0.08987594 -0.12441197
0003c0 1c 46 59 3e 56 b5 1a 3c 5a 2f 5d 3e dd 71 fd bc
       0.21218151 0.009442648 0.21600094 -0.030938083
0003d0 b7 80 9a 3d 35 e0 e4 bc 43 68 0a 39 e1 9d 74 3e
       0.07544082 -0.027938941 0.00013199546 0.23888351
0003e0 66 eb 96 be 9a c1 45 3e e7 c6 ed bd 29 1d 87 be
       -0.2947647 0.19312134 -0.11610203 -0.26389435
0003f0 24 a0 b4 3e 91 38 b3 bd 79 d5 45 3e 19 95 26 be
       0.35278428 -0.087510236 0.19319715 -0.16267814

model._layers.0.weight f4 [64, 64]
000000 84 3b 31 be 0b 81 02 be 63 19 4c 3d df 58 14 bd
       -0.1730786 -0.12744538 0.0498289 -0.036217567
000010 82 30 64 bd 0a c0 81 be 7f 96 f3 bd 68 b8 ff 3d
       -0.055710323 -0.25341827 -0.11893939 0.124863446
000020 e7 76 87 3e 14 fd b9 bd e1 e3 8f 3d 5b cc 0c 3d
       0.26457903 -0.09081474 0.07025886 0.034374576
000030 8a 21 45 3e 16 ac 00 bd 83 d1 b0 3e 33 fa aa 3d
       0.19251075 -0.031414114 0.34534845 0.08348503
000040 c4 e1 eb 3d f9 82 20 bd eb cb e8 bd 78 c4 83 3e
       0.11517671 -0.039187405 -0.11367019 0.2573583
000050 42 b6 92 ba ca 25 57 3b 36 d2 d0 3d ec 61 e6 3d
       -0.0011193233 0.003282892 0.101963446 0.11249146
000060 05 b7 43 be c2 2e 38 be 4b 81 54 bb a2 45 96 3e
       -0.19112785 -0.17986587 -0.0032425697 0.2935
000070 08 0d 77 3d 4f 05 e2 bd ca 77 65 bd bd a6 11 3e
       0.060315162 -0.11036169 -0.056022443 0.14223762
000080 fa 9a 6e be 80 c6 bb 3e 9c d6 d5 3d 9b e5 d1 bd
       -0.23301306 0.3667488 0.10441324 -0.10248872
000090 2d 85 27 bd 11 60 fc 3d 78 fa 71 3e 57 08 2f 3e
       -0.04089849 0.12323011 0.23630702 0.17093025
0000a0 1a 94 55 3d 7d e0 d0 be 7f 4a 3a 3d ad e7 7b 3e
       0.052143194 -0.4079627 0.0454812 0.24600096
0000b0 e9 e3 3a 3e 0e 87 96 3e e0 4e 9d 3d 53 21 59 be
       0.18251003 0.29399914 0.0768106 -0.21204118
0000c0 60 a3 ff 3d 67 75 c2 3e 83 95 71 be 55 5f b5 bc
       0.12482333 0.37980196 -0.2359219 -0.022140184
0000d0 f0 5a 93 3c 9a 6b 5d bd 42 20 5e be ff c3 01 3f
       0.017987698 -0.054057695 -0.21691993 0.5068969
0000e0 02 75 03 be 81 64 b7 3e 9e 70 80 bc ba 97 11 3e
       -0.12837604 0.35818866 -0.0156787 0.14218035
0000f0 d2 1f 62 be ec 73 9c 3c 7a 96 3b 3e c1 8d 06 3e
       -0.22082451 0.019098245 0.18319121 0.13140012
000100 c4 ae 25 be 88 01 01 be f6 c4 bc be 4d 54 9c 3e
       -0.16179949 -0.1259824 -0.3686902 0.30533066
000110 54 79 81 3b 17 41 62 3e d0 1a 84 3e 71 85 98 3d
       0.003951231 0.22095142 0.25801706 0.07447327
000120 c7 11 0d 3d 93 b0 3a be ab 53 33 3e dc 51 86 be
       0.034440782 -0.1823142 0.17512386 -0.2623433
000130 d7 f3 8f bd 9a de 26 be ba 5c 08 3e 6a 62 ae 3d
       -0.07028931 -0.16295853 0.13316622 0.08514865
000140 da 54 13 3e 0e 61 96 3e e3 38 86 bc d2 b3 66 bd
       0.14387837 0.29370922 -0.016384548 -0.056323834
000150 19 44 65 3e 7b 5a f2 3d fa eb 01 3d 97 a8 63 be
       0.22389258 0.11833664 0.031719185 -0.2223228
000160 33 c7 86 3d 61 4c 3c be 11 b2 ff 3d 43 85 b7 be
       0.06580963 -0.18388511 0.12485135 -0.35843858
000170 87 04 bb 3c 24 ee 0e be 02 aa d7 bc af e3 22 be
       0.022829307 -0.13958031 -0.026326183 -0.15907167
000180 83 8b cf bd 16 9f c0 be 88 4f 8e 3e 17 9a 05 bd
       -0.101340316 -0.37621373 0.27795053 -0.032617655
000190 d7 b8 ba 3d 36 f2 ff bd 14 49 fe bb fe 9c f3 bd
       0.09117287 -0.1249737 -0.0077601764 -0.11895178
0001a0 10 79 b0 bc bc d1 7a 3e d7 d1 18 be 92 87 b3 3e
       -0.021542102 0.2449407 -0.14923798 0.3506437
0001b0 64 3d 91 be a5 58 15 bd ea 7b e1 bd 64 eb 49 3e
       -0.2836715 -0.03646149 -0.11009963 0.197187
0001c0 33 8f 83 3e 57 97 9b bd 24 b7 af 3c 9a c9 29 be
       0.2569519 -0.07597225 0.021449633 -0.16580811
0001d0 ab 56 87 3e 4f 3d 3e 3c 98 8d b8 3d ac 49 cf 3d
       0.2643331 0.011611297 0.09011382 0.10121474
0001e0 49 b6 17 be 4f 18 89 3e 48 15 36 be 48 1a 4d be
       -0.1481563 0.26776358 -0.17781556 -0.20029557
0001f0 cb e4 3f bd 3a 31 11 be 7b 4b 39 be 42 ca 06 3e
       -0.046849053 -0.14178935 -0.180952 0.13163093
000200 6d c0 99 3e 90 5c be bd 4a f3 5a 3b 6c a4 5b 3a
       0.30029622 -0.09294999 0.0033409172 0.0008378688
000210 12 1d 20 be 79 de 6c 3e 9b 2f f4 3d 24 41 36 be
       -0.1563609 0.23131742 0.119231425 -0.17798287
000220 d9 aa 3c bd ad d2 1b 3e df 02 bd be 5b d7 0f be
       -0.04606137 0.15217085 -0.36916253 -0.14046995
000230 a2 22 04 3e 95 69 fe 3d 28 43 80 bd 49 0e 82 3e
       0.12903836 0.12422482 -0.06262809 0.25401524
000240 4c 44 5e be b0 ac cf 3e 60 ae 72 3d 62 db 24 bd
       -0.2170574 0.40561438 0.05924833 -0.040248282
000250 c6 66 2f be 95 08 4b 3e 61 cc 28 3d e7 a8 9a 3e
       -0.17129049 0.19827493 0.041210536 0.30206987
000260 bc 6f 0f 3e 24 2b d1 3d 13 dc 39 be b3 4b 5e 3e
       0.14007467 0.102133065 -0.18150358 0.21708564
000270 01 3d 8c bd 88 ed 85 3d ff 63 9b 3e 72 74 b5 3e
       -0.06847573 0.06539446 0.30349728 0.35440403
000280 e4 3f 33 bc 67 7d 67 be 9d e5 f1 bd f4 f9 61 bd
       -0.010940526 -0.22606431 -0.118113734 -0.055170015
000290 44 35 d4 3e d7 e3 94 bd a6 b4 f0 3d 7f 25 5b 3d
       0.41446888 -0.072700195 0.11753206 0.053502556
0002a0 a2 46 62 be 9c 08 85 be ca 5c 9c 3e d6 91 e7 3b
       -0.22097257 -0.2598313 0.30539542 0.0070669455
0002b0 a3 d2 2e 3e 81 32 0b 3d 8c ee 96 3d 05 3e 00 be
       0.17072539 0.03398371 0.07369718 -0.12523659
0002c0 44 77 85 bd 95 8e fa 3d c5 5a 9d 3e 6e 58 84 bd
       -0.06516889 0.122342266 0.30733314 -0.06462179
0002d0 6e 46 1e bd f1 e4 06 be 61 38 93 be 23 25 78 bd
       -0.038641386 -0.13173272 -0.2875395 -0.06058229
0002e0 57 5f f4 3e c2 f4 de 3e ce 92 61 bc 0a ba e4 3e
       0.4772899 0.4354611 -0.013767911 0.44673187
0002f0 64 f7 e3 bd 28 d3 d5 3e c1 80 16 bd 9d 35 46 be
       -0.111311704 0.41762662 -0.036743883 -0.1935639
000300 7e 47 35 be f0 bd b0 ba 4e 65 43 3d 75 3e 03 bd
       -0.17703053 -0.001348434 0.047704034 -0.032041986
000310 40 27 9e bd 87 65 59 bd 3d 58 a9 3c bb bb c4 bd
       -0.0772233 -0.05307534 0.020671958 -0.09606119
000320 dd 38 95 3d 59 f7 50 3d af 86 7f be 32 74 d6 3d
       0.072862364 0.05101714 -0.24953721 0.10471381
000330 e4 34 cc bc 5e f9 8c bd 63 25 f6 3d a0 79 be 3c
       -0.024927564 -0.068835005 0.1201885 0.023251355
000340 72 89 94 bd f1 25 20 bc 0c 51 9f 3c ce ad 51 be
       -0.07252778 -0.009774671 0.019447826 -0.20476457
000350 8b ab 28 be 06 d4 f8 3d b2 c4 ff bd 2a 65 bd be
       -0.16471688 0.12149815 -0.124886885 -0.36991245
000360 ee f6 03 bd c7 2a 2e bd ba 88 65 3e 0f 74 a6 3e
       -0.032217912 -0.042521264 0.22415438 0.3251042
000370 58 0c 2d bd a5 68 af 3d bc 56 e8 3c e5 ea 03 bd
       -0.0422481 0.08564881 0.02836167 -0.032206435
000380 66 0e b9 bd c0 1a a9 3e 2c cc 1c 3d be 22 97 bd
       -0.090359494 0.3302822 0.03828065 -0.073796734
000390 26 a9 92 bc 80 5f 2e bd 02 57 88 3e d4 24 62 3e
       -0.017902922 -0.042571545 0.26628882 0.22084361
0003a0 1f 1f f1 bd 9f f9 63 3d 43 af 17 be 15 07 c7 be
       -0.11773514 0.05565798 -0.14812951 -0.3887259
0003b0 86 49 02 3e 79 28 95 be 80 bc b5 bd 7e 37 62 be
       0.1272336 -0.2913244 -0.08873844 -0.22091481
0003c0 5e 3b 06 3e 80 7d 82 3e 41 50 e5 be 23 12 94 be
       0.13108584 0.25486374 -0.4478779 -0.28920087
0003d0 94 70 77 bd f9 9e 4f 3e 74 e4 02 be 7a 65 12 be
       -0.060410097 0.20275487 -0.1278246 -0.14296523
0003e0 53 8f 09 be ac 9b 69 bd e1 92 5e bd d3 7c 25 be
       -0.1343358 -0.057033226 -0.054339293 -0.16160898
0003f0 2e eb 1a bd fc 3a f2 3d 6a 3e bf 3c 66 bf 95 3e
       -0.03782194 0.118276566 0.023345191 0.29247588

model._layers.1.weight f4 [64, 64]
000000 a1 73 8b 3d 6d 17 8c be 0b 56 83 3c a6 3d 1d 3e
       0.06809164 -0.27361622 0.01603224 0.15355548
000010 73 45 0c 3e 2b 4c 0d bd 60 e2 34 3e cc f8 84 3e
       0.13698368 -0.034496468 0.1766448 0.25971067
000020 9c 72 10 3c f2 22 a6 3d 52 c1 cb bd d9 36 2b be
       0.0088163875 0.08112134 -0.09948982 -0.16720141
000030 73 89 af be 86 ec 5d 3e f4 17 76 3e 2c 6f 8b 3e
       -0.34284553 0.21672258 0.24032575 0.27233255
000040 0d d2 6c be f8 61 d0 3c 5f 50 4a 3d a4 0f 80 3d
       -0.23127003 0.02543734 0.049393054 0.06252983
000050 35 05 95 be 01 a6 66 3e 4f 26 3a 3e fd 3f 13 bd
       -0.29105535 0.22524263 0.18178676 -0.035949696
000060 d6 0e b7 3d e5 d1 94 3e 6f d1 ac bd db 6a ba 3e
       0.089383766 0.29066387 -0.08438384 0.3640965
000070 98 26 39 3e f5 c0 5e 3e 69 1e 3b 3e 8c 97 c7 3e
       0.18081129 0.21753295 0.1827332 0.3898281
000080 25 22 e2 3d 1d fd 95 3e 17 6a 0a 3f bf b1 06 be
       0.11041669 0.29294673 0.5406813 -0.13153742
000090 2d 41 b4 3e 01 7e d1 3e b3 9e 7d be 25 09 6d 3e
       0.35205975 0.40916446 -0.2476757 0.2314802
0000a0 08 4d dc 3c 0b 16 21 bd bb 88 01 bd b7 04 01 bf
       0.0268922 -0.039327662 -0.031624537 -0.5039782
0000b0 9f 75 52 3e 6d 45 c8 bc 59 0d 1f 3e e9 3f b6 3d
       0.20552681 -0.024447167 0.15532435 0.08898909
0000c0 ed a3 71 3d cc a8 b1 bd 98 08 05 be 5e 20 99 be
       0.058994222 -0.086747736 -0.1299156 -0.29907507
0000d0 2d 4d f9 bd f5 77 48 3e b4 1f 27 3e 88 74 78 3d
       -0.12172923 0.1957701 0.16320688 0.060658008
0000e0 e2 64 9b 3c 8f 2c 46 3e aa e8 06 3d 4c 35 18 bd
       0.018969003 0.19352935 0.03293673 -0.037160203
0000f0 15 7f 3e 3d c2 e3 e7 3a c0 9d a6 3e b9 6e 94 bc
       0.046507914 0.0017691778 0.3254223 -0.018119203
000100 67 e0 16 bd e9 90 ed 3e 53 57 ae be 19 33 91 bc
       -0.0368351 0.4639962 -0.34050998 -0.01772456
000110 ad 6f 2f bd 1d ac 47 bd 07 ad 7b 3e 11 52 b3 bd
       -0.04283111 -0.048748124 0.24577723 -0.08755887
000120 5c de bf 3c 1a ff 7f 3e ed 40 bd 3d f8 45 f9 bd
       0.023421459 0.24999657 0.09240899 -0.121715486
000130 27 2d 89 bc e0 46 60 bd 74 c9 64 3e ca 2f f7 3d
       -0.016745163 -0.05475509 0.22342473 0.12069662
000140 11 13 1c be 97 d6 02 3e 77 c9 fc 3d 8c a1 81 3a
       -0.15241648 0.12777172 0.12343114 0.0009890064
000150 21 73 73 3d a9 58 52 3e c6 c5 99 3d f5 b2 2e 3e
       0.059435967 0.20541634 0.075084254 0.17060454
000160 52 5f 1f be 4a cc e5 be 84 f2 2a 3c 19 81 2a 3e
       -0.15563706 -0.44882423 0.010433797 0.1665081
000170 31 34 9d bd 41 63 d4 be 54 72 9a 3e 99 9c 23 3c
       -0.0767597 -0.41481975 0.3016535 0.009986066
000180 30 cf 3d 3e 8d 9f 1d 3e 24 3a 2d be 57 77 1b be
       0.18536067 0.15392895 -0.1691671 -0.15182243
000190 07 2f 9f ba de d0 13 3e 35 99 1e 3d fc 75 5f be
       -0.0012144753 0.14435145 0.03872033 -0.21822351
0001a0 db 3b 0f be ba bf ae be 22 60 9c bd 50 63 ba b8
       -0.13987677 -0.3413065 -0.076355234 -8.8876695e-05
0001b0 7c c4 ec 3d e1 c0 60 be 0e a7 80 be eb b0 a7 3e
       0.11560914 -0.21948577 -0.25127453 0.32752165
0001c0 24 26 c8 3d 39 98 91 3e 13 7b 1f be 65 d5 dc 3d
       0.097729 0.2843645 -0.15574293 0.10782889
0001d0 ba 9b 6f 3e 9b 1c 8b 3d 3e 09 5d 3c cf 4d 12 3c
       0.23399249 0.067925654 0.013490973 0.008929684
0001e0 18 a6 fa 3d 49 5c 3d be 5e bb 7f be e7 7f c0 bc
       0.12238711 -0.18492235 -0.24973819 -0.023498489
0001f0 06 4a 0d 3e 38 dd 8e be e0 87 47 3e d6 af 47 3e
       0.13797769 -0.27903152 0.19485426 0.1950067
000200 a3 89 ff 3d 2d c0 4d be ef a1 09 be 89 1a 2a 3e
       0.12477424 -0.2009284 -0.13440679 0.16611685
000210 7a d1 96 be 10 a6 c6 3d b5 fc 31 be a7 6a 4c be
       -0.29456693 0.09699643 -0.17381556 -0.1996256
000220 e6 5b 1a 3e df 1b c5 3e 91 1a ad 3d 93 14 d9 3c
       0.15074119 0.38497826 0.08452333 0.026499068
000230 a8 f0 91 3c 5d 06 21 be f2 5e 53 3d f1 0c c1 3d
       0.01781495 -0.15725084 0.05160422 0.094262965
000240 14 38 66 bd 26 13 81 3e 9c 7d 13 3e a6 e8 a6 be
       -0.056205824 0.25209922 0.14403385 -0.32599372
000250 3d eb 01 bb 1d 77 4b 3d 6c fe 91 3e b0 85 bf bd
       -0.001982405 0.049674142 0.2851442 -0.09351671
000260 ec af 7f 3d 79 f1 1c be 25 60 cd 3d e8 b9 88 bd
       0.06242363 -0.1532649 0.10028104 -0.06676084
000270 06 46 b7 3e 85 92 da 3e 5f 33 38 3e 4c 57 8a 3e
       0.3579561 0.4268991 0.17988347 0.27019727
000280 9f 8b 72 be d1 21 70 3e ca 73 92 3e c3 1e 02 3e
       -0.23686074 0.234504 0.28603965 0.12707047
000290 c5 4d 8e 3e ad ad 45 bd 56 35 1c 3e d8 39 11 bd
       0.27793708 -0.048261333 0.15254721 -0.035455555
0002a0 eb 9b 59 3e c6 68 4f 3d ef 0b 31 be c2 c1 cc 3d
       0.21250884 0.05063703 -0.17289709 0.09997894
0002b0 d6 2a 23 3e 57 0a 1c bd 15 92 b9 3e 80 c4 1c be
       0.1593431 -0.0380958 0.36244264 -0.15309334
0002c0 dd c1 2f be 19 6c 76 3e eb 92 5a be f7 02 55 3e
       -0.17163797 0.24064673 -0.21345107 0.20801912
0002d0 a1 98 00 be 9a a4 91 3c 1c e2 3a bd 9d d3 5e 3d
       -0.12558223 0.017778683 -0.04562579 0.05440103
0002e0 0d 78 16 3e ae db 15 3f cd 18 bc 3d 54 2b 0e 3e
       0.14694233 0.5853833 0.09184418 0.13883716
0002f0 5d cd 11 3d 6f a9 be 3c 94 97 7f bd 45 a5 2f be
       0.03559624 0.023274152 -0.062400416 -0.17152889
000300 ea 00 f4 3d 66 58 ec 3c 44 82 20 3c 63 11 de 3d
       0.11914237 0.028850745 0.009796683 0.1084316
000310 97 41 e3 3d fa d6 aa bd 02 2e 5a 3c 2f 28 3a 3e
       0.11096495 -0.08341785 0.013316633 0.18179391
000320 1d be f8 bd 7d 8c ae 3e 62 29 be be 30 4c f0 3d
       -0.12145636 0.3409156 -0.37140948 0.117332816
000330 39 55 5d bd 06 f0 19 3e 24 08 d2 3b ea c3 1c 3e
       -0.054036353 0.15032968 0.006409662 0.1530911
000340 14 2a 10 3e 6d 57 7c bd aa 8e 8b 3d 7a 17 da be
       0.14078552 -0.061606813 0.068143204 -0.42596036
000350 ef 05 53 3e be 83 01 bf bc 07 69 3e a4 74 7d be
       0.20607732 -0.5059165 0.22756857 -0.24751526
000360 e4 df 6a 3e b3 f4 0d 3e 9b d9 5b bd 9d 8e cf 3d
       0.2293697 0.13862877 -0.05367432 0.10134623
000370 ec 4e 08 3e 80 28 db 3b 0e 64 80 3e eb 7b 3c bd
       0.13311356 0.0066881776 0.25076336 -0.046016615
000380 e8 88 bd 3e f3 1b ac bd 71 46 1f be 43 6f 57 3e
       0.37018514 -0.084037684 -0.15554215 0.21038537
000390 75 75 cc 3d cf d4 c6 be cf da 85 3e 94 76 8b be
       0.09983341 -0.38834235 0.261435 -0.27238905
0003a0 9d da 81 3e f1 c3 4b 3e ed f2 92 bc 6a fc 18 3c
       0.253621 0.19898964 -0.017938102 0.009337524
0003b0 21 a6 09 3e e1 2f 01 be e3 bc 7e bd 4e d8 ae bd
       0.1344228 -0.1261592 -0.062191855 -0.085373506
0003c0 53 27 e3 3d 63 18 0b bd a4 1f 6b bc 9b 43 c4 3d
       0.11091485 -0.033958804 -0.014350805 0.09583207
0003d0 a8 ba 34 bd 90 6f a5 3d 47 e4 b9 be 78 d7 a3 3d
       -0.04412332 0.080779195 -0.36306974 0.08000082
0003e0 92 f1 ff 3d 43 b2 a6 3e 0a 94 c2 bd 0e 1c 6d 3e
       0.12497248 0.32557878 -0.095008925 0.23155233
0003f0 4c 50 21 bd fd 47 95 3e 1e 96 12 3e 83 0d 98 3e
       -0.039383218 0.29156485 0.14315078 0.2969781

model._layers.2.weight f4 [64, 64]
000000 16 d8 43 3d ae ca 95 be 36 aa 4b be e7 66 f0 3d
       0.047813497 -0.29256195 -0.19889149 0.11738377
000010 ac 45 09 bd 5c 81 5c 3d d4 90 b5 3b ef fb c7 3e
       -0.03351371 0.053834304 0.0055409465 0.39059398
000020 03 39 1c 3e c6 a8 08 3e 45 89 43 bd c8 b9 b7 3e
       0.15256123 0.13345632 -0.047738332 0.35883927
000030 e2 d9 b7 3e e5 f4 9b 3d 19 dc 67 be cd ff 82 3e
       0.3590842 0.07615069 -0.22642554 0.25585786
000040 6e 69 5b 3d ed 3f a0 3d cd 80 9a bd e5 a8 bc bb
       0.053567342 0.07824693 -0.07544098 -0.0057574385
000050 23 d7 95 3e e2 72 2d 3e 4e 56 05 3c 83 73 77 3d
       0.292657 0.16938356 0.008138252 0.060412895
000060 ea d1 33 3d 49 e4 b2 3d 27 f5 cb bd c0 1a 85 3e
       0.04390136 0.08734948 -0.099588685 0.2599697
000070 94 f4 1d be 30 93 2e be c3 09 86 bd ff a0 2a 3e
       -0.1542533 -0.17048335 -0.06544831 0.16662978
000080 ab 90 e1 be 53 3c f5 bd 72 d2 e0 3c 05 7c 8e bd
       -0.44055685 -0.119743966 0.027444098 -0.069572486
000090 34 83 35 3c a2 c5 2d 3e 0e 72 14 3e dd b3 d6 3d
       0.011078645 0.16969922 0.14496633 0.10483525
0000a0 32 69 7e be aa 7a ee 3d 95 50 18 be 32 de 12 be
       -0.24844816 0.1164449 -0.1487449 -0.14342573
0000b0 fb 98 17 3d 7b f7 43 3e 20 17 35 3e ac c6 54 bd
       0.037011128 0.19137375 0.17684603 -0.05194728
0000c0 49 45 20 be 3d 5f 7a bc a6 17 71 3d 20 ce 4e 3e
       -0.1565143 -0.015281496 0.058860444 0.20195818
0000d0 d1 20 78 bd b6 30 f1 be 7a 21 6e be 7f 76 75 be
       -0.06057817 -0.47107476 -0.23254958 -0.23970984
0000e0 c8 84 54 3e 35 e2 b5 ba 81 e0 40 bc 51 7c f9 3d
       0.20753777 -0.0013876619 -0.011772276 0.121819146
0000f0 45 41 00 3e 14 8e 78 be 7c 54 c3 3d 24 fb 29 3d
       0.12524898 -0.24272949 0.095375985 0.041499272
000100 43 16 88 be 6b 62 91 bd 9a 00 20 bd 51 3d 4b be
       -0.26579484 -0.0709885 -0.039063074 -0.19847609
000110 39 23 9b 3d df 85 8a 3e 3f f7 7b 3e a9 fb e2 bd
       0.075750776 0.2705526 0.24606036 -0.110831566
000120 5d 09 ba bc 49 78 dc 3d 7c 52 12 be 91 3c 82 3d
       -0.022709543 0.1076513 -0.14289278 0.063592084
000130 74 0f 7e 3c 91 56 d1 bd f3 2a 4b 3e 30 62 96 be
       0.015506614 -0.10221589 0.19840603 -0.29371786
000140 e6 94 c3 bd 51 e5 d8 3d 10 c0 f1 bc cd 7f 6b 3e
       -0.095498845 0.10590614 -0.029510528 0.22997971
000150 22 4c 9f bd 46 8f 85 bd 7c a0 38 3e 22 77 8b bd
       -0.07778193 -0.06521468 0.1802997 -0.06809832
000160 65 b8 81 3e 04 55 25 be 08 7f 29 bd cd 05 c6 bc
       0.25335994 -0.16145712 -0.041380912 -0.024172688
000170 7e 6e a9 3e d3 aa e9 bd 91 88 81 be 00 05 c9 3d
       0.3309211 -0.11409535 -0.25299504 0.09815407
000180 01 99 7b 3c 46 f8 a0 bd 69 20 1a be 66 44 a3 bd
       0.015356303 -0.078598544 -0.15051426 -0.0797203
000190 af d3 49 bd 88 bc 9a 3e 3f 47 ab 3e ec c4 cd 3d
       -0.049274143 0.30221963 0.33452794 0.100473255
0001a0 84 14 4d bd ee 54 c0 bd 21 c7 e7 3c a6 eb d0 3d
       -0.050068393 -0.09391199 0.028293194 0.10201196
0001b0 2d 6f 83 be 96 5d be 3d f1 f1 e5 bc 4d f5 90 3d
       -0.25670758 0.09295194 -0.028069468 0.070780374
0001c0 b1 02 66 bd dc fa 48 be 4d b4 36 3e 68 04 58 be
       -0.05615491 -0.19626945 0.17842217 -0.21095431
0001d0 4c b4 24 3e 42 10 35 3d 58 06 80 3e 12 5d 88 bd
       0.16084403 0.044204958 0.2500484 -0.06658377
0001e0 3e 79 6e be 97 6c 53 be 7c 75 6a 3e 3b b5 5d 3d
       -0.23288438 -0.20646892 0.22896379 0.054127913
0001f0 cd 25 f7 3c f3 5b 59 be 89 aa fc bc 4a b8 b3 be
       0.030169392 -0.21226482 -0.030843036 -0.3510154
000200 33 11 f4 3d 2e 4d 26 be 4e d0 65 3e c1 60 75 be
       0.11917343 -0.16240379 0.22442743 -0.2396269
000210 7e d9 dc 3d 05 7b 06 be a6 c1 97 3e f2 1d 4e 3e
       0.10783671 -0.13132866 0.2963993 0.2012861
000220 8e 1c 74 3e 9f f1 ac 3a c3 15 4d 3c e4 ca 3a 3e
       0.23839018 0.0013194567 0.012517395 0.18241459
000230 2d 78 84 3c 9c d7 bf 3e 01 b8 11 be e5 8b ac 3e
       0.016170586 0.37469184 -0.14230348 0.3370048
000240 6d 55 86 bd 63 51 11 be 0a 8c dd be fb b3 65 3d
       -0.065592624 -0.14191203 -0.43270904 0.056079846
000250 99 20 0c 3e f0 c2 c8 3e 29 81 6c 3e 3f db c5 3b
       0.1368431 0.39211226 0.23096146 0.006038099
000260 b7 b7 93 bd 27 44 42 3e ba 95 c6 be 2b 75 90 3e
       -0.07212775 0.1897131 -0.38786107 0.28214392
000270 69 1e ac be 24 67 18 3e f9 19 04 3d 52 12 18 3e
       -0.3361695 0.14883095 0.032251332 0.14850739
000280 19 bc 6b bd 98 15 71 3e 21 bc c2 be b5 9f 3f be
       -0.05755243 0.23543394 -0.38034156 -0.18713267
000290 53 b0 45 3e be 86 7d be d2 c4 de 3d 7c c3 91 3d
       0.19305544 -0.24758431 0.10877384 0.07117364
0002a0 e0 c3 e9 bc 4e bd c4 bd f7 66 b5 bd cd 18 92 be
       -0.028535783 -0.096064195 -0.088575296 -0.28534546
0002b0 8f 14 26 3e 4a 99 61 be d3 8a 85 be f1 fa 95 be
       0.1621878 -0.22031131 -0.26082477 -0.29293016
0002c0 90 aa 25 3e b3 4c a2 3d 50 30 dc 3d 40 e0 ee 3d
       0.16178346 0.079247855 0.107514024 0.11663866
0002d0 1a e9 be be dc 37 3d bb 36 ed 06 3f da 0e ae 3d
       -0.37287217 -0.0028872406 0.52705705 0.084989265
0002e0 8d c1 9e 3c 0f 99 04 3e 04 2b 61 3e 19 90 47 bd
       0.019379402 0.12949012 0.21989065 -0.048721407
0002f0 26 2e 76 3e 8d f3 cd 3d ca 4c f8 bd 4c 4f 9f 3d
       0.24041042 0.10056219 -0.12124021 0.077787966
000300 e2 2a a6 be 06 45 76 3e dc c2 a4 be 9d 9f 5f 3e
       -0.32454592 0.24049768 -0.32179916 0.21838231
000310 df fb e2 bd d7 f0 1e be 76 c8 2f 3e 20 e6 92 be
       -0.11083197 -0.1552156 0.17166314 -0.28691196
000320 c4 d3 0e 3e 66 7b 60 be 34 df 14 bc 7f eb 54 bd
       0.1394797 -0.21922073 -0.009086419 -0.0519824
000330 9e 84 1a 3d f4 62 53 be db a1 16 3e d2 60 ea bd
       0.03772413 -0.20643216 0.1471018 -0.11444248
000340 92 7d 83 3e 42 67 26 3d a8 b5 96 3e dd e1 23 3d
       0.2568174 0.040625818 0.29435468 0.040010322
000350 52 36 14 bd d7 be 09 be 3b 06 a9 3e d4 59 25 3d
       -0.036184616 -0.13451706 0.33012566 0.04036887
000360 3b 00 8a bd c3 db 85 3e f6 34 be bd 26 9f 6f 3d
       -0.06738325 0.26144227 -0.09287445 0.058501385
000370 24 06 53 be 14 fa cc 3d 08 71 a1 3d 58 20 c2 bd
       -0.20607811 0.10008636 0.07882887 -0.09478825
000380 d2 a5 09 be 7f 14 3c 3e fc f5 52 be 0b fd 8f 3b
       -0.13442162 0.18367194 -0.20601648 0.0043941787
000390 e0 c0 6a 3d ca d7 08 3e 9f 53 8a 3b 5f 30 e8 bc
       0.057312846 0.13363567 0.004221394 -0.028343378
0003a0 a0 fb 4c 3d 83 1e 0a bc 15 6b 46 3e c9 67 0a 3d
       0.050044656 -0.008430126 0.19376786 0.033790383
0003b0 a5 97 07 3d fc a0 07 be 2c e8 17 3e 15 b8 64 be
       0.033103604 -0.13245004 0.1483466 -0.22335847
0003c0 a8 83 36 3e 1c 53 80 bd 29 ce a7 3d de c8 8b 3c
       0.1782366 -0.06265852 0.08193619 0.017063554
0003d0 38 65 f5 be 2a 1d 66 3d 87 7e a9 3e 3c c6 7a bd
       -0.47928786 0.056180157 0.33104345 -0.061224207
0003e0 80 fa b8 3e cd 4d 85 bc 0d d4 6e 3e 7f 39 93 3c
       0.36128616 -0.01627245 0.23323078 0.017971752
0003f0 4e 9b da bb 85 63 b1 3e 5b d8 06 3e 32 19 c9 3e
       -0.006671346 0.3464624 0.1316847 0.39277035

model._layers.3.weight f4 [64, 64]
000000 38 68 c6 3c 89 a3 7a be 06 de ca 3e b3 8c 8f bd
       0.024219617 -0.24476446 0.39622515 -0.07009258
000010 d2 d7 1e 3e 92 02 3e be 66 ff f6 3d 6e 4b 9b bd
       0.15512016 -0.18555668 0.12060432 -0.075827464
000020 ac 63 6e bd 1f cf 31 3e 5e 9d 7a be cc 3b 9a 3d
       -0.058200523 0.17364167 -0.24474093 0.075309366
000030 54 40 de 3d 97 c0 ba 3e d0 f5 f8 3d 45 20 e0 3d
       0.10852113 0.3647506 0.1215626 0.10943655
000040 34 7f 41 bd 0f 35 52 bd c5 a0 d1 3c 0c 70 2a 3e
       -0.04724045 -0.051320132 0.025589356 0.16644305
000050 f4 56 38 3e 57 11 45 3e 71 b3 ea 3e ef 05 80 be
       0.1800192 0.19244896 0.45840028 -0.25004527
000060 4a 0f 7a 3e 53 67 bb 3e c7 2a 6e be af 2d 9b bd
       0.24419895 0.36602268 -0.23258506 -0.07577073
000070 1b 28 bd 3e 95 20 ca 3a 92 a7 ee 3e 61 8e 8d bd
       0.3694466 0.0015421087 0.4661222 -0.06911922
000080 56 e7 b8 bc 90 cb 49 be c5 cf 5b 3e ff da 9d 3d
       -0.022571247 -0.19706559 0.21465977 0.07707786
000090 c7 d5 d8 3d 2a 30 64 3e c1 43 92 3e 30 2c 18 3e
       0.1058765 0.22283998 0.28567317 0.14860606
0000a0 a0 ce be 3e 63 13 07 bc c7 4d 40 be 2d f7 92 3d
       0.37267017 -0.008244368 -0.1877967 0.07176051
0000b0 51 c8 09 3e 38 e9 1b 3e 46 4b 00 3e df 23 23 3d
       0.13455321 0.15225685 0.12528715 0.03982913
0000c0 1b d2 ac bd 87 8d 30 bd b5 31 97 3e 0d 48 25 3e
       -0.08438512 -0.04310372 0.2953011 0.16140766
0000d0 3f e8 b1 3e 9c 29 8e 3c 22 5b 09 be 2b 40 cd 3d
       0.34747502 0.017353825 -0.1341367 0.10022005
0000e0 7e eb 0a bd f8 7e 90 3e 58 c8 43 be a7 4c f3 3d
       -0.03391599 0.2822187 -0.19119394 0.11879855
0000f0 90 a7 a7 bd f6 62 1b 3e 53 ff 53 bd fc fa 81 bd
       -0.08186257 0.1517447 -0.051757168 -0.063466996
000100 c2 f1 c7 be 2d ac 33 be 36 dc 96 3d de 64 b7 3e
       -0.39051634 -0.17546149 0.07366221 0.35819143
000110 d5 f4 78 be 24 cd a2 bd 66 9a b7 3d e9 a8 99 3d
       -0.24312146 -0.07949284 0.08964996 0.0750292
000120 0f 03 c5 3d 00 36 6b bd e0 c2 75 be 78 0f 2f 3c
       0.09619724 -0.057424545 -0.2400012 0.01068484
000130 ae 3f 57 be d7 cd 3c 3e 3b 7c 0d 3e 46 fd e4 3d
       -0.21020386 0.18437897 0.13816921 0.111811206
000140 cb 5c 84 bd 00 ea 30 3e 3b 8c 12 be ff f6 a3 be
       -0.06463011 0.17276764 -0.14311306 -0.3202438
000150 4d d2 d7 3d c5 c6 0b be af 20 ef bd c9 44 6d be
       0.105381586 -0.13650043 -0.11676156 -0.2317077
000160 8e a4 85 3b 65 9c 94 bc 74 81 2b 3f 81 40 6d be
       0.0040784543 -0.018140981 0.66994405 -0.23169138
000170 53 7a 73 bd ef ff ac 3e 0a c4 ae bc 33 7c 2e 3e
       -0.05944283 0.33789012 -0.021333713 0.17039566
000180 15 50 82 3c a1 cf 42 bc c7 be 26 be 36 6d ad 3e
       0.015907327 -0.011890323 -0.16283713 0.33872384
000190 59 24 53 bd 9b 36 9d 3c c0 f0 fe 3d 3b 43 c6 be
       -0.051548336 0.019191077 0.12448263 -0.38723168
0001a0 2e fd 53 3d 25 d1 ba 3e 79 7d 24 3e 28 b4 7c 3e
       0.051755123 0.3648769 0.16063489 0.24678099
0001b0 23 02 6d bd be 34 6c 3c e7 dd ad be 47 0d 51 be
       -0.057863366 0.014416872 -0.3395836 -0.20415221
0001c0 43 41 47 3d 12 01 14 3e ea 45 51 be fd 86 b6 3e
       0.048646223 0.14453533 -0.20436826 0.35649863
0001d0 9d 1a a2 bd 10 69 13 3f 2e aa de 3e 14 c5 30 3d
       -0.07915232 0.5758219 0.43489212 0.0431567
0001e0 17 f7 02 3e c9 35 03 3d 6a 5a 45 3e d9 41 60 bd
       0.1278957 0.032033715 0.19272771 -0.054750297
0001f0 28 6d 4f 3e 2e 95 a0 3d 23 61 0a be 74 e6 bf bd
       0.20256484 0.07840954 -0.13513617 -0.09370127
000200 ac d7 59 3e 5f 5f 9c 3d a3 b3 6c be 92 aa 10 bf
       0.21273679 0.07635378 -0.23115401 -0.5651027
000210 22 c7 3a 3e 8a 77 d6 be 5e a7 35 be 16 7f 25 3e
       0.18240026 -0.41888076 -0.17739627 0.1616176
000220 aa 14 91 be fb 6e 77 be ae 20 96 3d d5 60 6d be
       -0.28336078 -0.2416343 0.07330452 -0.2318147
000230 b1 e8 8d be f6 e4 47 bd e3 03 d7 bd 22 3e ba 3c
       -0.27716592 -0.04880234 -0.10498788 0.022734705
000240 71 b0 80 bd 8b 4f 1a be a0 5f de 3e 16 97 0d 3e
       -0.062836535 -0.15069406 0.4343233 0.13827166
000250 21 b4 82 be ad b8 3b bd 3b 43 8f 3d e7 ea 2e be
       -0.25528052 -0.045830417 0.06995245 -0.17081796
000260 75 df 5c 3e e8 0c f5 3d 40 04 4a 3e fc d3 0f 3e
       0.21569617 0.11965352 0.19728184 0.1404571
000270 81 07 73 3e 3f 9f c1 3e 17 88 69 be b0 48 35 be
       0.23733331 0.37816808 -0.2280582 -0.1770351
000280 79 73 c9 bd e7 22 90 3e e4 7f 19 3e ed c8 2c 3e
       -0.09836478 0.28151628 0.14990193 0.16873522
000290 41 5e 74 bd 27 0b 01 3e c5 a8 0b be 4a b8 ee 3e
       -0.0596602 0.1260191 -0.13638599 0.46624976
0002a0 b9 74 ae be af 7f 8f 3e f8 8e 98 bd 5d 1f 70 be
       -0.34073427 0.28027102 -0.07449144 -0.23449464
0002b0 db 35 92 3e d4 94 f4 bd 38 12 53 3e 23 2a 89 3c
       0.28556713 -0.11942449 0.20612419 0.016743725
0002c0 e3 b0 af 3e 82 82 84 3e 82 03 50 3e f7 97 3b 3e
       0.3431464 0.2588082 0.20313838 0.18319689
0002d0 e5 d7 fb bd 9a cf 57 3e 70 b6 26 3e 06 9b 84 be
       -0.12297038 0.21075287 0.16280532 -0.25899523
0002e0 53 e5 9a 3e f0 20 a3 39 4d b4 d1 3d 25 06 38 3e
       0.30253085 0.00031114323 0.10239468 0.17971094
0002f0 79 fe f5 bd c7 01 ab bd a6 03 2d 3e 2b de 0f bf
       -0.120114274 -0.083499484 0.16895923 -0.56198376
000300 1a f4 7b 3e 7e 14 14 be 18 6a 21 be 05 90 2c 3e
       0.24604836 -0.14460942 -0.15763128 0.16851814
000310 63 e6 c6 bd b3 35 83 be c3 68 13 3d 50 96 aa bb
       -0.097119115 -0.25626907 0.03598858 -0.005205907
000320 8a 99 aa be c5 a8 75 be 75 ec ac 3e 55 aa d2 3c
       -0.33320266 -0.23990162 0.33774152 0.025715986
000330 28 e0 48 be b7 de 07 3e 04 05 96 3d d6 09 6b 3d
       -0.19616759 0.13268553 0.073251754 0.057382427
000340 8b 3d 42 bd c1 94 92 3e dc b5 6a 3e bd 28 c6 bd
       -0.047421973 0.28629115 0.22920936 -0.09675739
000350 9d 20 94 3d 5c 92 56 be 0d f2 11 be 41 91 f4 3d
       0.07232783 -0.20954269 -0.14252491 0.119417675
000360 2b 59 20 be 67 19 d6 3e ef 50 99 3d 93 74 35 3e
       -0.15659015 0.41816255 0.0748614 0.17720251
000370 6a 99 0b be 97 6f 57 3e 6f 39 4f 3e ed d5 af bd
       -0.13632742 0.21038662 0.20236753 -0.08585725
000380 92 94 fc bd fe 78 50 3d 94 ae ca bd 40 ce 0b be
       -0.12333025 0.050896637 -0.098965794 -0.13652897
000390 42 9c b7 3d 8b 79 a7 bc 1c 6a f2 3d 56 2f 5c 3d
       0.08965351 -0.020443698 0.11836645 0.05375608
0003a0 49 4f 38 bd 1d e8 c2 3d 66 41 f9 bd 49 b5 6a 3e
       -0.044997487 0.09516928 -0.12170677 0.22920717
0003b0 fe b1 87 be 04 36 9c be ad 04 bf 3d 00 2e 11 3f
       -0.26502985 -0.3050996 0.09327064 0.56710815
0003c0 f7 72 93 3d 97 35 0d be 42 8a e3 bc 57 d7 18 bd
       0.07199662 -0.13789974 -0.027775887 -0.03731474
0003d0 0d 3f 07 3d b9 37 1c be ce f7 ce bd ad dc 0f be
       0.033019114 -0.15255632 -0.10105859 -0.14049025
0003e0 83 ca 4c 3e 38 96 a2 3c 10 bf 52 be 00 79 e8 3d
       0.19999127 0.01984702 -0.20580697 0.11351204
0003f0 c6 e4 bb bd 73 bb fe 3d 2f 8a 90 bc 5e f0 f9 3d
       -0.091744944 0.12438097 -0.017644016 0.122040495

exp_avg f4 [64, 14]
000000 7d 57 1a be e6 20 a6 bd 6c 9f 07 3e 97 2f 77 3d
       -0.15072437 -0.08111744 0.13244408 0.06034812
000010 70 0f d3 3a 18 04 89 ba ac d9 1f 3b bc 1a 3e 3d
       0.0016102623 -0.001045349 0.0024391217 0.046412215
000020 7e 9e 8b 3d be 2f 95 3b 7d 7e c0 3c bb d0 85 3c
       0.06817339 0.0045528105 0.023497814 0.016334882
000030 3d a4 44 3d 12 a3 96 bb ed a2 0c 3b 3a af d0 3d
       0.048008192 -0.004597076 0.0021459416 0.10189672
000040 91 ff 41 3b f0 a4 39 bd 67 5e 1b bb 9e fe ae 3a
       0.0029601792 -0.045323312 -0.0023707391 0.0013351028
000050 2e 21 6c bb 09 ef 8b bd 41 7c bf bd c8 ac c8 bb
       -0.0036030519 -0.06832702 -0.093498714 -0.0061241128
000060 91 52 ec bc cf d4 b8 bc a4 82 81 bd 19 53 cc 3a
       -0.028847964 -0.022562413 -0.06323746 0.001558873
000070 4f 63 57 bd 90 22 7a bd fc 9e d0 3d 29 a3 5a 3d
       -0.052584942 -0.061068118 0.10186574 0.053378258
000080 7d 8c 97 3a 85 ae 53 ba d9 ae ef 3a 29 e5 0e 3d
       0.0011562255 -0.00080750167 0.0018286362 0.034886513
000090 8a 4a 61 3d 16 f7 6d 3b 51 5b a8 3c 09 22 55 3c
       0.055002727 0.0036310605 0.020551356 0.013008603
0000a0 0c b5 23 3d de df 8f bb 7d 78 0a bd ce f0 d2 3c
       0.03996758 -0.0043907007 -0.033806313 0.02574959
0000b0 05 b2 92 3c 73 39 3e 3c f6 74 03 ba 9b a1 82 39
       0.017907152 0.011610377 -0.0005014682 0.00024915938
0000c0 dc d7 4d ba 60 f5 80 bc 3f f8 99 bc b7 6a 93 ba
       -0.0007852295 -0.015742004 -0.01879513 -0.0011247013
0000d0 d6 1c 85 bb 27 bb 95 bb 54 32 42 bc c3 f7 3b 3b
       -0.0040622754 -0.0045694294 -0.0118528195 0.0028681613
0000e0 1b e4 79 b9 30 54 38 3c 25 e7 06 3c 5e a6 18 3b
       -0.00023831466 0.011250541 0.00823382 0.0023292522
0000f0 af 16 eb b8 df 5c f1 38 a1 d7 36 b9 35 46 7d bb
       -0.000112098984 0.00011509074 -0.000174372 -0.0038646583
000100 c8 b0 32 3a a1 5a 17 38 8d 28 28 3b 49 c6 05 b9
       0.00068165036 3.608561e-05 0.0025658936 -0.00012757735
000110 2e 46 1f 3b e3 cb ad 3b 4c ea b5 3c e2 b8 35 bc
       0.0024303305 0.005303846 0.022206448 -0.011091443
000120 aa a7 b5 3c 9a 42 8b bb 9a bb cd 38 87 8b 23 b9
       0.022174675 -0.004249883 9.810105e-05 -0.0001559687
000130 03 7d 5d 39 1b 65 63 3b 4c 9a a9 3b 37 9f a4 39
       0.00021122773 0.0034697715 0.0051758643 0.00031399142
000140 8a 1c c9 3a eb 10 9e 3a fa a2 88 3b da 17 0a bc
       0.0015343588 0.0012059485 0.004169819 -0.008428538
000150 4b a0 91 bd 14 d9 f8 ba b5 44 42 3d 66 c7 d5 3c
       -0.071106516 -0.0018985593 0.047428805 0.026096057
000160 fa 78 00 b9 fe 15 f9 b7 c9 10 c3 b9 7e 82 f6 bb
       -0.00012252099 -2.9693354e-05 -0.00037205804 -0.00752288
000170 59 91 90 ba 2b fc 87 b8 4b 64 56 3b 4f 98 31 ba
       -0.0011029645 -6.4842716e-05 0.0032713588 -0.000677471
000180 ca 0b 0c 3b 87 62 3c 3b 8a 4a 4e be fa 10 0c be
       0.0021369332 0.002874525 -0.20145622 -0.13678351
000190 94 b1 1f 3e 13 05 b1 3d bc 6a 45 3b 43 63 e9 ba
       0.15595084 0.08643546 0.0030123433 -0.0017806072
0001a0 eb f6 91 3b 2d fd ae 3d ad b1 eb 3d 9e 0c fd 3b
       0.0044544837 0.08544383 0.11508498 0.0077224514
0001b0 de 84 13 3d dc bd e5 3c 45 65 9f 3d 71 27 80 bb
       0.036015384 0.028044634 0.077829875 -0.003910952
0001c0 8a b4 4c 3d be de a3 3c ba da 85 3c ae a2 9f bb
       0.049976863 0.020003673 0.016339649 -0.004871688
0001d0 a6 b6 94 35 9c bd a3 36 04 7a 15 39 cc 2d 54 bb
       1.1080017e-06 4.879852e-06 0.00014255202 -0.003237593
0001e0 ca 8e ba 37 cf f2 de 38 0e 8d f7 3a b2 43 1e b9
       2.223942e-05 0.000106310115 0.0018886642 -0.00015093273
0001f0 83 50 42 3b 3b bf a8 3b 83 d0 b7 bd 31 36 79 bd
       0.002965004 0.0051497496 -0.08975317 -0.060842697
000200 af 84 0f 3b 73 74 12 3d 1b f1 c3 3a 42 68 56 ba
       0.0021899154 0.035755586 0.0014949174 -0.0008178988
000210 6a 6a 0b 3b 0b 76 23 3d 0f 72 58 3d 47 1e 6a 3b
       0.0021273145 0.039907496 0.05284315 0.0035723613
000220 0c 97 81 3c fd ba 53 3c 0c 15 13 3d a2 42 23 3a
       0.015819095 0.012922999 0.035908744 0.00062278856
000230 09 f7 e0 bb 3c 38 76 bc ab 25 c0 bd b0 43 06 bd
       -0.0068653864 -0.015028056 -0.093821846 -0.032779396
000240 56 09 01 3a b1 f4 28 b9 39 17 25 3a 1a 69 33 3c
       0.00049223506 -0.00016112883 0.0006297711 0.010950351
000250 2d c7 2d bc 04 95 20 ba c2 00 61 bc 4e 63 b4 ba
       -0.010606569 -0.00061257207 -0.013733091 -0.0013762505
000260 53 fd 86 bc 13 6e ee 38 05 1f aa 3c 87 78 6e bb
       -0.016478216 0.00011369227 0.020766744 -0.0036387758
000270 00 45 96 3d 7f 2d d5 3c 8a 16 41 36 10 d1 01 b8
       0.073373795 0.02602267 2.877236e-06 -3.09507e-05
000280 31 33 de b7 85 ea 4a b9 c1 f5 83 3c 0d 8e 80 3a
       -2.64883e-05 -0.00019351587 0.016108396 0.000980796
000290 c2 a4 3a 3c 92 22 4a 3b 04 6f 80 3c c8 4b eb 3b
       0.01139182 0.003084336 0.015677936 0.0071806647
0002a0 7f a8 28 3d 7d 03 87 b9 cb f7 d4 bc 47 f5 c7 3c
       0.041176315 -0.00025751806 -0.025997063 0.02440895
0002b0 c6 92 f9 b8 ac e7 e3 b7 b3 f7 96 b9 4d 83 86 bb
       -0.00011900584 -2.716839e-05 -0.0002879478 -0.0041050077
0002c0 ba bf 8f 3c 82 bb 9b 3a f2 0f 78 3c 89 f4 4d 3b
       0.017547477 0.0011881443 0.01514052 0.0031426272
0002d0 07 bb 89 3c fe 16 7e 3c aa 50 3e bd f4 71 27 bd
       0.016812814 0.015508411 -0.046463646 -0.04088016
0002e0 49 00 53 3d be ec 32 3d 70 7a 60 3a 0b 7c 0c ba
       0.051513944 0.043682806 0.00085631665 -0.000535906
0002f0 e4 a1 b0 3a cc 58 d3 3c fc 64 30 3d a7 ee 3b 3b
       0.0013475982 0.025799178 0.043065056 0.0028676183
000300 c5 52 8c 3c 81 94 25 3c c0 20 02 3d 37 8e 6e 3a
       0.017129311 0.010106207 0.031769514 0.0009100171
000310 cd 6f f0 3c 15 d1 6d 3c 3a 4d 5c 3c 2b 86 c7 bb
       0.029350186 0.014515181 0.013446147 -0.006088992
000320 99 76 d4 37 29 f6 be 38 fc 8e 15 37 bb d0 c0 ba
       2.5327596e-05 9.105757e-05 8.914383e-06 -0.0014710644
000330 8e d0 56 bb 13 ce 16 b9 70 66 b3 ba 8b f3 3e ba
       -0.0032778117 -0.00014381883 -0.0013687145 -0.00072842155
000340 91 2a 3f bb 66 c8 ae 3b 4f b3 a1 bb 1a f7 9e bc
       -0.0029169659 0.005333948 -0.0049347053 -0.019404937
000350 d7 2a 78 3d c6 e7 54 bb f3 bd fc 39 bc 68 a8 b9
       0.06058773 -0.003248678 0.0004820671 -0.0003212149
000360 39 e7 75 3a 12 2a 73 3c f1 fa bc 3c a5 df c7 3a
       0.0009380463 0.014841573 0.023068877 0.0015249146
000370 c3 40 02 3c 0d 6a b2 3b 0c 5f 91 3c 48 f1 96 bb
       0.007950011 0.005444771 0.017745517 -0.0046063997
000380 4e 21 1f bd 98 05 7a 3d 71 d9 3d 3d 63 10 6b bc
       -0.03885012 0.06104049 0.046349946 -0.014347169
000390 d4 39 90 ba e3 2f 39 3a 74 a5 e9 ba 63 27 10 bd
       -0.0011003562 0.00070643256 -0.0017825798 -0.035193812
0003a0 73 20 51 bd 14 e9 52 bb 30 e5 86 bc 0d 0f 46 bc
       -0.051056337 -0.0032182382 -0.016466707 -0.012088549
0003b0 ff 47 10 bd 66 1c d1 3b f7 dd fc bd 44 a5 af bd
       -0.03522491 0.006381559 -0.12347024 -0.08576444
0003c0 0d cd b4 bd d4 42 c8 bb 4b 39 dc 3a 9c 57 5b ba
       -0.08828173 -0.006111482 0.0016801743 -0.0008367242
0003d0 09 11 0a 3b 58 7d 3b 3d 36 ee 4d 3d 43 6b 4d 3b
       0.0021067283 0.045773834 0.050276004 0.003134445
0003e0 43 fb 1d 3c 53 84 4d 3c 73 13 ed 3c 46 a6 15 bc
       0.009642425 0.012543756 0.028939938 -0.009133881
0003f0 2b a5 53 bd b4 db 0e bc e6 50 64 3c 42 b5 24 bc
       -0.05167119 -0.0087193735 0.013935303 -0.010052981
