notebooks/lightning_logs/version_53551072/checkpoints/epoch=99-step=100.ckpt (torch, 225727 bytes, 18 tensors)

model._encoder.weight f4 [64, 14]
00000000: 2890 613d 8427 803e b913 e43e 3808 80be
00000010: ac03 debd 6ff5 20be 9c09 423e ef06 aabe
00000020: 1b64 a6bd cf89 9dbe bebf 12bd ace0 aa3e
00000030: d608 41be 2912 7f3e 73e7 c73d 6813 97be
00000040: 9149 363e 084c bf3e aa71 f83e 3b64 653e
00000050: 5112 d5be 02fc 20bd 7e33 0a3e c339 12bf
00000060: 77f1 42be 4464 bcbe 71d1 5b3d 3302 a1be
00000070: bcf3 d0bc 93cd 403e 0452 1f3f 0046 5abe
00000080: 8516 1d3f 85d1 6bbd 74a8 a3be 6d35 003e
00000090: 07c5 3f3f 5dfc f2bd c787 49be 60ff 263e
000000a0: 7139 35be 4caa ebbd e9e6 d0bd 7a53 abbe
000000b0: 70e9 80be 777e 88bb c3be 9cbe f6b6 3e3e
000000c0: 1b8f ed3e 6848 09bf cf1c 0dbd 4208 57be
000000d0: 2d55 ae3e 93ed a83d 65b0 4a3d 811f cabc
000000e0: 4969 5dbe 970f 92bd ec3d 863e c276 e93e
000000f0: 4ba0 1c3d 5dca b8bd 2e33 f3bd 032c 933d
00000100: aacc 06bd 7da0 0bbe cf6a 033f 72db 98be
00000110: ff21 bebd 6acb 8dbe 2f8e 70bd 41d0 ac3d
00000120: 8453 15bf 690a a1bd eda5 04bd ebf8 2cbe
00000130: 1aa9 973c 6167 80bd 637d 64bd 5b4b 433e
00000140: b5fd 243e bddf 5bbe c19f a63e 6a3b 4a3e
00000150: b0e7 233e 20cc 38be 3d79 283d 9881 c1be
00000160: ad5c 0dbf 0963 3a3d ee76 16bd 6575 193e
00000170: 672a ae3e 413a 713e 0bbf 073e 93f9 36be
00000180: ea32 53bf 9576 003e c2d8 543b b294 0c3f
00000190: 953f 463e 39b0 eabd f55d a63e 5112 b4be
000001a0: 137a 423e d66b 72be 8bf3 0c3f 9acc 38bd
000001b0: ca1a 0fbe a152 d2be 1dcc bd3c 8174 dfbd
000001c0: d4e9 acbd d2a0 84be 5848 96bd e3a3 b93e
000001d0: 249d c93e cc5e 2e3e 6be5 1fbe a9e3 9fbd
000001e0: 6704 04bf ef37 683d c8e2 523d f6ef 6c3e
000001f0: cf3b cb3c ed6f 5c3b 9121 e23e a669 493e
00000200: a174 613e e425 c23d d0b3 ff3e 9505 343e
00000210: 79d7 ac3e d10c d23e e053 e33e 5915 343e
00000220: 8384 80bd 19ad a63e baa2 803e 41c2 f1bd
00000230: 2c13 2f3f b9e8 fe3c 6aa1 2b3e 1241 213e
00000240: d3be ad3e 9b41 5cbe 15a9 933d b209 d83c
00000250: d9a5 183d 39ab a1be 5365 483c bd53 34bc
00000260: fdba 5a3e d21b 53be a82c 68be a770 84be
00000270: b8e4 223e 163e 18bd c0b8 6bba 96e2 f63e
00000280: f3e1 92bd a6d0 543e f27f 8abd 85f8 1cbc
00000290: e852 99bc 9905 f1bd e82a 7cbe 56ea 90bd
000002a0: d6ef 12bf 7067 49bd 99b8 413d 995b 0ebe
000002b0: bd1d f4bd d143 b6be b25f 8a3d 580a a23e
000002c0: d5a5 a5be b1ba 26be f775 f1be 5bb1 8d3d
000002d0: 5d8c bbbe 4b8e 193e bd9f e53c d37b 6c3d
000002e0: 0c5c f43d ac33 c5bd 4975 26be fe5d edbc
000002f0: cdc8 e7bc e67e b33e e322 be3e 66e0 213d
00000300: 85ec fcbd ad47 c2be 8aeb 1d3e c7e1 943e
00000310: b123 d3bc c082 b43d e49d ddbd 87b2 3f3e
00000320: 93b7 2cbe 36d5 173d f2a1 47bd 0d8a 8cbe
00000330: d1ef 6f3b 16ba 49bf e286 90be aa40 fc3d
00000340: 00ec c1be 5e9e d9be 9c4b d4bd 3538 f43d
00000350: 994d 82be 5958 183e 3959 79bd 0dad 7a3e
00000360: 47d5 013d 3eac 0c3e da7f 8d3c 19e2 e9bb
00000370: 691f 543e 6736 a13e 4a87 20bf 46f7 62be
00000380: 5629 663e eb43 48be 887b 213e 460e 733c
00000390: 9e74 05bd 06b0 1f3f 4f5d 5bbb 7a95 5fbe
000003a0: 4981 c53e 9b3a abbd 4db1 363d 956b 0d3e
000003b0: d60b bebd cf51 2bbe 01a9 4a3e 3208 f43e
000003c0: fd72 f4bd ee19 06be d000 1dbe ec20 fe3d
000003d0: 2b57 403d 9b43 b1bd a01a fcbc 8d06 e13e
000003e0: 3474 80bd 6a51 f83e 5238 4ebd 6564 0a3e
000003f0: 2404 b13b a45f 973e a654 78be 3898 c83c
0.05506912 0.25030148 0.44546297 -0.2500627 -0.10840544 -0.15718625 0.18948978 -0.33208415
-0.08124562 -0.30769202 -0.03582739 0.33374536 -0.18851027 0.24909271 0.09760942 -0.29506993
0.17801501 0.37362695 0.4852422 0.22401516 -0.41615537 -0.039302833 0.13496205 -0.5711939
-0.19037424 -0.36795247 0.053666536 -0.3144699 -0.025506847 0.1882842 0.6223452 -0.21315765
0.6136249 -0.05757286 -0.31964457 0.1252038 0.74910015 -0.11864541 -0.19680701 0.16308355
-0.17697693 -0.11507091 -0.102002926 -0.33462125 -0.251781 -0.0041654664 -0.3061429 0.18624482
0.46398243 -0.5362611 -0.034451302 -0.20999244 0.3404936 0.08248439 0.04948463 -0.024673225
-0.21622194 -0.0713188 0.26219118 0.45598418 0.038238805 -0.09022973 -0.11874996 0.07186129
-0.032910027 -0.1363544 0.5133485 -0.29854923 -0.09283828 -0.27694255 -0.058729347 0.08438159
-0.5833056 -0.07863314 -0.0323848 -0.1689183 0.018513251 -0.06269718 -0.05578364 0.19071715
0.16112407 -0.21472068 0.32543758 0.19749227 0.1600635 -0.18046618 0.041131247 -0.37794185
-0.55219537 0.045504604 -0.036734514 0.14986189 0.34016725 0.23557378 0.13256471 -0.17868643
-0.82499564 0.12545235 0.003247783 0.5491439 0.19360192 -0.11459393 0.3249356 -0.35170224
0.1899188 -0.23673949 0.5505912 -0.045117 -0.13975063 -0.41078666 0.023168618 -0.10910893
-0.08443037 -0.25903946 -0.07338017 0.36257848 0.393777 0.1702835 -0.1561486 -0.078070946
-0.5156922 0.056693967 0.051485807 0.23138413 0.024808792 0.003363605 0.44166234 0.19669208
0.22017147 0.09479883 0.49941874 0.17580254 0.33758143 0.41025403 0.4439993 0.17586268
-0.062752746 0.32553938 0.2512415 -0.11804629 0.6838863 0.03111683 0.16760793 0.15747479
0.3393465 -0.21509402 0.07209984 0.02637181 0.03726754 -0.31575945 0.012231189 -0.011006293
0.21360393 -0.20616081 -0.22673285 -0.25867197 0.15907562 -0.037168585 -0.00089920685 0.48219746
-0.07172003 0.20782718 -0.06762685 -0.009580736 -0.01871629 -0.11768646 -0.24625742 -0.07075946
-0.5739721 -0.04917091 0.047295187 -0.13902129 -0.119197346 -0.35598615 0.06756534 0.31648517
-0.32353082 -0.16282155 -0.47160313 0.069185935 -0.36630526 0.14995687 0.02803027 0.057735275
0.11931619 -0.09628996 -0.16255678 -0.028975483 -0.028293991 0.35057753 0.3713599 0.039520644
-0.123498 -0.3794531 0.15421882 0.29078504 -0.025773855 0.08814001 -0.10821131 0.18720447
-0.16866903 0.03706857 -0.048738427 -0.27449074 0.0036611448 -0.7879957 -0.28227907 0.12317021
-0.37875366 -0.42503637 -0.10365984 0.11924783 -0.25449827 0.14877452 -0.060876105 0.24480076
0.031697538 0.1373758 0.017272878 -0.0071375486 0.20715107 0.31486818 -0.62706435 -0.2216464
0.22476706 -0.19557159 0.1576978 0.014834946 -0.032581918 0.62377965 -0.0033472364 -0.21834365
0.385752 -0.083607875 0.04460268 0.1381057 -0.09279601 -0.16730426 0.19791032 0.47662503
-0.11935995 -0.13095829 -0.15332341 0.12408623 0.04695813 -0.08655473 -0.030774415 0.4395031
-0.06272164 0.48499614 -0.05034668 0.1351486 0.005402105 0.29565156 -0.24251041 0.024486646

model._decoder.weight f4 [8, 64]
00000000: f846 d33d 2a2a 48bb 3d83 d33e 4b08 9d3d
00000010: 7920 813d bd0f f23d fd60 e9bb 93e4 0bbe
00000020: 0442 213d 9ee6 eabe 0323 24be cfc7 803d
00000030: 2ccd 9fbd aa96 0a3e 231a 70be 86d3 0e3e
00000040: 2ef3 58be 44b2 803d 3d50 96bd 0fe3 7a3d
00000050: b519 253e 24c7 6e3e 3f5f 8fbb f670 18be
00000060: c723 ddbd 77a0 2abe e193 e93d b5b5 cbbd
00000070: 2813 de3d 20d3 2abd 3cd0 86be e433 c03d
00000080: ecae 9cbe 507b afbe bd87 a7bc ded9 82bd
00000090: a932 9d3e 0c2b b33d d6a9 79bd 5842 833d
000000a0: 733a d7bd 2ac7 003c 6456 bdbe 13e2 a8bd
000000b0: e83a 19bc 960d 093e ce8a 25be a3ca 96be
000000c0: 7e4f 853b 37ad ea3d bc71 83bc ef04 f73d
000000d0: ca76 0ebd ef2d 14bc 356e b33d 7497 7a3e
000000e0: ec85 85bc 6b62 c03b c2d7 db3d 682d eb3d
000000f0: af94 3d3e 7035 19bc 7120 02be 324d d13d
00000100: 133f 95bd 64e7 2fbe ab3a 5a3e d86b 913e
00000110: 6ae0 143e dbc6 24be 01dc 2c3c 20d2 893e
00000120: 3966 09be 5e3f 4b3e 743e 12be 8ea2 073e
00000130: 06fa 52be 7f1c 993e 96b1 03bd eeea 96bd
00000140: be44 ac3d da32 f0bd 640d 213e 5a7e 16bd
00000150: 407f 1abe 33ae 933e 0500 bd3e 297d f03c
00000160: b3b9 ba3e 6749 1a3d 1a36 363d 2c33 853e
00000170: a8b0 8cbd 5adb 99be 4870 e43d 1621 a3be
00000180: 47c7 683e 1820 333e d5c9 dc3e 25c0 a9be
00000190: b972 573e 7b12 013e a04d 78be 3e9f dd3d
000001a0: 742d eb3c c422 2ebe 6c3c abbe 2ceb 60bd
000001b0: a56b cdbd c249 583d 1e20 293e 4d9a bdbd
000001c0: 5405 74be 1380 afbe 502a 52be 8a84 78bd
000001d0: 89b7 963d 33e9 8bbe 5bec 0dbb 55a9 ea3b
000001e0: 685f db3e 28b8 80be 199e cd3d 350a b8bd
000001f0: a292 d93d 59e4 813e 2178 15bc 079f 023e
00000200: 5a60 653e c1f2 88be d11a 963d 41f2 873d
00000210: 3618 2c3e 552b cfbe 2e88 35be 965f 1ebe
00000220: cca3 aabd aecc 713a 6252 193d f862 463e
00000230: 4943 a4be 9c9e e3bc 37e9 10bc 1cda 24be
00000240: 1380 943e f263 e3bd 9aa5 05be 17e2 98ba
00000250: 11c4 12bd 2013 febd 8258 fd3d 89c1 8abe
00000260: 281e 96be 1738 9b3d 7cf0 89be 1ccb a9bd
00000270: 56e2 3b3e f660 b6bc cc13 a7be 19eb 06be
00000280: de88 c53d acaa 83bd fa3d 32be 14a1 97be
00000290: a944 a33e 96d6 cd3d 0f85 3cbc 6d4f b1bc
000002a0: 30a6 eebc 9a69 6a3d 6fdf 6cbd 9f38 9f3e
000002b0: ecb6 9abd 69ab 5fbe 2937 083e 6134 75bd
000002c0: 66f5 babc fdd5 afbe 18fb 0ebe 15e3 0fbe
000002d0: 63df 553e ec46 4b3d 29ba 233e f413 1b3e
000002e0: 5b3d e83c d78d c8bd 2c88 c33c 9000 8f3d
000002f0: 0a1d 8fbe 86f8 13be 1c9b 843e 411c 55be
00000300: 5001 d0bd 9571 09be e737 aa3c e035 02be
00000310: 7a01 1fbe db37 0e3e 6349 643e c176 dc3b
00000320: 55e7 a13d 12a3 4b3c 4d0e 6abe 9cb6 51be
00000330: e0fe 64be a833 70be 09a6 b1bd 419b 60bd
00000340: 99d6 d3be 0fb2 8abd 7e73 1f3e 7372 f93e
00000350: a5c4 4e3e 2a5b a63d df36 5ebe 5b3f 21bc
00000360: 9c15 18be e110 77be 5934 0c3e e1a5 6ebd
00000370: f942 4c3e 6fed 0d3d dc2b 1e3e 2041 edbd
00000380: 9723 5ebe bea7 333c c67d 5c3e db38 bfbe
00000390: 0292 153d 3e7a d73d d2b5 883e a6be 24be
000003a0: 6608 42be a743 043e a6b4 1d3d 6b51 f23e
000003b0: 5b7a 9abe 6e82 d9bc 436e 033e a479 cbbd
000003c0: bafb 803e 76ea 843d 8eac 843e a745 02bc
000003d0: 83b8 df3d 7344 08be 2f46 06be 51ff 173e
000003e0: 5cb9 73be 5250 e43d fc61 febd 11fb 41be
000003f0: bab5 c93e 2db1 4e3d 3141 d13d e54b d9bd
0.103162706 -0.003054271 0.41311064 0.076675974 0.06305022 0.11819408 -0.0071221576 -0.13661413
0.039369598 -0.45879072 -0.16028981 0.062881105 -0.07802805 0.13534036 -0.2344747 0.13947877
-0.21186516 0.062840015 -0.07339523 0.061251696 0.16123088 0.23318154 -0.004375368 -0.14886841
-0.107978396 -0.16662775 0.11405159 -0.09946767 0.108434975 -0.04170525 -0.26330745 0.09384897
-0.30602205 -0.34273767 -0.020450467 -0.06389211 0.30702713 0.08748445 -0.060952984 0.064091384
-0.10509195 0.007859984 -0.36979973 -0.08246245 -0.009352423 0.13384089 -0.16166231 -0.29451475
0.004068314 0.11458819 -0.016045444 0.12061488 -0.034781255 -0.009044155 0.08761255 0.24471837
-0.01629921 0.0058711073 0.10734512 0.1148327 0.1851375 -0.009351119 -0.12707688 0.10219802
-0.07287421 -0.17178112 0.21311443 0.2840259 0.14538732 -0.16091482 0.0105505 0.26918125
-0.13417901 0.19848391 -0.14281636 0.13245603 -0.20603189 0.29904553 -0.03215178 -0.07369028
0.08411549 -0.11728449 0.15727764 -0.036741592 -0.15087605 0.2884384 0.36914077 0.029356556
0.36469802 0.03766766 0.04448519 0.26015604 -0.06869632 -0.30050164 0.111542284 -0.3186118
0.22732268 0.17492712 0.43122736 -0.33154407 0.21039857 0.12604706 -0.24248362 0.10821389
0.028708197 -0.1700545 -0.33444536 -0.054911777 -0.10030297 0.052804716 0.16516158 -0.09257946
-0.23830158 -0.342774 -0.20523953 -0.060673274 0.07359225 -0.27326354 -0.0021655771 0.007161299
0.42846227 -0.251405 0.1003992 -0.08986322 0.10623671 0.25369528 -0.009122879 0.12755977
0.22400036 -0.26747707 0.073293336 0.06638003 0.1680611 -0.40462747 -0.1772773 -0.1546615
-0.08332023 0.000922392 0.037432082 0.19373691 -0.32082585 -0.027785592 -0.008844665 -0.16098827
0.29003963 -0.111030474 -0.13051453 -0.001166406 -0.035831515 -0.124059916 0.12370397 -0.2710078
-0.29319882 0.07579058 -0.26941288 -0.08290693 0.18348059 -0.022263031 -0.3263229 -0.1317562
0.09645246 -0.064290375 -0.17406455 -0.2961508 0.3188832 0.10050695 -0.011506333 -0.021644318
-0.029131979 0.057229616 -0.05783027 0.31097886 -0.07554421 -0.21842732 0.13302292 -0.059864406
-0.022822093 -0.34342948 -0.13962972 -0.14051469 0.20885997 0.049628183 0.15988983 0.1514433
0.028349569 -0.09792679 0.023868643 0.06982529 -0.27951843 -0.14450273 0.2589959 -0.2081156
-0.101565 -0.13422234 0.02077861 -0.12715864 -0.15527907 0.13888495 0.2229362 0.0067280238
0.07905451 0.012429016 -0.22857018 -0.20479816 -0.22362852 -0.23457205 -0.08674247 -0.05483556
-0.41374663 -0.06772243 0.155714 0.4872013 0.20192201 0.08122857 -0.21700619 -0.009841765
-0.14851993 -0.24127533 0.13691844 -0.058263663 0.19947423 0.034650262 0.15446419 -0.11584687
-0.21693264 0.010965286 0.21532354 -0.37348065 0.036516197 0.10521363 0.26701218 -0.16088352
-0.18948516 0.12916432 0.038502358 0.47327742 -0.30171475 -0.026551452 0.1283503 -0.099353105
0.25192052 0.064900324 0.259129 -0.007951177 0.10923865 -0.13307361 -0.1311271 0.14843489
-0.23801178 0.111481324 -0.12421033 -0.1894343 0.3939646 0.050461937 0.102175124 -0.10610179

model._layers.0.weight f4 [64, 64]
00000000: b755 83be c012 9abc 40ea d73c 09e2 a9bd
00000010: 9ba8 00bd 117e a7be 0ad6 3bbe aeaa 6f3c
00000020: f0a6 4d3e 3595 21be 00ad bb3c a3c9 9e3c
00000030: 1f4f c83d 1cce d9bd 4c74 8f3e 88d4 043d
00000040: 60d6 323e c05b 22be b170 45be 2099 903e
00000050: 4e32 eabc 5be0 18bc 5504 453d 3eb6 983d
00000060: be43 66be 18ad 6abe 3b8d b1bd 3a6c 793e
00000070: 97ef 1d3c 5494 2fbe adc0 e8bd 8c0a 983d
00000080: 0983 90be 080d 763e 0ccf 2f3d b956 d8bc
00000090: 46c5 c4bd 946e 773d 5150 f13d 975b f03d
000000a0: 01b9 09ba b36c c0be 2a5f aabd eacc c43e
000000b0: 2abe 8a3d 471a 6c3e 02cf 9c3c e724 75be
000000c0: 1853 f43d 60ee a03e 1072 9fbe 07a9 88bd
000000d0: acf7 533c a582 d8bd 55ea 97be fb16 d93e
000000e0: bb23 46be bfb8 643e 8633 89bd 32ea 893d
000000f0: 0d9c 8dbe 4327 06bd 9fbe 973d 38b8 023e
00000100: a7c5 e2bd 8409 70be fd7b d3be c8ac 8d3e
00000110: c4ec b5bd 1a21 3b3e 57e9 483e b875 3e3e
00000120: 754d a13d c03d 52be 9c96 f03d 6c68 a4be
00000130: 17c1 d53c 76f2 10be 5f1d 003e d6a3 b73d
00000140: ccca 6b3d f4cf a33e 9eee 63bd 97ae 00be
00000150: 2626 0f3e 5a4d 123d eba9 1a3d 6af1 90be
00000160: 433d 8e3d e3ea 21be 6974 9a3d d3a2 a8be
00000170: c394 2e3d 8d50 dfbd bfca 1abd 011e eabd
00000180: c31d bbbd b60c 93be 3824 593e c01a 03be
00000190: 5b0d 2c3e fad1 f7bd 3300 15bd 0116 bbbd
000001a0: 32cd d13b 7d63 353e d660 f9bc 89de 473e
000001b0: 79b1 9cbe 8a82 e13a be5d a1bd 8504 f03d
000001c0: 3613 313e 542b 84bd efc4 993d 2f09 64be
000001d0: c2d0 373e f84d ecbc bc92 223d 580c 103e
000001e0: 1103 2bbe 5f31 aa3e 9535 16be dc9e 17be
000001f0: da14 9ebc 3208 26be 7001 1bbe 1ef0 b73d
00000200: e141 6f3e 1167 25bc b08b 0dbc d87b 2ebd
00000210: d783 11be d1f0 2c3e 72eb eb3d 9c43 87be
00000220: 6289 fabd fcf2 373e e66f aabe 02d2 34be
00000230: 6328 e43c 97fc 863d 2f95 13be 1ee0 4f3e
00000240: 76af 1fbe af0b b23e e91e bf3b 1bee f53c
00000250: 47ca e9bd 0b37 403e ad17 28bd 7ef4 893e
00000260: e8fb c73d fbe6 103d d4fd 57be 6471 2e3e
00000270: 2f79 03be d697 72bc 1573 663e 36a0 953e
00000280: 1d09 89bd 0258 b7be 04eb e3bd 8a8f 273c
00000290: 4b3b b83e 4be8 25be 6f6f 663d 7558 c5bc
000002a0: c012 91be de30 8abe 524b 5c3e 89ea ea3d
000002b0: db4f e13d 7577 51bd fc5b 21bb c371 9cbd
000002c0: bfb8 babd 565a 0b3e ae66 5c3e 33e9 dabd
000002d0: e4f6 63bd 16db aabd d0a9 99be 4c13 c8bd
000002e0: 795c cc3e fd4d a63e 3a73 a3bd c1c0 b53e
000002f0: 5118 36be 5d97 b23e 9aea cdbd 2088 2cbe
00000300: 6784 2ebe 10f1 3dbd 5af8 7e3d d703 40bd
00000310: 871a 4dbd 50b5 9abd 6978 253c 2399 b7bd
00000320: ba2a a63d 7f03 e23c 65aa 86be 147b c73d
00000330: 3127 c1bd 1a1a 92bd a541 d63d ea21 b63b
00000340: 7815 d7bd b852 56bd e780 febb d682 50be
00000350: 67bc 54be 390e 1b3e f01b 0fbe 0e41 cbbe
00000360: f691 56bd 7d75 2abd 013b 423e e845 a13e
00000370: 6b81 5cbd 053e d73d 5595 713c b124 38bd
00000380: 6ce0 dbbd b9d4 8b3e 9386 3ebb 6bde ccbd
00000390: 96ce 46bd b437 34bd 3c3c 723e 925a 653e
000003a0: d708 07be be7b 0c3d 9cb7 3fbe cad5 aabe
000003b0: 155c ce3d 00b9 76be fc50 85bd 6333 82be
000003c0: a45a 193e f0a7 703e da4b bfbe 9a2e 89be
000003d0: 8707 1bbd a9f8 233e c29c 24be 7cce 0dbe
000003e0: 651f 20be ea6e ccbd 1dcf 5fbd 0d37 b6bd
000003f0: eb83 c9bc 1be2 d13d 3422 60bc 2a5e 923e
-0.25651333 -0.018807769 0.026356816 -0.08295066 -0.031410795 -0.3271337 -0.18343368 0.014628096
0.20083213 -0.15779574 0.022909641 0.019383257 0.09780716 -0.10635015 0.28018415 0.032429248
0.1746459 -0.15855312 -0.1928127 0.28241825 -0.02858844 -0.009330834 0.048099834 0.07456635
-0.22486779 -0.22917593 -0.08669516 0.24357691 0.009639642 -0.17146426 -0.11364875 0.07423887
-0.28224972 0.24028409 0.042922065 -0.02640854 -0.096079394 0.06040819 0.11782897 0.117362194
-0.0005253703 -0.3758293 -0.08318932 0.38437587 0.06774552 0.23056899 0.019141678 -0.23939858
0.119299114 0.31431866 -0.3114171 -0.066728644 0.012937468 -0.105717935 -0.2967097 0.42400345
-0.19349568 0.223361 -0.066992804 0.06734122 -0.2765812 -0.032752287 0.07409405 0.12765586
-0.110728554 -0.2344113 -0.41305533 0.27670884 -0.0888305 0.18274346 0.19620262 0.18599594
0.07876102 -0.20531368 0.117474765 -0.32110918 0.026093049 -0.14154992 0.12511204 0.08966796
0.05756645 0.31994593 -0.055647485 -0.125666 0.13979396 0.0357183 0.037759703 -0.28309184
0.069452785 -0.15812258 0.07541735 -0.32936725 0.04262234 -0.10904036 -0.03779101 -0.11431504
-0.09136536 -0.28720635 0.21205223 -0.12803173 0.1680197 -0.12100597 -0.036377143 -0.09135056
0.006402635 0.17713733 -0.030441683 0.19518484 -0.3060415 0.0017205041 -0.07879208 0.11719612
0.17292485 -0.06453577 0.07508265 -0.22269128 0.17950729 -0.028845772 0.039690718 0.14067209
-0.16700388 0.33240792 -0.14668877 -0.14806694 -0.019297052 -0.16214064 -0.15137267 0.089813456
0.23364975 -0.010095374 -0.008639261 -0.042598575 -0.14210449 0.16888739 0.11519517 -0.2641877
-0.12233235 0.17963785 -0.33288497 -0.17658237 0.02785129 0.065911464 -0.14412378 0.20300338
-0.15594277 0.3477454 0.005832542 0.030020764 -0.114155345 0.18770997 -0.041038204 0.26944345
0.09764844 0.03537653 -0.21092921 0.17035443 -0.12839197 -0.014806708 0.22504838 0.29223794
-0.06691191 -0.35809332 -0.1112881 0.0102270935 0.35982737 -0.16201894 0.056258615 -0.024090031
-0.28334618 -0.26990408 0.21513107 0.11470515 0.11001559 -0.051139314 -0.0024621477 -0.07638886
-0.09117269 0.13608679 0.21523544 -0.106890105 -0.055655375 -0.083425686 -0.3001237 -0.097693056
0.399143 0.32481375 -0.07980962 0.35498622 -0.17782713 0.34881106 -0.10054512 -0.16848803
-0.17042695 -0.046372473 0.062248565 -0.046878662 -0.050074127 -0.07554114 0.010099509 -0.089647554
0.08113618 0.027589558 -0.26301876 0.09740272 -0.09431303 -0.07133885 0.104617395 0.005558242
-0.10502142 -0.05232498 -0.007766831 -0.2036241 -0.20774995 0.15142144 -0.13975501 -0.3969807
-0.052385293 -0.04161595 0.1896782 0.31498647 -0.05383436 0.10509876 0.014745076 -0.044956867
-0.107361645 0.27310732 -0.0029071912 -0.1000336 -0.04853686 -0.043998435 0.2365579 0.22397831
-0.13186966 0.034297697 -0.18722385 -0.33366233 0.10076157 -0.2409401 -0.06509587 -0.2542983
0.14975983 0.23501563 -0.37362558 -0.26793367 -0.037848976 0.16012825 -0.16075423 -0.13848299
-0.15636976 -0.09982093 -0.054640878 -0.08897219 -0.024599036 0.10248204 -0.01368003 0.28587466

model._layers.1.weight f4 [64, 64]
00000000: 5c28 1e3d 7c8f 34be 433d cfbc ad76 023e
00000010: 8bb4 0b3e b037 f6bd 6ba1 bf3d 3600 743e
00000020: 99b1 21bd c898 8a3d f744 9abd 9df3 60be
00000030: eaa6 ddbe 3bdb 2d3e 9914 413e acf2 423e
00000040: e095 01be dbc0 bfbd ab63 2dba fd4a d43d
00000050: a623 9cbe 7062 333e e92a c43d e89c a83b
00000060: 99fe 103d 375e 703e 1a62 f5bc f006 9c3e
00000070: c6b9 d93d 5564 cc3d a25d 063e 6c20 993e
00000080: bf99 d83c c4ed 763e 215e c73e 22cb b4bd
00000090: fcee 763e 994e ad3e fcf6 a3be aaa1 2f3e
000000a0: 6c03 a3bd 6454 cbbd 96d5 75bd 5a1f a4be
000000b0: 5a41 d23d 8f44 f7bd 5ac6 c53d 765a 013e
000000c0: fea9 783d 4102 c6bd 230a 35be 7bbc a0be
000000d0: 525e c0bd 21c6 5f3e e639 bf3d 0ee1 173d
000000e0: f2bc 20bd f390 b63d 5ab1 d1bc babb 82bd
000000f0: 157f 3e3d 8b08 99bd c521 5f3e e52f a53d
00000100: 3c37 21bd e6f3 c23e f35b b3be e27a 25bd
00000110: 40a9 a5bd d0a5 b3bd 82a2 503e dd56 1abd
00000120: 0cad f73c 8c2f 813e e115 973d 04bf 32bd
00000130: 51aa 773d 1821 24bd 69c9 2d3e 3812 373e
00000140: 45f8 5dbe 35df a33d fc69 853d 1b6f 5cbd
00000150: f616 a83b fc81 483e 9cf8 003e 0c7d fe3d
00000160: 1399 8abd 4acc e5be 8623 7ebd 53ea 613e
00000170: d981 86bd d81b abbe 2393 913e 85a2 9b3d
00000180: 23fb 333e 12f4 083e 0be8 39bd 6089 6cbe
00000190: 17d2 b23d d45d 353e a101 82bc 94d9 e8bd
000001a0: 7549 18be 4bfe acbe b600 eb3b 5724 dbbd
000001b0: 760d ca3d 4fa1 14be 1f45 64be 8305 813e
000001c0: b0a1 8c3d 5837 903e 5609 04be 0e37 a43d
000001d0: 5359 403e 17fd b13b 3e2c 38bd 56a3 e83c
000001e0: 1bb9 023e 1346 17be eb14 7fbe dc22 18bc
000001f0: 064a 0d3e 104c 69be 483a 253e aa12 1d3e
00000200: 1ff7 913d d315 f5bd e100 37be 998e 263e
00000210: ee6e a2be 5baf 273d 2781 8fbe 018b 63be
00000220: 48e3 b83d a440 ad3e 97b1 e23d 4275 c9bc
00000230: 26dc 90bd c49d 65be 390b 323d 081f 083c
00000240: e0da c13a 66c5 6b3e 1361 da3d c7c2 89be
00000250: 2d17 063c d71b 203c bacf 513e dee8 30bd
00000260: 12b6 713c 9ae8 65be 27a2 2c3e 80fd f2bd
00000270: 4dbb 943e 5709 a33e aaee 033e 046c 563e
00000280: 2717 a4be dfa9 423e 1b20 223e a882 3a3e
00000290: 9a2c 483e b9b2 ffbd 0e3d d53d d904 d2bd
000002a0: e605 043e 3060 02bd fa9d 35be deec 853e
000002b0: a0a7 923d 03a0 0cbe 0082 933e f049 e6bd
000002c0: 8dd1 53be 2a36 3b3e 1b72 82be 0ed9 2c3e
000002d0: 7813 13be 7ac6 6c3d 58bf 92bd 81fa 29bc
000002e0: 1025 bc3d 5029 f93e b6b5 053d da25 bb3d
000002f0: 5dcd 113d 147c 7cbd 7662 fbbd 5e1c d0bd
00000300: 2c1b 033e 0435 87bd 9f56 a93c 2a33 c03d
00000310: 6ee3 003e 48d5 0bbe 50ea 86bd 2f77 a63d
00000320: 7b60 2abe d0e4 913e 8c3c cdbe 8f14 b33d
00000330: 0b73 05be cc45 283e a803 5fbd 1873 aa3d
00000340: 48f2 373d 9f89 35bd 90d7 8dbc f208 f0be
00000350: 0bbb fd3d 022f 01bf 447f 243e fa08 92be
00000360: 3b4d 963e a78c 903d 6df9 3cbd d4a0 c33c
00000370: f389 9a3d 366c bbbd 09e2 443e e5be 6cbd
00000380: 63af a43e 8f29 a6bd 84b4 9cbd ff70 333e
00000390: ac56 aa3d 7e12 e0be e854 333e 2d5c bdbe
000003a0: e87e 423e 40f7 0b3e b107 553c 5127 5fbb
000003b0: 7a27 993d a388 45be 34f0 dabd 7920 d4bd
000003c0: fd53 2a3d 543e 15bd c4cc 58bd c6fc eb3d
000003d0: c332 a3bc 8220 a83d 8f9a bebe 23f9 4d3d
000003e0: 1b93 8c3d 5f78 893e e479 14be 37b8 273e
000003f0: 4c50 21bd e0e0 6b3e d210 353e 0e86 483e
0.03861271 -0.1763286 -0.025297767 0.12740584 0.1364309 -0.1202234 0.0935696 0.23828205
-0.03947601 0.06767422 -0.07532685 -0.21967931 -0.43291408 0.16978161 0.18855514 0.19037884
-0.12654829 -0.09362956 -0.0006614278 0.103658654 -0.30495948 0.1751802 0.09578497 0.005145658
0.035399053 0.2347344 -0.029954005 0.30474043 0.106311366 0.09980074 0.13121656 0.29907548
0.0264405 0.24114138 0.38939002 -0.08827807 0.24114603 0.33849028 -0.32024372 0.17151514
-0.07959637 -0.099282056 -0.060018145 -0.3205517 0.10266371 -0.120736234 0.09656973 0.12632164
0.060708992 -0.09668399 -0.17679648 -0.313938 -0.0939299 0.21852924 0.09337215 0.037079863
-0.039242692 0.089143656 -0.025597263 -0.06383462 0.046507914 -0.074723326 0.21790226 0.08065776
-0.039359316 0.38076705 -0.3503109 -0.040400393 -0.080889225 -0.087718606 0.20374492 -0.037680496
0.030233882 0.25231588 0.0737722 -0.043639198 0.06046516 -0.040070623 0.16971363 0.17878044
-0.21676739 0.08001558 0.065143555 -0.053816896 0.0051296903 0.19580835 0.12594837 0.124261945
-0.06767478 -0.44882423 -0.062045597 0.22062044 -0.06567735 -0.3341968 0.2843257 0.075993575
0.1757627 0.13374355 -0.04538731 -0.2309928 0.08731478 0.17711574 -0.015869917 -0.11369625
-0.14871772 -0.3378776 0.0071717156 -0.10700291 0.09865849 -0.1451466 -0.22291993 0.25199518
0.06866777 0.28167224 -0.12894186 0.08018313 0.18784074 0.005431782 -0.044964068 0.028398197
0.12765925 -0.14772825 -0.24910323 -0.009285655 0.13797769 -0.22782922 0.16135514 0.15339151
0.07127213 -0.11967053 -0.17871429 0.16265334 -0.31725258 0.040938716 -0.28028223 -0.22220995
0.090277255 0.3383838 0.11069029 -0.024592046 -0.0707324 -0.22423464 0.043467734 0.00830818
0.0014789961 0.2302452 0.10663047 -0.26906416 0.0081842365 0.009772263 0.20489398 -0.04319083
0.014752882 -0.22452012 0.16858731 -0.118647575 0.2904915 0.31843063 0.12884012 0.20939642
-0.32048914 0.19010113 0.1583256 0.18213904 0.19548264 -0.124852605 0.10412036 -0.10254831
0.12892875 -0.031830013 -0.17736045 0.26157278 0.07160878 -0.13732915 0.2881012 -0.11244571
-0.20685406 0.1828238 -0.2547768 0.16879675 -0.14362895 0.05780647 -0.07165402 -0.010374666
0.091867566 0.4866433 0.032643996 0.09138079 0.03559624 -0.061641768 -0.12274639 -0.101616606
0.12803334 -0.06601909 0.020671187 0.09384759 0.12586758 -0.13655579 -0.0658766 0.08128201
-0.16638367 0.28494883 -0.40085256 0.087441556 -0.13032167 0.16432875 -0.054446846 0.08322734
0.04490879 -0.0443207 -0.017314702 -0.46881825 0.12389191 -0.50462353 0.16064173 -0.28522474
0.29355797 0.07058077 -0.04613631 0.0238804 0.07545843 -0.09151499 0.1922685 -0.05779924
0.3216506 -0.081133954 -0.07651618 0.17523573 0.083173126 -0.43764108 0.17512858 -0.36984387
0.18993723 0.13668537 0.013002322 -0.0034050534 0.07478233 -0.19290404 -0.10690346 -0.10357756
0.041584004 -0.036436394 -0.052929655 0.11522822 -0.019921666 0.082093254 -0.37227294 0.050286423
0.06863996 0.26849648 -0.14499623 0.16378866 -0.039383218 0.23035002 0.17682198 0.19582388

model._layers.2.weight f4 [64, 64]
00000000: e798 b13c ed86 61be 702d 7abe 3d96 763d
00000010: 1142 34bd 2f29 383d 93de 13bd b398 933e
00000020: 0339 1c3e 1aa7 db3d f7b8 52bc c8b9 b73e
00000030: b26f 953e 8938 ae3c fff8 18be 82b5 3d3e
00000040: 0764 b73d 1ab4 283e adcf 98bc 2cb3 923b
00000050: fa45 923e 1233 f63d e363 5cbd 2940 f03d
00000060: 15ae 523c 6e03 0e3c d1ad 2dbd 4488 3f3e
00000070: 07a0 5bbd 1e45 6fbe c378 f2bd 4255 f63d
00000080: cfc3 e7be aeba 05be 025d 173e 22a3 ba3c
00000090: 1730 833c 40b5 233e 362e ea3d 6838 ccbc
000000a0: 98a4 99be a579 3d3d 3d8e 76be 9ac7 abbd
000000b0: 63e2 c0bc bc50 043e d12d c73d 575c d3bc
000000c0: 00d6 37be 3b68 a0bc 4e2e aa3c 8090 353e
000000d0: 8946 b43d 1720 dabe b69d 8ebe f4ba 5bbe
000000e0: 8bcb de3d 7d93 873c c570 3bbd c5d8 b53d
000000f0: 113f 973d 8e94 99be 3c1b 0e3e d7d3 74bd
00000100: 2e1c 5dbe b2c9 8cbd dd35 903b 0c99 60be
00000110: 2e7a d63d a83c 5f3e c76f 483e ccc8 b93c
00000120: 5d09 babc 7624 203e 577d cbbd 913c 823d
00000130: 13d9 3c3d c778 fdbd 338a 0f3e 70c9 78be
00000140: ec2d 34bd 6286 5e3d 092d a2bd ab34 8a3e
00000150: fec0 cbbd a880 83bd c0b0 553e ca3b 36bc
00000160: 0700 4c3e 2b74 efbd c783 d3bd c7c4 bf3b
00000170: 4d93 823e f37e febd 4441 88be 9485 e93d
00000180: fe6c 42bd 19fd d9bc 8153 65be e95e 10be
00000190: f96f 073c 4297 713e 0e96 923e c46e 343e
000001a0: 3887 98bd 2fbb 47bd f784 a13d d172 883d
000001b0: 8fab 70be 3ad0 213e f056 063c 9cfa 893d
000001c0: 767c 07bd ee5a 34be 9176 253e 6a82 4fbe
000001d0: 3002 bbbc 6e7d 6b3b bbb2 593e 8cfa 8ebc
000001e0: ae7d 3abe ed01 14be 24a3 533e c489 a03d
000001f0: a6c2 e73c 146c 51be 01af c6bc 58c7 85be
00000200: eaf0 763d d840 b2bd 0315 1f3e cb74 8fbe
00000210: 5aa6 8d3d 4099 bebd a541 c03e 332a 643c
00000220: 8e1c 743e cde5 85bd c448 723d e4ca 3a3e
00000230: bbb1 17bd 3e31 a43e 88ef 73bd f8fc 813e
00000240: a9ed eebc d42a 89bd e61b b0be 3191 9e3b
00000250: 9ce9 f53d 4ed0 b13e b7d4 183e ad31 9d3d
00000260: 0700 d8bd dd6b cf3d 7ced abbe b841 643e
00000270: 0e88 83be 03b7 d63d 66b6 99bc ac20 bd3d
00000280: e73d 64bd 1e13 1c3e fccf 8dbe 3051 bdbd
00000290: 8c54 073e 62db 50be 3118 093e 76d7 03bd
000002a0: 28d1 babd cb3e 24be feb4 e3bb 9a4e 4fbe
000002b0: 806b c13d 4562 8dbe b5c9 bebe 8ca8 8dbe
000002c0: aba6 f63d 97a1 d13c 2e52 a03d f388 843d
000002d0: 396e 6bbe 8bef 7f3d ac0d 0c3f a43a ac3d
000002e0: ce5e ecbd bf0a 0d3e 4f32 6e3e f538 c5bd
000002f0: 0c51 4a3e 0569 503d b62f 69bd 5085 aebc
00000300: 1f22 9bbe c4dc 423e 868a bcbe 9053 0e3e
00000310: 0cc7 2dbe bd0e 08be 5b12 b53d 1101 3bbe
00000320: c4d3 0e3e e728 94be 906a 15bd 7feb 54bd
00000330: 3bf4 d3bc bcb8 26be 36b9 e73d 8a62 3dbe
00000340: 958f 3b3e 9961 b73d 6e91 a53e 519c 2f3c
00000350: 8d18 e1bd 3fac 56be e4cb 7a3e 52e9 0fbd
00000360: dcfc 49bc 6696 453e 084c 34bd 00fc 17bd
00000370: ad3a 0cbe 786c b23c 7f3e 07bc d1dc 113d
00000380: b947 18be 688c e23d 28cf 04be 779f 373d
00000390: 52a1 18bd 5cc1 683e 6b41 cfbb bd79 f7bd
000003a0: fbfb a7bc 74dd adbd 4425 6c3e 2472 14bd
000003b0: b483 04bd 306d 56be a81c ab3d ad58 78be
000003c0: 80b8 ae3d 017b 1cbc 2396 0e3d 4e3f 943d
000003d0: cbe8 9ebe ebeb a73d 7d88 ad3e 2848 b5bd
000003e0: c4bd 913e 9096 5cbd 8765 3d3e 4ecb 2bbd
000003f0: 55b8 89bd 6af8 8d3e 1198 003e 5291 943e
0.021679355 -0.22024126 -0.24431396 0.060201872 -0.04400832 0.04496115 -0.036100935 0.28827438
0.15256123 0.107252315 -0.012861482 0.35883927 0.2918678 0.021267192 -0.14938734 0.18526271
0.089546256 0.16474953 -0.018653715 0.0044769254 0.28569013 0.1202146 -0.053806197 0.117309876
0.012858887 0.00866781 -0.042402092 0.18704325 -0.05361941 -0.2336621 -0.1183944 0.120279804
-0.45266578 -0.13059494 0.14781573 0.022782866 0.016014142 0.1598711 0.11434595 -0.02492924
-0.30008388 0.046258587 -0.24077697 -0.0838768 -0.02354545 0.12921423 0.09725536 -0.025800867
-0.17952728 -0.019580951 0.020774033 0.17730904 0.08802516 -0.42602608 -0.278547 -0.21458036
0.108786665 0.01654982 -0.045761842 0.08879236 0.07385076 -0.2999615 0.13877577 -0.05977234
-0.21592781 -0.06874408 0.0044009523 -0.21933383 0.10472523 0.21800482 0.1957389 0.022678755
-0.022709543 0.15638909 -0.09936016 0.063592084 0.046105456 -0.12376552 0.14017563 -0.24295592
-0.043989107 0.054327376 -0.07918746 0.26993307 -0.0994892 -0.064210236 0.20868206 -0.011122653
0.19921885 -0.11692079 -0.10327869 0.005852315 0.25503007 -0.124265574 -0.26612294 0.11402431
-0.047467224 -0.026609944 -0.22395135 -0.14098705 0.008266442 0.23592857 0.28630108 0.17620379
-0.07447666 -0.048762497 0.07886689 0.066625245 -0.23502944 0.15802088 0.008199438 0.06737253
-0.03307768 -0.17612812 0.1615851 -0.20264593 -0.022828192 0.0035932916 0.21259587 -0.017453454
-0.18212005 -0.1445386 0.20667702 0.07838777 0.028291058 -0.20451385 -0.02425337 -0.2612865
0.060288347 -0.08703774 0.15535359 -0.28018793 0.06916495 -0.09306574 0.37550083 0.013926077
0.23839018 -0.06537972 0.059151426 0.18241459 -0.03703473 0.3206882 -0.059554607 0.25388312
-0.02916606 -0.06697622 -0.34396285 0.0048390855 0.12007448 0.34729236 0.14924894 0.076754905
-0.1054688 0.10127995 -0.33579624 0.22290695 -0.2568974 0.104841255 -0.018763732 0.09234747
-0.055723097 0.15241668 -0.27697742 -0.09244001 0.13215846 -0.20396188 0.13388135 -0.0321879
-0.09121925 -0.16039579 -0.006949066 -0.20244828 0.09444332 -0.27614036 -0.37263265 -0.27667654
0.12043508 0.025589747 0.078281745 0.064714335 -0.22991265 0.062484305 0.5470836 0.08409622
-0.1154152 0.1377363 0.23261379 -0.09630004 0.1975748 0.050881404 -0.056930266 -0.021303803
-0.3029947 0.19029528 -0.36824435 0.13899064 -0.16970462 -0.13286872 0.08841392 -0.18262126
0.1394797 -0.28937456 -0.03647858 -0.0519824 -0.025873294 -0.16281408 0.11314623 -0.18494621
0.18316491 0.08954162 0.32337517 0.010718421 -0.10991011 -0.20964144 0.2449184 -0.03513462
-0.012328353 0.19295654 -0.04401782 -0.03710556 -0.13694258 0.021780238 -0.008254646 0.035610978
-0.1487111 0.110619366 -0.12969649 0.044829812 -0.037263222 0.22730011 -0.006324937 -0.120837666
-0.020505896 -0.084895045 0.2306109 -0.036241665 -0.032352164 -0.20940089 0.08355075 -0.24252577
0.08531284 -0.009550811 0.03481115 0.07238637 -0.31036982 0.08199295 0.33893195 -0.08851653
0.28465092 -0.053854525 0.18495761 -0.041941933 -0.06724612 0.27728587 0.12558009 0.2901712

model._layers.3.weight f4 [64, 64]
00000000: 7863 acbd f381 2bbe cfae 8c3e af41 0abe
00000010: da85 d63d c21b 22be a2d3 073d a6e5 17be
00000020: 9392 57bd 1f53 a93d 4d06 8fbe 9c27 aabc
00000030: 9d32 1b3d 656a 803e 9878 613e 2747 f43c
00000040: 9913 93bd 0f35 52bd 6351 be3c 22da e43d
00000050: 83e5 bd3d 6e33 e43d 58eb b43e 7f75 9ebe
00000060: 1563 4e3e 9482 903e 89a7 29be affd 16be
00000070: 83e2 de3e 9520 ca3a 3c7c c73e 8f79 59bd
00000080: ae2f c93b f429 95be 7ef2 133e db7c b33d
00000090: 7647 d8bc 1bf1 083e 8496 7c3e c8e0 053d
000000a0: 772a a53e fd41 b2bd c74d 40be 0c56 123d
000000b0: b280 243d ef30 523d 897d 893d 5c4c ab3c
000000c0: be7c 3dbe ebcf e9bd 6be3 7d3e 0d48 253e
000000d0: b582 9e3e 9ccd 9dbc e13e 61be c738 4c3d
000000e0: 7665 b4bd 887f 603e 422d 52be 9282 1e3d
000000f0: 767e e2bd 58d7 6b3d 2072 aabd ec65 d8bd
00000100: 779e bbbe 8f29 70be f6bc 0a3e 1f6d bd3e
00000110: dc80 4bbe ed43 12be c687 e63d c87c a73d
00000120: 16ce bb3d d67d 82bc a762 35be 68f6 1c3d
00000130: 4651 3dbe 7369 583e 54ea 973d 69d7 be3d
00000140: ac08 4fbd 00ea 303e ed09 56be a3f1 89be
00000150: 3bc5 103e b654 79be 2fb3 3bbd 1857 5dbe
00000160: 452c 73bd d452 9a3c c364 153f 3042 3fbe
00000170: 677c 21be efff ac3e badb 403c 6bf7 c43d
00000180: 6346 3fbd fad0 0e3d 9b50 13be 5795 853e
00000190: 281d 483b 00eb 99bc ce88 693d 13ee abbe
000001a0: 5c8d 873d bf01 d03e 797d 243e cc7d 873e
000001b0: b7b9 54bc 6b64 e43c 668b a0be 273f f2bd
000001c0: f902 d63d 692b 403e 8dca 4fbe fd86 b63e
000001d0: 3445 9abd b555 033f f9af c73e 7da9 d33d
000001e0: 2fb0 133e f5a6 9a3d 6dde 0f3e 5e72 bbbc
000001f0: ee3f 3e3e 8ec0 bb3d d636 35be d003 fabd
00000200: 71a9 243e 76ac e13d c5b8 95be 7629 11bf
00000210: 15bb 183e 9d50 d5be ffb1 59be fff6 d73d
00000220: d784 94be 46db 99be dd28 113d 1826 afbe
00000230: 5a26 adbe 7455 dfbd 3b3b 413c 4a54 12bd
00000240: ecfa 94bd 8b4f 1abe 1b73 de3e a653 803d
00000250: 6262 a6be cd90 dbbd 707f 00bc 7d21 58be
00000260: a1a9 2b3e 1891 7a3d 09b6 823e b40b be3d
00000270: 1ca1 4b3e 3f9f c13e 8f87 a4be ec41 70be
00000280: d9a4 0cbe 10da 483e 768b e23d 082a 323e
00000290: eb2a 03be de5e 90bc 3e43 53be 4fad b43e
000002a0: 7f4a b9be d237 7a3e f88e 98bd f86a 6abe
000002b0: 5861 353e eb3e 22be 924a 253e 0062 c73c
000002c0: 16a0 993e 36ed 4e3e 8412 e63d f797 3b3e
000002d0: 2a11 16be c38e 233e be1f 933d b5b8 aebe
000002e0: 77e6 833e 9cdb 89bd 6e9c 353e ea60 0d3e
000002f0: 033b 23be 84a8 66be c27d 023e ce78 dbbe
00000300: c3e6 3c3e e9a0 d0bd a50d 87be cc40 a13d
00000310: ac63 29be bad1 5fbe d6af 75bd edef d8bd
00000320: 8a99 aabe d473 acbe c677 9b3e 56a2 64bd
00000330: e562 86be 0e83 4f3d 872e 743d 3d52 7fbc
00000340: cfb9 43bd c194 923e 856a 813e 5daa eabd
00000350: 9a59 a7bb 8dde 5abe a38f 61be 9c92 443d
00000360: 9af2 f1bd e3d9 af3e 53d5 e63d e3a4 d53d
00000370: e9ae 8dbd 976f 573e e90d f93d f4c4 84bc
00000380: 008f c8bd 6a4e 99bc 264e 32be 331a 24be
00000390: 5242 76bb e68a 31bd bc3a 853d 5c5b 08bd
000003a0: 2a44 d7bd 8ab8 913b 6641 f9bd 3b62 2e3e
000003b0: 20c7 b0be ccf3 7abe 1ff8 e43c c3e0 053f
000003c0: 267f 573a f04a 18be a6df b5bd 57d7 18bd
000003d0: 3803 dc3c b276 03be fc5a 17be 0c5a 2fbe
000003e0: 1309 ab3d d24b 9abc 7a60 8abe 2c1f 3e3d
000003f0: 770b 38be d466 053d 1d37 16bb 5906 0e3c
-0.0841741 -0.1674879 0.27477118 -0.13501619 0.10474749 -0.15830901 0.033160813 -0.14833698
-0.05263002 0.08267807 -0.27934495 -0.02077084 0.037890065 0.25081173 0.22018659 0.029819084
-0.07181472 -0.051320132 0.023232168 0.11174418 0.092722915 0.11142622 0.35335803 -0.30949017
0.20154984 0.28224623 -0.16567816 -0.1474521 0.4353219 0.0015421087 0.3896197 -0.053094443
0.006139717 -0.2913357 0.14447972 0.08764049 -0.026401263 0.13373224 0.24666792 0.03268507
0.3225896 -0.087039925 -0.1877967 0.035726592 0.040161796 0.051316198 0.06713397 0.020910434
-0.18504617 -0.1141661 0.24793784 0.16140766 0.30959097 -0.019263081 -0.21996643 0.049858835
-0.08808415 0.2192365 -0.20525077 0.03869874 -0.11059277 0.057578415 -0.08322549 -0.10566315
-0.36644337 -0.23453353 0.13548645 0.36997315 -0.19873375 -0.14283724 0.112563655 0.08178097
0.09170167 -0.015929144 -0.17713414 0.03832093 -0.18488035 0.21133976 0.074177414 0.0931843
-0.05054538 0.17276764 -0.20902224 -0.26942167 0.14137737 -0.24348721 -0.04582518 -0.21615255
-0.05936839 0.018838324 0.58356875 -0.18677592 -0.15770112 0.33789012 0.011771137 0.09617504
-0.046697985 0.034867264 -0.14386217 0.260905 0.0030534957 -0.018788815 0.057015233 -0.33580074
0.06618759 0.40626332 0.16063489 0.26463163 -0.012983731 0.027879914 -0.31356353 -0.118284516
0.10449786 0.1876656 -0.2029211 0.35649863 -0.07532731 0.51302654 0.39001444 0.10335062
0.14422677 0.07551376 0.14049692 -0.022881683 0.18579075 0.09167586 -0.176967 -0.122077584
0.16080262 0.110192224 -0.2924253 -0.5670389 0.14915116 -0.41663066 -0.21259306 0.10545158
-0.290076 -0.30050105 0.03543936 -0.3420875 -0.33818322 -0.10904971 0.011793907 -0.035724916
-0.07274422 -0.15069406 0.43447194 0.06265955 -0.32496935 -0.10720978 -0.0078428835 -0.21106525
0.16763927 0.06117353 0.25529507 0.09279576 0.19885677 0.37816808 -0.32134673 -0.23462647
-0.1373476 0.19614434 0.11061756 0.17398846 -0.1280934 -0.017623361 -0.2063112 0.35288474
-0.36189649 0.24435356 -0.07449144 -0.22892368 0.17712915 -0.15844314 0.16141728 0.024338722
0.30004948 0.20207676 0.11234 0.18319689 -0.14654985 0.15972428 0.07183789 -0.34125295
0.25761768 -0.0673134 0.17735454 0.13806501 -0.1594048 -0.22525221 0.12743285 -0.42865604
0.18447404 -0.10186941 -0.26377597 0.07873687 -0.16541928 -0.21857348 -0.059982143 -0.10592637
-0.33320266 -0.3368212 0.30364817 -0.055818878 -0.26247326 0.050662093 0.059614684 -0.015583572
-0.047784623 0.28629115 0.2527658 -0.114582755 -0.005107117 -0.21373959 -0.2202745 0.04799138
-0.11813851 0.34345922 0.11271157 0.1043184 -0.06918127 0.21038662 0.12160856 -0.016207196
-0.097929 -0.018714149 -0.17412624 -0.16025619 -0.003757615 -0.043345354 0.06505343 -0.033290252
-0.10511048 0.0044470476 -0.12170677 0.1702966 -0.3452692 -0.24507064 0.027950345 0.52296084
0.0008220546 -0.14872336 -0.08880548 -0.03731474 0.026857004 -0.12838247 -0.14780802 -0.17124194
0.0835134 -0.018834982 -0.2702673 0.046416447 -0.17973123 0.032568768 -0.0022921034 0.008668506

exp_avg f4 [64, 14]
00000000: 8fc0 763c 8312 6ebb 9ef7 f3be f785 3cb9
00000010: b30e 2fb8 5e74 57b7 768a 52b8 5245 f737
00000020: 6009 ad3a 4bd1 4538 e5a0 ee39 0b61 8439
00000030: 2053 bf39 ee1b 75bb 7f82 70bd bf38 f5bb
00000040: 500d a43d 3f17 223b ba5f a6b8 0160 4bb7
00000050: 0933 8938 8b6e ef3a b456 4c36 2cdd a338
00000060: 113e deb9 2397 3b39 ea94 46ba 1329 e0bb
00000070: 17f0 de3e d929 96bd 70ef 83be db92 023d
00000080: 8264 7cba c1cf 93b9 43aa 8d3a 6650 863c
00000090: c9ae 0d3d cf87 963a 0e11 253c dacc e93b
000000a0: aeb3 c53c 678a abbd 7c5d 373e a593 86bb
000000b0: a419 21bf a630 41bb db22 81b8 1d16 13b6
000000c0: e519 7d39 1c41 8a3b 487c 723b 77d3 bb39
000000d0: 74e6 2a3a 0a2d 8c3a e980 e73a f138 adbb
000000e0: 6ec3 073e d6e0 a6bc 38d2 bd3d f9ca 0a3c
000000f0: 9ce5 9cb9 8d4d bcb8 69a1 6e39 81bb 9a3b
00000100: 96da 323c 16f8 c539 72b4 563b d842 123b
00000110: 7ba0 f83b 7f03 d0bc 5022 0bbf 2c9f 273c
00000120: 659f 3a3e 4a4a 2a3c 5f74 a139 6064 2c38
00000130: fe04 29ba 25fa 6bbc 4063 6abc d9ca beba
00000140: 808e 52bb 9e2a 85bb 5b0d 0ebc 1445 ca3c
00000150: 3c83 dbbd 9bec dd3c 7009 fabe e77a bcbc
00000160: 0a97 b239 acd3 f638 ddc2 c2b9 53a1 81bb
00000170: dc44 53bc 0f69 beb8 c96c 85bb 5ac6 16bb
00000180: fad4 1bbc a281 f83c f24e efbd 4909 2b3b
00000190: b4d1 7bbe 7823 b3b9 3b4b e7b8 0dc3 75b7
000001a0: 6e06 5eb8 8016 58ba 0154 a63a 418b c936
000001b0: f266 023a 3dad fa38 4bb7 6c3a 37d3 17bc
000001c0: f679 923e 3f00 913b bc1f 163f e54a 82bb
000001d0: 78b3 0238 0a1a 2e35 4f66 9338 3f96 263b
000001e0: 8342 a23b 6daa c739 51a0 e53a 1f48 963a
000001f0: 3ad8 a73b dbb5 6c3b 731c e03d 0364 8abc
00000200: 1788 8e3c d7da 1b3c b136 3cb9 f587 81b8
00000210: b649 4a39 14bc 263b b081 f43b 3f3b 2739
00000220: 2fcc 1d3b ccaf bb3a 1f8b b43b 1ea8 83bc
00000230: 7e2f 86bf d22f 833d 14bc 3b3f de2c b8bc
00000240: 56f7 6b3a 2a23 8639 3207 cbba c057 d6bc
00000250: 4f1d 2abd f465 00bb ff3e 36bc e2e5 18bc
00000260: da8f e2bc 1dd1 a03d db40 3a3c a71b a9bb
00000270: 81b8 29be 3aea ed3a 8563 77b8 52c5 a2b7
00000280: f7c3 5038 2f88 543a ff16 e23a 750d 3738
00000290: 3517 eb39 c9e0 b739 9d71 613a 3727 afbb
000002a0: 8229 763e aa3f 28bc 9622 563e fa00 e93a
000002b0: f047 fdb8 202f 36b8 13e7 5739 1151 643b
000002c0: e10d 053c dbc2 cc39 241f 343b 0acb e23a
000002d0: 7327 d73b 617b 21bc fd03 d43e afce 74bd
000002e0: cca8 06bf d5d2 cc3c 1583 55ba 9ab6 7ab9
000002f0: 8b83 6a3a e4e4 6f3c cc99 f33c c618 8b3a
00000300: 1bc2 0a3c beb9 cb3b 01f3 a33c 34ca 91bd
00000310: 179e b23d 3eb5 243b 0920 1b3f b431 0d3b
00000320: d253 9a38 c199 2637 9be6 88b8 6c4b 33ba
00000330: 8402 7039 1111 aab6 d702 b739 09dc 04b7
00000340: 2d3a 9c3a 0048 da3b d68a 053e 540e 97bc
00000350: f3d1 363e 9d98 1b3c 133d a3b9 9905 b6b8
00000360: 9d56 9739 eb95 9e3b 7392 3b3c 4033 d639
00000370: 571a 643b b4bf 183b 4360 093c aec2 d9bc
00000380: 1cbe 14be 381a 963c 5453 f43d 8bee 26bc
00000390: 8996 9039 45fe a838 2254 a7b9 b395 b0bb
000003a0: d60d 2abc cc9e a8b9 a44d 38bb 3bd1 0bbb
000003b0: be85 d9bb 6f71 c53c 7759 03be a1b6 7a39
000003c0: b5ab 5b3e 4dcf 733b c5f1 cab7 6677 0bb7
000003d0: 3397 4eb8 47af 7dba add9 a7ba c940 51b9
000003e0: 2c52 02ba 80fe d3b9 93f1 8dba 775f 08bb
000003f0: d2b7 4fbe af55 f93b 368b b53d 3acc 603b
0.015060558 -0.0036326952 -0.47649854 -0.00017978983 -4.173694e-05 -1.28420925e-05 -5.0196853e-05 2.9476974e-05
0.0013201647 4.716338e-05 0.00045514773 0.00025249305 0.00036492292 -0.003740068 -0.0587182 -0.0074835713
0.08010352 0.0024733094 -7.933327e-05 -1.21220955e-05 6.542175e-05 0.0018267197 3.0448837e-06 7.813642e-05
-0.00042389383 0.00017890013 -0.00075752905 -0.006840834 0.4354255 -0.073322006 -0.25768614 0.031878334
-0.0009628014 -0.00028192814 0.0010808188 0.016395759 0.034590516 0.0011484566 0.010074867 0.007135016
0.02413353 -0.083760075 0.17906755 -0.004106956 -0.6292975 -0.002947846 -6.157692e-05 -2.1917579e-06
0.00024137607 0.0042191874 0.0037000347 0.00035824973 0.00065193255 0.0010694575 0.001766232 -0.005286329
0.13258144 -0.020370882 0.09268612 0.008471244 -0.0002992571 -8.9789835e-05 0.00022757579 0.0047220592
0.010916373 0.00037759606 0.0032761362 0.0022317674 0.00758749 -0.025392292 -0.5434923 0.010230821
0.18224867 0.010393688 0.00030795016 4.1101477e-05 -0.0006447582 -0.014402901 -0.01430589 -0.0014556303
-0.0032128394 -0.0040639183 -0.008670176 0.024691142 -0.1071839 0.027090361 -0.48835325 -0.023007823
0.00034063339 0.00011769621 -0.00037147748 -0.003955999 -0.012894835 -9.079475e-05 -0.004071806 -0.002300641
-0.009511227 0.030335251 -0.116849795 0.0026098064 -0.24591714 -0.00034167967 -0.00011028951 -1.4648552e-05
-5.2934913e-05 -0.0008243099 0.001268983 6.006478e-06 0.00049744465 0.00011953197 0.00090299983 -0.009266666
0.28608674 0.004425078 0.5864217 -0.0039762133 3.116156e-05 6.4857943e-07 7.028563e-05 0.0025419143
0.0049517765 0.00038083215 0.0017519091 0.0011465586 0.0051222118 0.0036119136 0.10942926 -0.016893392
0.017398877 0.009512625 -0.00017949451 -6.176523e-05 0.0001929168 0.0025441693 0.007461749 0.00015948432
0.0024078002 0.0014319359 0.0055097486 -0.016071375 -1.0483243 0.064056054 0.7333386 -0.022482332
0.00090013945 0.0002558467 -0.0015489815 -0.02616489 -0.041531857 -0.0019592019 -0.011123418 -0.009332152
-0.027656484 0.07852385 0.011368002 -0.005160767 -0.16574289 0.001815147 -5.8982074e-05 -1.940379e-05
4.977357e-05 0.0008107451 0.0017249285 4.3643133e-05 0.00044839983 0.00035071958 0.00085999985 -0.005345251
0.24039271 -0.010269085 0.20911631 0.001777678 -0.000120773795 -4.343607e-05 0.0002059008 0.0034838358
0.008120985 0.0003905509 0.0027484382 0.0017302942 0.006565982 -0.009856076 0.41409293 -0.05976742
-0.52601314 0.025002876 -0.0008144838 -0.00023909882 0.0008945993 0.014641974 0.029736422 0.0010612241
0.00846913 0.0062172106 0.020013334 -0.07118645 0.087215595 0.0025132443 0.60595757 0.0021544518
7.358905e-05 9.93017e-06 -6.527939e-05 -0.0006839547 0.00022889121 -5.0683816e-06 0.00034906596 -7.919044e-06
0.0011919193 0.006661415 0.13041243 -0.01843945 0.17853527 0.009496835 -0.00031135287 -8.679479e-05
0.00028865496 0.004839649 0.01144849 0.00040855445 0.0034805739 0.0023307623 0.008384767 -0.026582088
-0.14525646 0.018323049 0.11929956 -0.010188709 0.00027577978 8.058226e-05 -0.00031915406 -0.0053889393
-0.010379275 -0.0003216177 -0.002812245 -0.0021334428 -0.0066382578 0.02410194 -0.12827097 0.00023909892
0.2145222 0.0037202418 -2.419286e-05 -8.312845e-06 -4.9255043e-05 -0.00096773024 -0.0012805961 -0.00019955928
-0.0004971351 -0.00040434673 -0.0010829441 -0.0020808855 -0.20284966 0.0076090912 0.08864443 0.0034301416
