notebooks/lightning_logs/version_53551072/checkpoints/epoch=999-step=1000-v2.ckpt (torch, 225791 bytes, 18 tensors)

model._encoder.weight f4 [64, 14]
00000000: 37f0 073e 50d0 fc3e fda2 cd3e 2c69 05bf
00000010: dde3 2dbe e890 00be 31a9 ec3d bbed e6be
00000020: a8c4 c6be a0cc d2be 6ea2 94be aee4 b43d
00000030: 8246 f6be d721 823e 0c1f e33d 671f 14bf
00000040: 6ae6 263e d085 283f 1a62 0d3f 5768 353e
00000050: 8d64 aabe 3dee ec3d 5656 f73e f5e5 e5be
00000060: 6d5f 5ebd 2d86 dabd fe3f 9f3e 90cb babe
00000070: e720 0a3d a62c d13e 6142 163f 0c86 c2be
00000080: 5445 0b3f 75f6 78bd 6d70 adbe ea47 8c3d
00000090: 3460 183f 9fb1 33be 89e6 80be 360b b23d
000000a0: cfd9 6cbe b9c0 d0bd 4250 033d f018 1cbf
000000b0: ac8f afbe ac93 d8bd b432 d3be d015 e03d
000000c0: 6b4b 113f 3590 e3be 915f eb3d dfd8 81bd
000000d0: 5c86 0f3f a5f0 593e 452c 923e 75b1 96bd
000000e0: c5f7 c3be 9919 22be 083b 883e ad2d 073f
000000f0: c7f3 873e 8d97 043e b2ec 83be 1979 8e3c
00000100: af1e e63c afb5 83be 025c c83e e190 aebe
00000110: f84b 0ebe a011 47be ce26 783d c262 9a3d
00000120: 9276 30bf 0ebc 1cbe a2ea 84bd 1d06 e33c
00000130: b871 9f3d 2b7d bebc 687e e83d 7e09 a73e
00000140: 5fb3 a53e 304d 32bd a997 e13e 7612 c33e
00000150: 6df8 863e b122 aabe 467d 583d db84 f9be
00000160: 6870 2bbf 2c2c 3f3d e9fd a23d d73b 8e3e
00000170: 532f 5f3e b9e4 af3e 366a 723c 265f cdbd
00000180: 330a 7abf 2fe2 96bd a90b 2c3e 7220 493f
00000190: e294 f53d 83b7 b7be 19a1 993e d694 9abe
000001a0: 3846 a43d ae32 c2be 3eea 6e3e 0956 2fbe
000001b0: 8c89 d4be 86bd 37bf 9089 84be 765c aabd
000001c0: 103d cdbd 7d7f fabe b8d6 0ebe 7533 263f
000001d0: d378 413e ec47 873e ccdd ddbe 9cdd 4fbe
000001e0: 13f5 42bf 8a0a 2abe dbd6 20be a553 833b
000001f0: 8908 c2bc afef e63c 6ca4 263f a01d 883e
00000200: 720f 2c3e d4e2 ffbd 6102 fc3e 8f57 613e
00000210: 6e33 703e 55f2 983e 371e 1a3e 9b36 8f3d
00000220: 9bbf acbe f72e 203e ac0f 5cbd fc47 09be
00000230: b94c 523f 061a c8bd 5e74 a43d 9f9a a93e
00000240: d6e3 b13e 1ede 82be 0ebf 333e ac85 603e
00000250: 00e3 313e 9c2b 7bbd e49f a63d 8e87 613e
00000260: 4ea0 873e 4e60 9dbe 6207 a4be 5a77 a3be
00000270: 726b 493e 1e6e 97be d0ba f0bd 5886 f23e
00000280: e902 a53d 7050 453e 3751 93be e5ac dcbd
00000290: c278 d1bd bd55 98be f6e2 febe 916b 1fbe
000002a0: 6fd7 28bf 6419 24bd 97a8 7b3d 1c56 c7be
000002b0: 5cf8 27be b658 cebe 2315 b83e 69ee e43e
000002c0: e61f 07bf de06 bfbe dff6 2cbf 9dbd eebd
000002d0: 7688 fbbe 092a 223d 41ca 0dbc e95b 933e
000002e0: 7184 083e aff1 0dbe 4a95 2bbe 1733 6ebd
000002f0: 358a 14bc 8297 b83e 8a75 873e 3aa1 78bd
00000300: 34ab 3cbe cbcb e0be 7a48 f53d 3ee1 b93e
00000310: 5537 90bb 92b9 a93d d56a 43be 7298 a53e
00000320: 0a33 18be 0257 27be 8b96 2cbd 8890 cfbd
00000330: 84d0 893e d0a7 27bf f2b8 07be 6ced c43e
00000340: 83d4 5cbe 2848 15bf 31c2 f1bd 27da c43e
00000350: 7e21 8cbe 31a4 b63d 7425 953b 17db 923e
00000360: 724d eabd cce1 72bc c9be 82be f81a 54be
00000370: 5949 7bbd 0176 093d a835 5bbf 89bb 7bbe
00000380: be5d c73e b78c edbe 1379 ce3d 188d 5a3e
00000390: ec80 383d 8036 173f cdad a1bc 7ea6 3ebe
000003a0: bcb8 f83e fe63 a73d 8c12 cf3d 1ef9 693e
000003b0: 337c 55bd f56d 66be fece 843e a775 283f
000003c0: a0a0 32be 8ab7 8fbe 781b b1bd 875f f93d
000003d0: 1ccb ce3d fe33 c2bd 8f93 15bd 69c1 cc3e
000003e0: 0819 0ebe 1283 f73e 38e2 22be 3d2f 8d3d
000003f0: 8a21 223e 562e f63e e487 a2be 9728 6a3e
0.13275228 0.4937768 0.40163413 -0.52113605 -0.16981454 -0.12555277 0.11555708 -0.4510325
-0.38821912 -0.4117174 -0.29030174 0.0883268 -0.48100668 0.25416443 0.11089906 -0.57860416
0.16298833 0.6582918 0.55227816 0.17715584 -0.3327984 0.11568878 0.48308057 -0.44902006
-0.054290224 -0.10670123 0.3110351 -0.3648343 0.033722784 0.40854377 0.58695036 -0.37992895
0.5440266 -0.060781915 -0.33874837 0.06849654 0.59521794 -0.17548226 -0.25175884 0.086935446
-0.23129962 -0.10193009 0.03205896 -0.6097555 -0.342893 -0.10575041 -0.4124962 0.109416604
0.56755704 -0.4444596 0.11492837 -0.06340193 0.5606439 0.21283205 0.285494 -0.07358066
-0.3827497 -0.15830077 0.26607537 0.5280407 0.26553175 0.12948437 -0.25766522 0.017391728
0.028090803 -0.2572455 0.39132696 -0.3409491 -0.13896167 -0.19440317 0.060583882 0.07538368
-0.68930924 -0.15306112 -0.06490065 0.027712876 0.07785362 -0.023253044 0.11352235 0.3262443
0.32363412 -0.043530643 0.4406102 0.38100022 0.2636141 -0.33229592 0.052853845 -0.48734173
-0.66968393 0.046672985 0.07958586 0.2778003 0.21795397 0.3435419 0.0147958305 -0.10027914
-0.9767181 -0.0736736 0.16801323 0.7856513 0.11991288 -0.35882196 0.3000572 -0.30191678
0.08021206 -0.3792929 0.23331544 -0.17122664 -0.4151119 -0.71773565 -0.25886202 -0.08318417
-0.100214124 -0.4892539 -0.13949096 0.6492227 0.18893747 0.2642206 -0.4333328 -0.20299381
-0.76155204 -0.16605583 -0.15706961 0.004007774 -0.02368571 0.028190462 0.6509464 0.26585102
0.16802767 -0.12494436 0.49220565 0.22006057 0.23457119 0.29872385 0.15050589 0.06992837
-0.33739933 0.15642916 -0.053725883 -0.13406366 0.8214832 -0.097705886 0.08030008 0.3312578
0.34744138 -0.25560087 0.1755335 0.21925992 0.1737175 -0.061320886 0.081359655 0.22024366
0.2648949 -0.30737537 -0.32036883 -0.31926996 0.19669893 -0.295762 -0.11754382 0.4736812
0.08057196 0.19268966 -0.287729 -0.107751645 -0.10228111 -0.29752913 -0.49782532 -0.15568377
-0.65953726 -0.040063277 0.061440077 -0.38932884 -0.16403335 -0.40302056 0.35953626 0.44713143
-0.5278305 -0.37309927 -0.67564195 -0.116572596 -0.4912755 0.03959087 -0.008654178 0.2878106
0.13331772 -0.13861726 -0.16756168 -0.05815419 -0.009066154 0.3605309 0.26456863 -0.060700633
-0.18424684 -0.43905482 0.119767144 0.3630466 -0.0044011273 0.08287348 -0.19083722 0.3234287
-0.1486322 -0.16341785 -0.042135756 -0.10134989 0.26916897 -0.65490437 -0.13254145 0.3846239
-0.21565442 -0.58313227 -0.11804617 0.38447687 -0.27369303 0.08918036 0.004551584 0.28682777
-0.11440553 -0.014824342 -0.25536183 -0.20713413 -0.061349247 0.033559803 -0.8562875 -0.24583258
0.38938707 -0.4639642 0.10081687 0.21342885 0.045044824 0.59067535 -0.019736195 -0.18618199
0.4857844 0.08173369 0.101109594 0.22848937 -0.0521204 -0.22502883 0.25939173 0.65804523
-0.17444086 -0.28069717 -0.086478174 0.121764235 0.10097334 -0.09482573 -0.036517676 0.3999131
-0.13876736 0.48342186 -0.15906608 0.068937756 0.15833107 0.48082227 -0.317443 0.22867046

model._decoder.weight f4 [8, 64]
00000000: 0403 853e f337 e73d f5d2 1a3f 2b70 eabd
00000010: 8cef 813e daa8 943e cb59 063e 3170 7dbd
00000020: 0442 213d 4504 1bbf 5f09 88be 479d 863e
00000030: 2e31 a7bd 1071 9fbb b1f8 acbe 4ddb a73e
00000040: 01b5 bfbd 44b2 803d 32a7 0e3e 2482 093e
00000050: 9038 923e bb62 d83e 6db1 503e 29eb cdbe
00000060: b777 b33d 9481 72be 5738 8c3e c18f 70be
00000070: 6b00 af3e 60f1 653e bd28 09bf a891 963e
00000080: 676b 04bf 65d1 e9be 1980 333e ca39 bdbd
00000090: c75c f53e 2c43 a53e d93b 7b3c f613 803e
000000a0: 9d18 c1be 3b41 633e fe4d fdbe db4f fe3c
000000b0: 7a29 273c f0bc aa3e d8c6 c3bd 11e8 04bf
000000c0: de0b da3d 27b6 aa3e 1923 f23d b94d a63e
000000d0: 36be a6be a95c a83b 1a46 3a3e c2c5 c13e
000000e0: 214e 2c3e 33eb 9bbc bc96 b23e cb49 9d3e
000000f0: 8140 bf3e d547 413e 60d1 2e3c b6c5 18be
00000100: df77 f03d f0e4 5fbe e35e d13e b417 c73e
00000110: b98b af3e 8ff6 47be b71a f83d 869d 3f3e
00000120: 3966 09be a9e5 d63e 902a 48be a9eb 943e
00000130: f32e 50be 9f4e 213e 1203 0abe 7449 f43d
00000140: 2c0e a93e da32 f0bd 7401 c73e dbb1 48bd
00000150: a35e 49be a21a e13e 89ab 0f3f 7ad1 233e
00000160: 2821 bd3e c72c 8e3e 14d2 453a 1fbf fc3e
00000170: fc61 95bd 037f 02bf 2ca3 c43e 64f8 12bf
00000180: f90f ff3e 155a 353e 30f3 203f c347 00bf
00000190: ff0c c63e 9e84 b63e afe3 a8be d695 923e
000001a0: 7c9a 853e 077e 66be 0f55 09bf b9f9 64bc
000001b0: 5738 91bd 5978 783e a2b4 733e dc50 2cbe
000001c0: 024e c0be 71d5 2fbe 0e68 cd3a c62d 083e
000001d0: 3767 a23e 0bb6 b5be b735 5c3d 4f79 db3d
000001e0: 4e54 1f3f 51a2 87be ac87 1b3d d382 bc3d
000001f0: a558 853e e427 003f 51b8 81bd 32b1 c93e
00000200: 6c01 d23e 9539 f3be f865 823e aef5 883e
00000210: 74ed c23e a447 0ebf e9be c0be 2e3f 75be
00000220: cca3 aabd e1d6 7bbe c31b 88bd a491 a4bd
00000230: fb38 a1be 4334 45be 7bad f4bd 7d6b 82be
00000240: 8202 d33e f263 e3bd 3ac6 55bd c10d 833e
00000250: e571 7b3e e2ce 5bbe 8ab6 b23e d8ff eebe
00000260: 39a5 f7be e1ef 9d3e 1bae fdbe 126d 4f3d
00000270: 06a1 9e3e 76df c03d bc8f 82be dd47 9e3d
00000280: 44b6 d8bc 32f9 1f3e 95fe 89be d5a7 08bf
00000290: d8ef 0a3f 160c 9c3e 38f9 0a3d f5fc b43c
000002a0: 0f51 483d 9c48 933e 9634 4ebd 675f 0d3f
000002b0: 29a8 b1bd 7f4f 9cbe 3ff2 b93e be5c 38be
000002c0: 0e95 1d3d 6ac3 02bf 763e ee3d ab1d 353d
000002d0: b5ab c13e 5d95 5a3e 3aa6 ef3e f4b2 ca3e
000002e0: f384 113e dd45 c73d e71b 47be f6c5 a53e
000002f0: 638d eabd 5604 b83c 26b6 053f 9c57 75be
00000300: fe82 fdbd 0da1 2abe a886 123e ce5e 16be
00000310: a354 cbbc 146b f23d 5aca 8d3e 9a7c a4bd
00000320: 55e7 a13d d1a0 85be 0ad4 8ebe dbf9 d3be
00000330: e61f 5fbe 133e cdbe 5faa 4cbe ae9e 4fbd
00000340: 18b1 06bf 0fb2 8abd fae4 7b3e 5db4 3c3f
00000350: 8c0d f83e c84b 2e3e 5a4c 0cbe 1765 92be
00000360: 1971 0fbe 21c6 02bf c1bf 013e ba0b acbe
00000370: 5761 d73e ffe5 9d3e 6d52 09be 08c8 df3d
00000380: 8868 f7be a6ba df3d ea34 283e 3f6b edbe
00000390: d7e6 203e ca60 463e 99ce e83e 0155 36be
000003a0: 8b64 d0be 7ef8 b63e 1023 213c 27b7 393f
000003b0: 8ba3 a4be 47e4 c0bc 5823 563e 3ffc 87be
000003c0: 2e04 c53e 9bd5 d03d 6735 b13e 9d75 273e
000003d0: c1a2 d3bd e5d0 28bd d247 e73d 3512 b53e
000003e0: 4119 13be 0ff0 623e 6566 81bd b78f d5bd
000003f0: e32e 063f 6533 6d3c 134d b93e 26c1 aebe
0.25978863 0.11289968 0.60478145 -0.114471756 0.25378072 0.29035074 0.13120191 -0.061874572
0.039369598 -0.6055339 -0.2656965 0.26291868 -0.08163677 -0.004865773 -0.33783486 0.327845
-0.09360696 0.062840015 0.13930967 0.13428551 0.2855878 0.42262825 0.20380183 -0.40218475
0.08763068 -0.23682243 0.27386734 -0.23492338 0.34180006 0.22455359 -0.53577787 0.29408002
-0.5172638 -0.45667568 0.17529334 -0.09239538 0.47922346 0.3227781 0.015334093 0.2501523
-0.3771409 0.22192852 -0.49473566 0.031043937 0.01020276 0.33347273 -0.09559411 -0.51916605
0.10646795 0.33342096 0.118231006 0.32481173 -0.32566994 0.005137999 0.18190804 0.3784619
0.16826679 -0.01903305 0.34880626 0.30720362 0.373539 0.18875058 0.010670036 -0.1491917
0.117416136 -0.21864676 0.40892705 0.38885272 0.34286287 -0.19527648 0.121144705 0.18712434
-0.13417901 0.41972092 -0.19547486 0.29086044 -0.2033041 0.15752648 -0.13477734 0.119280726
0.33018625 -0.11728449 0.38868296 -0.04899774 -0.19665007 0.43965632 0.56121117 0.15997878
0.3693936 0.27768537 0.00075462577 0.49364564 -0.0729408 -0.50975055 0.3840574 -0.57410264
0.49816874 0.17710145 0.62871075 -0.501095 0.3868179 0.35648054 -0.3298621 0.2862994
0.26094425 -0.22509013 -0.53645414 -0.013975554 -0.07090824 0.24264659 0.23799375 -0.1682772
-0.37559515 -0.17171265 0.001567127 0.13298711 0.31719372 -0.3549045 0.053762164 0.10716497
0.62238014 -0.26491025 0.037971184 0.0920464 0.26044193 0.5006087 -0.06333984 0.39393002
0.4101671 -0.4750487 0.2546842 0.2674994 0.38071787 -0.55578065 -0.37645653 -0.23949882
-0.08332023 -0.24593689 -0.0664592 -0.08035591 -0.31488785 -0.19258218 -0.11947151 -0.25472632
0.4121285 -0.111030474 -0.052190997 0.2559643 0.24555166 -0.21465638 0.3490489 -0.46679568
-0.48368242 0.30847076 -0.49546894 0.050641127 0.30982226 0.09417622 -0.25500286 0.077285506
-0.026454099 0.15622404 -0.26952043 -0.5338109 0.5427222 0.3047797 0.03392908 0.022093276
0.04890543 0.28766334 -0.05034312 0.552237 -0.08674652 -0.305294 0.36317632 -0.18004128
0.038472228 -0.5107943 0.11633007 0.044217747 0.37826315 0.2134604 0.46806508 0.39589655
0.14210872 0.09730122 -0.19444238 0.32377595 -0.114527486 0.022463005 0.5223106 -0.23959202
-0.123785004 -0.16662998 0.1430918 -0.14684603 -0.024820631 0.1183683 0.27693444 -0.08031578
0.07905451 -0.26099256 -0.27896148 -0.41401562 -0.21789512 -0.4008642 -0.19986866 -0.050688438
-0.52613974 -0.06772243 0.24599066 0.7371271 0.48447835 0.17021096 -0.13701001 -0.2859275
-0.14007987 -0.5108357 0.12670805 -0.33602697 0.42066452 0.30839536 -0.13410349 0.10926825
-0.4832194 0.10924272 0.16426435 -0.46370885 0.15713058 0.1937286 0.45470122 -0.17805864
-0.40701708 0.3573646 0.00983502 0.72545093 -0.32156023 -0.023546351 0.2091192 -0.26559636
0.3847975 0.10196992 0.34611055 0.1635346 -0.10333777 -0.041214842 0.112929955 0.35365453
-0.14365102 0.22161888 -0.06318358 -0.10427802 0.52415293 0.014477585 0.36191615 -0.34131736

model._layers.0.weight f4 [64, 64]
00000000: f44b 25be bcb0 79be f27a 14bc 5692 20be
00000010: 0136 0fbe f8f7 a4be 424a ebbd 4ad0 1d3e
00000020: 23ad 513e 0f37 e7bd cdc8 833d 6d85 78bd
00000030: 835f ac3d 9749 9ebd 1f9f ca3e e345 3a3e
00000040: 32bf 3fbc 998b b43b e2c6 18bc b1b0 543e
00000050: 135f 85bc 99f5 53bd 3c0f f53d 103c 6a3e
00000060: c3fa 80be f8f5 68be c83a 22be d70f 853e
00000070: 7177 0b3d 21d8 94bd 476b 33be 2b16 353e
00000080: 0cf4 78be fc96 993e 168d 523d 6d51 6dbe
00000090: da4a 983d 277c 453c d72d 923e 54f0 c63e
000000a0: a265 6a3e bb4c edbe 96e3 173e a0fd d13d
000000b0: 8d30 773e b667 e23e cc24 97bd 0261 b8be
000000c0: 1ae2 283d 8ec5 933e 7fe9 b7bd 014e 8fbd
000000d0: afe5 59bd a81c 6f3c 669e 94be b1e9 023f
000000e0: 0ace b2b9 0d60 f13e 82b3 00be e196 ac3e
000000f0: 38af b9be f5f4 b1bd 87b8 0b3e 4e26 4c3d
00000100: 2bda 34be d4d1 50bc f23f a8be 45bf c53e
00000110: 1461 a83d f907 a73e 0683 753e dc72 893d
00000120: fac4 d83d fb43 5bbe 4ad5 e63d b78d 11be
00000130: 75f6 fd3c e3d6 05be a51f 6e3d dcb5 283c
00000140: 3851 533e a51a 9a3e 0221 1b3b ce6c bfbc
00000150: 972f 473e c4d1 2e3e 8afe 683c 01cc 95be
00000160: f909 c93d 392a 3cbe c719 7b3e 4084 e5be
00000170: 48f3 ae3d 8f7b 80be 8eed 81bb 981a 79be
00000180: 262b 533c 9282 a5be d606 8a3e af7d 703d
00000190: d7c8 1ebd 4f61 053d b38a de3d 032f a9be
000001a0: 3548 36be 4d95 913e e6cd 76be 0d47 f23e
000001b0: 3fec 3abe 2bec 48be 76bc 913d 86d3 933e
000001c0: df00 b33e 1499 ebbc 0e2f dfbd 42c5 2fbe
000001d0: 987f b13e 7b34 52bd c9b3 2a3e 9687 923d
000001e0: ca0b 15be 5bb7 063e edc8 a4bd 0b86 aebe
000001f0: cf01 8c3d 3c75 00be af5d 7fbd b212 793e
00000200: d4fe a33e 77a1 03be 742e 3fbd 65fb 57bd
00000210: ea6a 53be d9be 833e c10f 853e 82ff 3fbe
00000220: 1f9f c3bd c6ce 813e d6b0 7fbe de78 9fbd
00000230: 9eb7 c53d 0df5 2d3d ca5e 67bd 3da8 a03e
00000240: d01d 48be d517 fd3e c223 e23d 34cc 9abd
00000250: 04c9 36be faef e63d 12f1 893d aba6 b03e
00000260: a554 2f3e 4734 403e 9e1b a5be 51c3 a13d
00000270: 71e5 f9bc f136 3a3e 9047 a23e 1280 a73e
00000280: bd14 6d3d 3541 63be 779e 43be 1dc5 03be
00000290: f304 f13e bcfe 76bd 2278 213e 550f 6a3e
000002a0: 5ab8 aabd 9a1e 9cbe f79f 773e 6568 98bd
000002b0: b89f 6a3e 7853 463e 56ff 1a3e 11ee d8bd
000002c0: 7bb2 03be c79b 443d aa1e f23e 6588 1dbe
000002d0: 3dd2 b9bd 9658 19be 485a 9dbe 6172 b7bc
000002e0: 9228 063f fa2d 023f 2b7a 773d 6dfa 1c3f
000002f0: cc27 25be 4ba3 003f 908b 48bc a788 4fbe
00000300: f794 b5bd a5a1 9b3d 226f ec3d 60b3 9fbd
00000310: 9868 01be 280b bfbd 6e29 203e 0bb8 1dbb
00000320: a813 1e3e 6f2c 273e 7c5b 88be 5194 4e3e
00000330: 72db 95bd ee29 06be 3554 563e 3525 a63d
00000340: 10f4 fb3c 3411 6bbd 55f3 d23d 6ac0 76be
00000350: 3265 aebe fb5f 823d 4ee6 023c f02d 78be
00000360: 0b5d 96bd 598e 44bd 8ee4 bf3d 5664 073e
00000370: d7a4 ba3c 8c16 203e 8863 063d b8ca a0bd
00000380: 8cdf f6bd 79fb 9f3e 083f 1ebe cab4 edbc
00000390: 8cae 13be e53a 22bc aea6 8c3e 540c 7d3c
000003a0: 0f34 8abe 9e3a cb3d 99fe 83be 7056 b0be
000003b0: 9058 ff3d d9f3 d0be 59f1 113d c418 f5bd
000003c0: ba6c f93d 484f 943e e423 1dbf 85a6 a8be
000003d0: dc57 50bc c67e a73d 2845 55be a21d 94bd
000003e0: 2719 89bd 09cb d93c b9c8 e1bd 350d acbe
000003f0: 00b2 a9bb bf1e 0ebc 4c65 c63d f9c2 d73e
-0.16142255 -0.24383825 -0.009062516 -0.15680823 -0.13985445 -0.32220435 -0.11488773 0.15411487
0.20476203 -0.112897985 0.06434784 -0.06067412 0.08416655 -0.0772888 0.39574525 0.18190722
-0.011703299 0.0055098054 -0.009324761 0.20770527 -0.016280686 -0.051747892 0.11965796 0.22874475
-0.25191316 -0.2275008 -0.15842736 0.25988647 0.034049455 -0.07267786 -0.17521392 0.17684238
-0.24311846 0.29998004 0.05140408 -0.23175593 0.07436152 0.012053526 0.28550598 0.3885523
0.22890332 -0.46347603 0.14832911 0.10253453 0.24139614 0.4421975 -0.07380065 -0.3601151
0.041231252 0.2886166 -0.08980083 -0.069973 -0.05319756 0.0145942345 -0.29027098 0.51137835
-0.00034104317 0.47143593 -0.12568477 0.3370886 -0.36266494 -0.086893 0.1364461 0.049841218
-0.1766135 -0.012745339 -0.32861286 0.3862249 0.08221641 0.3262327 0.23975763 0.06711361
0.10584445 -0.21412651 0.112711504 -0.14214216 0.031001309 -0.13070254 0.058135647 0.010297265
0.20636451 0.30098453 0.0023670797 -0.023367312 0.19451748 0.17072207 0.014220843 -0.29257205
0.09816355 -0.18375482 0.24521552 -0.4482746 0.08542496 -0.25094268 -0.0039650863 -0.24326551
0.012888705 -0.3232618 0.2695834 0.05871361 -0.038765755 0.032563504 0.108662985 -0.3304368
-0.17800982 0.2843422 -0.24101982 0.47319832 -0.18254183 -0.19621341 0.07116024 0.28872317
0.34961602 -0.028759517 -0.10897647 -0.17165092 0.3466766 -0.05131958 0.16670145 0.07154767
-0.14555278 0.13155882 -0.08046136 -0.34086642 0.068362825 -0.12544721 -0.062345203 0.24323538
0.32030356 -0.12854563 -0.04667516 -0.052729983 -0.20646253 0.25731543 0.25988582 -0.18749812
-0.09551834 0.25353068 -0.24969801 -0.077867255 0.09654163 0.042470027 -0.056486882 0.31378356
-0.19542623 0.49432245 0.110419765 -0.0755848 -0.17850119 0.11276241 0.06735434 0.34502158
0.17122133 0.18769942 -0.32247633 0.07898582 -0.030504914 0.18185021 0.31695223 0.32714897
0.057881106 -0.22192843 -0.19103418 -0.12868161 0.47074088 -0.060301527 0.15768483 0.22857411
-0.083359435 -0.30492097 0.24182115 -0.07441787 0.2291249 0.19367778 0.15136465 -0.105922826
-0.12861054 0.048000123 0.4728902 -0.15384062 -0.09073303 -0.14975199 -0.30732942 -0.022393407
0.52405655 0.50851405 0.060419243 0.6131962 -0.16128463 0.50249165 -0.012240306 -0.20266972
-0.088663034 0.075991906 0.115446344 -0.07797885 -0.12637556 -0.093283 0.15640804 -0.0024065997
0.15437186 0.16325544 -0.26632297 0.20173766 -0.073172465 -0.13101932 0.2093056 0.081125654
0.030756027 -0.057389453 0.10300318 -0.24096838 -0.3406158 0.06365963 0.007989479 -0.24236274
-0.07341965 -0.047987316 0.09369765 0.13221869 0.02278368 0.15633601 0.032809764 -0.078511655
-0.12054357 0.31246546 -0.15453732 -0.029016871 -0.14422053 -0.009901737 0.27470917 0.015444834
-0.26992843 0.0992329 -0.2578018 -0.34440947 0.12468064 -0.4081104 0.035630558 -0.11967614
0.12178941 0.28966737 -0.6138289 -0.32939544 -0.01271626 0.08178477 -0.20827162 -0.072322145
-0.066942506 0.026586073 -0.11024613 -0.33603826 -0.00517869 -0.008674323 0.096872896 0.4214094

model._layers.1.weight f4 [64, 64]
00000000: dc17 763d 869c dfbe fed3 143e 9a34 12bc
00000010: 5961 9c3c 466a 013d 7042 a23e ea28 bd3e
00000020: e0af c5bc 4a35 b23d 1029 93bd 1725 9abe
00000030: 0f6e 48be 1d4f 633e 0c8a cf3e 9b3e e33e
00000040: 2a8a c9be d5c3 3b3e 7616 85bc 8126 45bd
00000050: dac3 81be c056 fd3d fa2e af3e 5abb 88bc
00000060: c1a5 603e e5d1 943e c9c6 d7bd c8a3 093f
00000070: 96f3 a63e 80bf c53e 8f6a 763d 102c 123f
00000080: b6ec fe3d 4b68 dc3e 321d 293f 3626 7ebe
00000090: 680f 003f 0af3 0c3f d10b 83be 99cb 543d
000000a0: 0f5b 403e 7772 39be efb0 0a3e 9001 24bf
000000b0: b3d8 a63e 7377 ff3d f692 733c 0776 07bd
000000c0: 5cec 593d 0350 1abe 4eb5 00be 6794 bbbe
000000d0: b16a 61be 6c93 6a3e ae7b 6c3e 0553 573c
000000e0: 690d 233e c72f 8b3e b899 233d 43c1 1e3d
000000f0: 157f 3e3d 4f2e 2f3e 5485 f53e da2c 26be
00000100: 18da 75bd baac 0c3f 0b80 ecbe ff49 c53d
00000110: 96e2 183d b031 fe3b beaf fe3d a28d 18be
00000120: 3ed9 dd3d 324a 373e b774 fa3b 23ce 9dbd
00000130: cf69 3abe 873b 32bd b4d8 a43d f044 59bd
00000140: 7782 17be 2511 cd3d e4a5 1d3e 9117 653d
00000150: bc81 813d 8b3f 7c3e 8b78 babc b89f 3a3e
00000160: c022 78be 4acc e5be 099b f8bb 8003 57bc
00000170: 1ed8 5ebd 183b 16bf 97ae c33e bac3 2bbe
00000180: 8cc8 1b3e c1c7 ef3c b88b 66be 7cd4 c0bd
00000190: 4de0 05be 1a0e e33d 3d96 293e 3c81 11be
000001a0: 55b8 97be a72c a8be bd97 66be fb69 023d
000001b0: 9f41 dc3d 4045 c8be af73 10be 83c7 ca3e
000001c0: 9b37 3e3d 6559 a73e 0af3 88be 01da 1f3e
000001d0: 6496 9c3e c39b ff3d 59e6 22bd ec11 54bc
000001e0: 273d 093e 1f1e 34be a424 a6be bf4a cfbd
000001f0: 064a 0d3e c3fe eabe 08d9 673e 0599 923e
00000200: 3269 003e 7663 84be f8f7 8ebb 9cc0 653c
00000210: c603 bfbe 3db9 913d 58db a2bd b634 18be
00000220: efd7 d13d e8cb ff3e dd41 533e aa65 273c
00000230: 588b 0e3e 722a 3abe a637 203e bfe3 743e
00000240: 2e21 ddbd 0c9c 933e 9fa1 c73d a650 e0be
00000250: 334e 84ba 3009 28bd d7de ca3e a918 4ebd
00000260: c531 423e 79f1 1cbe 3fcb 833c d401 9f3d
00000270: 8d81 e83e 771b 103f b4ee df3d 8e2d c53e
00000280: 3afb 92be 84c0 ad3e f4cd f43d 0c4a a63c
00000290: fd16 9a3e e121 37bc f955 de3d 376b 8dbd
000002a0: a410 b33e 81ac 263e 5d58 a5bd 6640 1a3c
000002b0: e193 363e b7c5 c03d 0379 813e a6c7 4dbe
000002c0: d9cf 1ebe 394f 583e 7872 71be 421c 163e
000002d0: db24 4bbe 54d7 96bc 1691 c1bc ad83 063e
000002e0: 6d40 3c3e 933e 0e3f fcb1 d73d cb56 6f3e
000002f0: 5dcd 113d e0f6 373e 61d8 d9bd d932 54be
00000300: 42f6 263e 2433 1f3e 92a9 17bb 40ff 843c
00000310: 3a6c cbbc 6374 e4bd 8a41 f63d 57c9 973e
00000320: 7b79 103c 720c f23e 3ebe a6be 1d13 203e
00000330: 2144 0cbe d688 6f3e aa3a 29be 6568 223d
00000340: 6003 083e f5a8 a0bd 01b6 3d3d 4990 0bbf
00000350: 5267 853e e799 2fbf 74aa c73e 9256 babd
00000360: 0ff1 a03e b3f4 0d3e 0e2a eebd 5904 80bd
00000370: 130c 6d3e c40d 87bd 3e44 8e3e 0f5b debd
00000380: 42b3 6b3e 6d62 abbd 92a8 a4be 5559 013e
00000390: a04c 653d fdf7 9cbe 4326 b13e 95ce 92be
000003a0: 8459 8e3e 447c 943e 2b53 56be 97c8 a3bd
000003b0: ccad 0d3e 8b3f 6cbe 7d19 05bc 427f 093d
000003c0: 6431 12bc 560b 6c3d 5aca 55be 9cbd a63d
000003d0: 58da 6bbd 8a92 f53d dfb1 e9be 0690 433e
000003e0: 66c9 f43d 0359 b63e 7736 80be 5c51 373e
000003f0: 4c50 21bd 8cd5 703e 3b40 2b3e e55b eb3e
0.060081348 -0.43674105 0.14533994 -0.008923674 0.019089388 0.03159549 0.31691313 0.36945277
-0.024131715 0.0870157 -0.071855664 -0.30106422 -0.19573234 0.22198148 0.4053501 0.44383702
-0.39363223 0.18336423 -0.016246062 -0.048132423 -0.25344735 0.12370062 0.34215528 -0.016690899
0.2193823 0.29066387 -0.10535962 0.53765535 0.32607716 0.38622665 0.060160216 0.57098484
0.12447493 0.4304832 0.66060174 -0.24819264 0.5002351 0.5505835 -0.25594953 0.05195198
0.18784736 -0.18110071 0.13544057 -0.64064884 0.32587203 0.12473955 0.014866581 -0.033071544
0.053203925 -0.15069585 -0.12569162 -0.3663666 -0.22013356 0.229078 0.23094055 0.013142352
0.15923084 0.2718489 0.03994152 0.038758527 0.046507914 0.17107509 0.47953284 -0.16228047
-0.060022444 0.5495106 -0.4619144 0.09633254 0.037325464 0.007757388 0.12435864 -0.14897779
0.10832451 0.17899397 0.007643308 -0.07705333 -0.18204425 -0.0435138 0.08049145 -0.05304426
-0.14795862 0.10013036 0.15395314 0.055930678 0.06323573 0.24633615 -0.022762557 0.1822499
-0.24232006 -0.44882423 -0.007586841 -0.013123393 -0.054405324 -0.5868392 0.3821914 -0.16773883
0.15213221 0.029270055 -0.22514236 -0.09415528 -0.13073845 0.11086674 0.16561218 -0.14209455
-0.29632822 -0.32846567 -0.22518821 0.031839352 0.10754704 -0.39115334 -0.1410663 0.3960534
0.04643975 0.3268539 -0.26747924 0.15610506 0.3058349 0.12480881 -0.039770458 -0.012943726
0.13402234 -0.17589615 -0.3244983 -0.101216786 0.13797769 -0.45897493 0.22641385 0.2863237
0.12540129 -0.25857133 -0.0043630563 0.014022972 -0.37307566 0.071154095 -0.07951993 -0.14863858
0.10246264 0.49960256 0.20630594 0.01021711 0.13920343 -0.18180254 0.15646228 0.23915003
-0.10797344 0.28829992 0.09747624 -0.4381153 -0.0010094106 -0.041024387 0.39623138 -0.050316487
0.18964298 -0.1532649 0.016088126 0.077640206 0.4541134 0.5629191 0.10934201 0.38511318
-0.28707296 0.3393594 0.11953345 0.02029898 0.30095664 -0.011177511 0.10856242 -0.06905215
0.34973633 0.16276743 -0.080734946 0.009414768 0.17829849 0.09412711 0.25287637 -0.20095691
-0.15508975 0.21123971 -0.23578823 0.14659217 -0.19838278 -0.018413223 -0.023628753 0.13136168
0.18383951 0.5556423 0.10531995 0.23372953 0.03559624 0.17965269 -0.10636974 -0.20722522
0.16304877 0.15546852 -0.0023141843 0.016234994 -0.02483188 -0.111550115 0.12024219 0.29645798
0.008818026 0.4727512 -0.32567018 0.15632291 -0.13697864 0.23392043 -0.16526285 0.03965034
0.13282537 -0.07844726 0.04631615 -0.54517037 0.2605539 -0.6859421 0.38997233 -0.09098543
0.31433913 0.13862877 -0.11629115 -0.06250829 0.23149137 -0.065944225 0.2778644 -0.10857212
0.230176 -0.083683826 -0.3215986 0.12631734 0.05598128 -0.3065795 0.34599504 -0.28673235
0.2780267 0.29001057 -0.20930164 -0.07997244 0.1383583 -0.23071115 -0.008123753 0.033568628
-0.008922908 0.057628 -0.20877972 0.08141634 -0.057581276 0.11990841 -0.45643517 0.1909791
0.11952476 0.35614786 -0.25041553 0.1790213 -0.039383218 0.23518962 0.1672372 0.45968547

model._layers.2.weight f4 [64, 64]
00000000: b876 683e 5a56 d2be 0d34 87bd 7a97 333e
00000010: 2f24 24be b8d3 4ebc 877c 1ebd 8ec5 093f
00000020: 0339 1c3e dab4 583e fdc1 5f3d f381 903e
00000030: 0622 d93e 4e03 353d d48c 92be 7f52 d63e
00000040: c3be 93bd 36e7 323e c090 2fbe 5781 10bd
00000050: 7ac6 d73e ee2f 963e 28d8 0e3e 596e fd3d
00000060: 16a2 1c3e afe6 563e 0de8 81bd be9b cc3e
00000070: d515 d2bd 578b 8abd 734e 0ebe b58b ad3e
00000080: fb7c b3be 4aab c3ba 01d0 2ebc c5e7 28be
00000090: 2f40 183e aae3 ae3e 6d2a 533e 31f7 0b3e
000000a0: 9ff1 7cbe 9986 21bc 2426 403d d89c 08be
000000b0: 6abb 353d 3452 913e 8d60 053e 1888 f6bd
000000c0: 05b2 55be a755 e83c 006e e53d 0136 4e3e
000000d0: eed4 7f3c 3442 ffbe dd93 c0bd 6093 3cbe
000000e0: 6ee1 a23e 8f2b bd3d 0f2d f5bc 315b 723e
000000f0: a541 943e 3764 4cbe 5531 d03d fab8 6bbd
00000100: 513a 86be 8004 eebd 0db4 92bd ab40 b6be
00000110: fb9a 4e3e 2680 d13e 7e49 b83e 823e 2cbe
00000120: 5d09 babc d67e 493e e690 74be 9354 d63d
00000130: f743 37bd 64dc 163d 919f b03e a1f0 b2be
00000140: bb87 b5bd e7dc 6e3e c72c de3d 4de8 c13e
00000150: f507 08bc 73f1 e73d 5793 573d 0ae5 72be
00000160: 8dc7 d43e a52c 76be 58f2 e13d ddc6 e33d
00000170: b55f b93e a2b1 853d 5480 adbe e359 193e
00000180: f260 523e 6012 52be ac72 f03c cb93 803d
00000190: ade4 10bd 37d1 af3e df43 013f 5812 94bd
000001a0: b9f3 21be 9498 85be 41d7 383e 56e1 883e
000001b0: f543 9ebd ad59 333e c743 23bd a756 953d
000001c0: fd03 203d b412 66be 115e 8e3e ef21 4fbe
000001d0: 5e98 a53e daaf 1e3e 2c19 ba3e e870 fb3c
000001e0: 8184 d8be ff8e 91be 9f34 d93e 6d24 063d
000001f0: 77cd 983d 96b3 04be 834d d53d 085d 03bf
00000200: feb7 9b3e 6f9d 89be c260 b53e 70cd 3ebe
00000210: 28d3 063d 7658 45be 541a 8a3e af68 b13e
00000220: 8e1c 743e 18b8 6b3d f1bf e23d bb32 313e
00000230: 2134 e53c f0c1 c83e b34a 44be 879a fa3e
00000240: cd73 28be 8124 8cbc 550a 0abf e9b2 68bd
00000250: 61a0 823e 8fb2 fb3e a725 bb3e 5873 9c3d
00000260: 5d08 9a3d 840e 9a3e 4a18 c7be b967 dc3e
00000270: 4c0a 88be 3d16 833e 25b5 633d 128e a53e
00000280: 3486 ac3d acf1 9c3e 3d1f f9be c31c 9abe
00000290: 4494 a43e 0278 a7bd 28f8 513e 3199 b63d
000002a0: 4285 a93d 3095 49be f74f ab3d 88f0 9abe
000002b0: 5eaf 2b3d a67e ecbd 6d2a 9bbe 7122 b1be
000002c0: 2ccd 273e 8e74 a13d 8f06 f23d f658 e83d
000002d0: 9671 82be 072d 1cbc dbe0 263f bfa9 133e
000002e0: bf46 bd3d a3f9 4c3e 6399 433e 9d92 1e3d
000002f0: eee8 d23e de0e 4c3e e4d3 26be 7e3c cabc
00000300: 108f f5be 73cc bc3e 4f4c 92be 7c38 b83e
00000310: 153d 57be 5227 b5bd d26d 7c3e 1e43 9abe
00000320: c4d3 0e3e 4c7a 91be 4880 da3d a47d 39be
00000330: bd7d 3fbd d06f b2be 589a 0c3e a89d 8bbe
00000340: 48ba a33e 0624 71bd 26e4 d93e 016c 4b3d
00000350: 2bc4 573d edc9 a8be dbf9 c33e 205f 433e
00000360: 26f8 4ebe c5ab ac3e 19f8 b8bd 1e3f f7bd
00000370: 472a 64be e501 52bd 7f0f 303e dd3b 82be
00000380: 1195 90be 2786 943e abc6 9bbe beb2 893c
00000390: 7996 333e fdb6 a7bc f054 3dbd c1eb 203e
000003a0: 4216 ed3d 3490 0e3e 138e ee3c 9ad6 1c3e
000003b0: fbee 19be e841 83be 57f6 953e 1613 e6bd
000003c0: ea7e c33d b035 53bd 8fb2 da3d a8a1 193d
000003d0: ec37 20bf 7480 2f3e 9c0b c13e 5104 3d3d
000003e0: 4df8 0d3f 5777 023e a2bd dc3d c782 983c
000003f0: 36eb a5bd 0482 a63e 9fb9 803e da3f f33e
0.22701538 -0.41081506 -0.06601725 0.17538252 -0.16029428 -0.01262372 -0.038692977 0.5381707
0.15256123 0.2116274 0.05462836 0.28224143 0.4240877 0.044192605 -0.28623068 0.41859815
-0.07214119 0.17471012 -0.17145061 -0.035279598 0.42143613 0.29333442 0.13949645 0.12374563
0.15296206 0.20986436 -0.06343088 0.39962572 -0.102580704 -0.06764858 -0.13897114 0.3389565
-0.3505629 -0.0014928367 -0.010669709 -0.16494663 0.14868234 0.3415807 0.20621653 0.13668515
-0.24701546 -0.009858751 0.046911374 -0.13341081 0.044368185 0.28383029 0.13025112 -0.120376766
-0.2086869 0.028361155 0.112026215 0.20137788 0.015614731 -0.49855196 -0.09403203 -0.18415594
0.31812614 0.09236824 -0.029928712 0.236676 0.28956333 -0.19960104 0.10165659 -0.057549454
-0.26216367 -0.11621952 -0.07163248 -0.35596213 0.20176308 0.40918082 0.3599357 -0.1682072
-0.022709543 0.1967729 -0.238834 0.1046535 -0.04474255 0.036831275 0.3449674 -0.3494921
-0.08863779 0.23326455 0.10848384 0.37872544 -0.008302678 0.1132535 0.05263075 -0.23720184
0.41558495 -0.24040468 0.110325515 0.111219145 0.3620583 0.065280214 -0.3388697 0.14975695
0.20544794 -0.20514822 0.029351555 0.06278189 -0.035374332 0.34339306 0.5049419 -0.07230061
-0.15815629 -0.2609297 0.18050863 0.26734418 -0.077278055 0.17514677 -0.03985956 0.07291918
0.039066304 -0.22468072 0.27806142 -0.20227788 0.3234281 0.1549677 0.3634733 0.030693486
-0.42288592 -0.2842941 0.4242296 0.032749582 0.07461064 -0.12959132 0.10415175 -0.5131383
0.30413812 -0.26877925 0.35425383 -0.18633056 0.032916218 -0.19272026 0.26973212 0.3465018
0.23839018 0.057548612 0.11071766 0.17304508 0.027978959 0.39210463 -0.1916912 0.4894602
-0.16450424 -0.01710725 -0.53922015 -0.056811247 0.25512984 0.49159667 0.36552164 0.076391876
0.075211264 0.300892 -0.3888572 0.43047884 -0.26570356 0.25602904 0.055592675 0.32334954
0.08424035 0.3065313 -0.48656645 -0.30100068 0.32144368 -0.081771865 0.2050482 0.08915938
0.0827737 -0.19685817 0.083648615 -0.30261636 0.04191529 -0.11547594 -0.30305806 -0.3459659
0.1638686 0.07883559 0.11817657 0.11345093 -0.25477284 -0.00953222 0.6518685 0.14420222
0.09242009 0.20017104 0.19101481 0.03871404 0.41193336 0.19927546 -0.16291767 -0.024687048
-0.4796071 0.36874732 -0.28573844 0.35980594 -0.21019395 -0.088453904 0.24651268 -0.3012933
0.1394797 -0.28413618 0.10668999 -0.18114334 -0.046750773 -0.3485093 0.13730752 -0.2726872
0.3197806 -0.058872245 0.42556876 0.049663547 0.052677315 -0.32966557 0.38276562 0.19079256
-0.20211849 0.337248 -0.09031696 -0.120725855 -0.22281753 -0.051271338 0.17193411 -0.25436297
-0.2823873 0.290086 -0.3042501 0.016808864 0.1753787 -0.020472998 -0.04622358 0.15714933
0.11576511 0.13922197 0.02912048 0.15316239 -0.1503257 -0.2563622 0.29289505 -0.11234109
0.09545691 -0.051564872 0.106785886 0.037507683 -0.6258533 0.17138845 0.3770417 0.046146695
0.55457 0.12740837 0.10778357 0.018617047 -0.081015036 0.3252107 0.25141618 0.47509652

model._layers.3.weight f4 [64, 64]
00000000: 0349 273e 5459 a9be eeaf 0b3f 4f7e bfbd
00000010: a623 b33e d7ab 99be b05e b0bb 54f7 b13d
00000020: 1952 333e 46ba 9f3d 6392 18be 6329 5fbd
00000030: a4ca d1bb a1cd e33e 1446 0bbd 69da 763e
00000040: c052 09bd 0f35 52bd 72bd 0d3c 4ffc 9d3e
00000050: f15a 6a3e 333e 5c3e 04a6 093f ab4c 13be
00000060: 5bae ad3e 4b98 f03e ec98 5cbe 05d6 c03d
00000070: 3722 013f b560 aa3c b4a8 1e3f 69f8 853d
00000080: 724d b23d e385 9cbd 1aaa 1b3e 5962 42bc
00000090: 03d5 d23d b0a0 7b3e 9f50 d83e 8e80 a13e
000000a0: a6cf 7a3e 4e77 0cbd eed0 c4be 2328 373e
000000b0: 3b28 8b3e 52eb 3b3e 7c08 343e b0a8 8e3d
000000c0: 1710 e93c 725f 8c3d 236b e63e b560 993e
000000d0: 6f3a 763e 9c2f 153e d6fa 90bc 51f5 583e
000000e0: 9315 32bd 7fcd d23e 04b6 9bbe d166 623e
000000f0: 8f61 d43d c47c 223e a41e bd3d 8728 2fbe
00000100: 8f19 b6be fe00 2bbe f1f4 d83c 1202 8a3e
00000110: 0b35 bfbe 49f4 993d 564a 693e c3b9 98bc
00000120: 1813 813d 5d17 6a3d 333b 77be 7c52 613e
00000130: e35a 11bd d7b9 913e 2ed9 a53e 7dac 033e
00000140: 813d d1bd 00ea 303e 710f f0bd b83f c6be
00000150: d7aa 093e 1f30 0a3d e5d3 2ebe 79e3 84be
00000160: 3430 f43d ec8b 1ebe d559 273f e552 d6be
00000170: f208 edbd 0860 df3e b116 67be f2bd 2c3e
00000180: dca8 ae3b 70d4 f6bd 9cbc 4f3b d119 9f3e
00000190: c97a 133d a233 083d e38d 903d b5fd 12bf
000001a0: 2e32 063e dc0d a53e f3f6 a73e fa34 8e3e
000001b0: 449f 15bd 7619 383e 89e0 cabe 085a 67be
000001c0: e1e4 c2ba d140 c93d 9dc5 88be 2f03 f83e
000001d0: 09b4 073d 4954 223f 50bf e83e fa06 dc3b
000001e0: 201e 4f3e b144 3ebd cf2e b63e 0775 f7bc
000001f0: 06a0 483e 92fe 053e 1904 39be 3dc1 32bd
00000200: e8cb b53e 28c0 b5bb fb54 abbd cf57 2bbf
00000210: bb59 793e 54fc f7be c404 9ebe 93c4 a53e
00000220: 7e37 7cbd 7f94 aabe 7e05 c23c 518a b2be
00000230: bffc c8be a35a 6a3d e5af 74be 2798 0b3e
00000240: b947 6dbe 8b4f 1abe c40b e73e a818 7e3e
00000250: 516a 2dbe 0f4a fa3c 7a95 4a3e 89f5 0ebe
00000260: 20c6 993e 85d1 ab3d 2fa8 8e3e 1c72 063e
00000270: 14cc c03e b755 da3e 07fd b0be c03f 07bd
00000280: 2179 333c 57e0 b93e 13b9 0b3d 4562 dc3d
00000290: a3ea 993d 30f4 7d3e a438 16bd c701 113f
000002a0: dd0d f0be af8c f63d 99b0 72be 9cf3 5cbe
000002b0: e4af d33e adeb c8bd 8878 783e c173 dbbd
000002c0: 05d4 e93e 0f04 ca3e 90a0 983e 532f 4b3e
000002d0: 1bb3 6cbe 365e aa3e 55ee 983e 65b4 41be
000002e0: f423 b53e 4300 943d c34a 063d 9661 873e
000002f0: 95bb 8e3d 330d b4bb 8649 743e dbf0 2ebf
00000300: 5e3b 353e 0d0f fbbc e348 4ebe b5c1 933e
00000310: 9d26 edbc 72f7 2cbe 1436 403d b411 ccba
00000320: d87e abbe 0d29 6fbe cebc f43e bc19 1cbe
00000330: 2c57 b0be 4e81 833d 0b74 5c3c 8496 363c
00000340: f423 843d c194 923e c9ec 973e 670e bbbc
00000350: 85ba 2f3e 4b48 bfbe a400 91bd 4fa6 833e
00000360: d765 7abe 5b6d 013f f873 fb3d f038 b03e
00000370: 7900 e0bd 0831 d23d b549 cb3e 198b 82bd
00000380: d700 0abe c612 323e 1c0b 19be eb21 91bd
00000390: 7725 c83d b10f 363d d8f0 333e fc81 4c3e
000003a0: 74c3 353d ea20 2f3e 6cac 25be dc7b 503e
000003b0: 4b2a 68be 0d48 bfbe b400 283e 99da 2e3f
000003c0: d9fa bf3d 6eed 91bd d94c 9dbb d775 30be
000003d0: ec5b 92bd c736 08be 535a 433a 98e9 85bd
000003e0: 5975 383e fee5 213e 1929 c3be 3f10 2f3e
000003f0: b7c1 1bbe ad97 483e 3c91 103e eff5 033e
0.16336446 -0.33075964 0.5456532 -0.09350263 0.34988135 -0.30013916 -0.0053823814 0.08689752
0.17511787 0.07799201 -0.14899592 -0.05448283 -0.0064023305 0.4449282 -0.03400238 0.24106754
-0.033526182 -0.051320132 0.008651124 0.3085656 0.22886254 0.21508102 0.53768945 -0.14384715
0.33922085 0.4699119 -0.2154271 0.09415821 0.5044283 0.020798067 0.6197617 0.06541521
0.08706178 -0.07642724 0.15201607 -0.011864268 0.10294535 0.24573016 0.4224901 0.31543392
0.24493274 -0.034293465 -0.3844065 0.17886405 0.2717913 0.18351486 0.17581362 0.06965768
0.028450055 0.06854142 0.45003614 0.29956594 0.24045728 0.14568943 -0.017697733 0.21187331
-0.043477606 0.41172406 -0.30412304 0.22109534 0.1037017 0.15867907 0.0923436 -0.17105304
-0.35566375 -0.16699597 0.026483985 0.26954705 -0.37345156 0.07517297 0.22782263 -0.018643266
0.0630247 0.057151187 -0.24143676 0.22004122 -0.035487067 0.28462097 0.32392257 0.12858768
-0.10216809 0.17276764 -0.11721695 -0.3872049 0.13444076 0.033737298 -0.17073019 -0.25954798
0.119232565 -0.15483063 0.6537145 -0.41860119 -0.11573972 0.43627954 -0.2256725 0.16869333
0.005330188 -0.12052238 0.0031698113 0.31074384 0.03600577 0.033252366 0.07058313 -0.57418376
0.1310508 0.32237136 0.32805595 0.27774793 -0.03652884 0.17978463 -0.39624432 -0.22592938
-0.0014869237 0.09826816 -0.26713267 0.4843993 0.03313068 0.6340986 0.4545846 0.006714699
0.20226336 -0.046452228 0.35582587 -0.03020717 0.19592294 0.13085392 -0.1806797 -0.043641318
0.3550713 -0.0055465885 -0.08365818 -0.6693086 0.24350636 -0.484347 -0.3086301 0.32376537
-0.06157636 -0.3331642 0.02368426 -0.34871152 -0.3925533 0.057215344 -0.23895223 0.1363226
-0.23171891 -0.15069406 0.45126164 0.24814093 -0.16935088 0.030552892 0.19783583 -0.13960852
0.3003397 0.08389572 0.2786269 0.13129467 0.376557 0.4264352 -0.34568045 -0.03301978
0.010954172 0.3630397 0.034112047 0.10760931 0.075154565 0.24800181 -0.03667511 0.56643337
-0.46885577 0.12038552 -0.23700179 -0.21577305 0.4134513 -0.098105766 0.24264729 -0.10715438
0.4566957 0.3945622 0.2981 0.19842272 -0.23115198 0.33275002 0.29869333 -0.18916471
0.35378993 0.072266124 0.032786142 0.2644164 0.06969372 -0.0054947375 0.23856172 -0.68336266
0.17698428 -0.030646825 -0.20144992 0.28858724 -0.028949076 -0.16891268 0.046926573 -0.0015569241
-0.33495212 -0.23355503 0.47800297 -0.15244192 -0.34441507 0.06421147 0.013455401 0.011144284
0.0645217 0.28629115 0.2967284 -0.022834016 0.17160995 -0.37359843 -0.070802 0.2571282
-0.24452911 0.5055749 0.12277979 0.3441844 -0.1093759 0.10263258 0.39704672 -0.06374187
-0.13476883 0.17389974 -0.14945644 -0.070865475 0.09772771 0.04444856 0.17572343 0.1997146
0.04437585 0.171024 -0.16179055 0.20359749 -0.22672383 -0.37359658 0.16406518 0.68302304
0.09374017 -0.07125364 -0.0048004207 -0.17232452 -0.07146439 -0.13302146 0.0007452119 -0.06538695
0.18013515 0.15810391 -0.38117293 0.17096041 -0.15210615 0.1958911 0.14117903 0.12886785

exp_avg f4 [64, 14]
00000000: bf06 09bb 9e88 0abb 593f 03bc e21d 1c3b
00000010: 77e0 f5b7 fce9 0239 92ed 8fb9 824e d03a
00000020: 5e54 123c 74d4 8cb9 19fe 973a 4f3c 9d3a
00000030: cb6c 013c 4ac3 fe3b 396c 3d3b c479 a33b
00000040: ec45 d8ba 6ad1 6fbb 0695 01b8 1f36 8eb9
00000050: 2cea 3e39 99df e0bb 2bfd 2bbc 8e4a 07b8
00000060: 897f a3b9 b5a1 faba 4a83 3bbb 8db5 7bba
00000070: 8174 f139 4078 54bb c915 d33a 657d 38ba
00000080: 31db 8536 d07a c538 9c6b 86b9 e8cb 3839
00000090: fd23 a53a f9d9 1bb9 293a 21ba 55e8 9738
000000a0: a91b cdb9 ce3f d43a ade5 a8ba 1917 d039
000000b0: 844e 2bbc 0b52 653b 8952 93b7 f631 8fb9
000000c0: 2852 9bba 2f94 64bb 8663 94ba 3d91 4e39
000000d0: ec6d 013a 8564 80b9 98a3 323c a250 3cbb
000000e0: c238 313b e596 8b3b 2eb2 79bb 89ba 22bb
000000f0: 197c 69b8 4406 53b8 a3e7 1738 c6c7 09bb
00000100: f28c a2ba 6266 6738 12f2 fa39 abdd 81b9
00000110: f64e d5b9 04b4 89b8 0962 0dbb 6bd0 623a
00000120: 4508 17ba 878d a63b 87ed c3b7 8ad3 1db9
00000130: 85bd 3aba 00aa 38bb df86 24bb 03f3 7b34
00000140: 4157 08ba f79f 09ba 7aac 883b 29e0 5fbb
00000150: 28a3 c53b 00bc 0d3c fd19 38bb 9f11 2f3b
00000160: 66b2 e8b9 8066 1ab9 224d 4439 7405 0dbc
00000170: 8985 1e3b e074 85ba 06f5 2c3b 1e31 4aba
00000180: 205f 413c b8c0 923a 9b74 95bb 0e6f 59bb
00000190: cbbf d4bb 9a7f 8bba 228a 56b9 9347 4539
000001a0: 999f cbb9 e6d5 553a a052 383c b856 30b9
000001b0: dd12 cb3a f9b0 c33a 6eb6 993b 5b3f 7dba
000001c0: 2673 b83a 4518 a3ba 86a5 fdbb 6f04 ce38
000001d0: e8b9 94b8 2507 acb9 884d 4fba fbe8 62bb
000001e0: 7bb6 cd3a 2508 8838 6fbd b03a 2868 b838
000001f0: 48b5 443b 8139 443a 4cc9 c739 535f df3b
00000200: 6256 8c39 0e57 d33a 2217 9cb9 21e1 0137
00000210: 0697 dbb8 ca71 70bb 8cd7 ab3b a716 0fba
00000220: 7845 d53a 77fe 4039 e9e0 1b3c 5f08 d3b8
00000230: e634 f43a d7cd 083c 6ef0 4b3a 3092 453b
00000240: 4475 6fb9 8e42 1b38 bbfe f6b8 f157 3abc
00000250: d575 cdbb eaaf 71ba 9595 24ba 1acd 18bb
00000260: 2551 e9ba c560 ad3b 3b91 ab3b 241c 073c
00000270: c282 73bb 4dea 9aba c45e 1c38 d78e 44b8
00000280: 08ec 92b8 b71e 28ba f1f0 2eba 3611 63b9
00000290: 8c67 3fb9 66a4 53b9 0568 cd3a 64c7 df39
000002a0: 8c96 5d3c 0651 a53a a996 aebc cf87 45bb
000002b0: 16f0 9535 7495 7437 767b 50ba 3d17 babb
000002c0: a256 17bb 6a66 51b9 ca34 f8b8 bb1b 57ba
000002d0: 5cf1 20bb cc68 34bb 6a98 4f3b 0b41 bdbb
000002e0: f8ac 513b da51 83ba 08b1 ebb6 274a da38
000002f0: 961c d4b9 3579 deba 6d48 183a e849 2236
00000300: eb9a 5eb9 ad94 d7b8 b8a2 c0ba ea66 383a
00000310: 3275 e6ba 1e36 dc39 b411 833b 1d1f 0bbb
00000320: 403c 3938 0b63 4f39 1da0 e139 6f0f 83ba
00000330: 6f28 06bb ed7f 84b9 0732 2bba 5a1f 18ba
00000340: b62f ddbb 2be7 9f3b a6ff 6738 797b a8b9
00000350: e12a 9039 3a42 76bb 88a6 2337 79ec 5839
00000360: c0ce 833a 78e8 5f3b b06d 383b c875 e3b8
00000370: ed7e 5e3a 43bf 123a 5686 68bb c948 103a
00000380: 3256 36ba d717 7c3b 9a4b 60bc 11fe 2dbb
00000390: d2bf 29b8 c1d4 acb9 1cbb 493a 84f1 373b
000003a0: 4c20 03bb 1c72 df38 2ca6 423a d2b5 a938
000003b0: d9b0 163b 1d18 0e3b 0646 08bb b680 b93b
000003c0: dc6f 6d3c fadc 9cba cc8a 93b7 7ca1 cc39
000003d0: 5b57 8d3a d7d6 013b 2be0 423a e675 74b9
000003e0: 45d9 c9b9 beff 4038 e65b fabb 2379 c33b
000003f0: 761d 3a3b f02b 94bb eebf f93a f3a6 92ba
-0.0020908562 -0.002113856 -0.008010709 0.0023821522 -2.93108e-05 0.00012484932 -0.0002745209 0.0015892538
0.0089312475 -0.0002686117 0.0011596113 0.0011996123 0.007899473 0.007774745 0.0028903617 0.004988881
-0.001650033 -0.0036593326 -3.0894786e-05 -0.00027124674 0.00018207048 -0.0068625924 -0.010497372 -3.2255943e-05
-0.00031184804 -0.0019121679 -0.002861219 -0.00096019433 0.00046053904 -0.0032420307 0.0016104515 -0.0007037728
3.989226e-06 9.4165676e-05 -0.00025638647 0.00017623568 0.0012599226 -0.00014863153 -0.0006150329 7.243516e-05
-0.00039121255 0.0016193332 -0.0012885832 0.0003969006 -0.010455731 0.0034991528 -1.7562199e-05 -0.0002731231
-0.0011850046 -0.0034878363 -0.0011321164 0.00019699796 0.0004937339 -0.00024488955 0.010903262 -0.0028734584
0.0027041887 0.0042599314 -0.0038100588 -0.0024830422 -5.5667104e-05 -5.0312156e-05 3.6216934e-05 -0.0021023615
-0.0012401624 5.5170043e-05 0.00047864072 -0.00024769953 -0.00040685356 -6.5661996e-05 -0.0021573326 0.00086522725
-0.0005761425 0.0050827893 -2.3356419e-05 -0.00015051491 -0.00071235775 -0.00281775 -0.0025104803 2.3464604e-07
-0.000520099 -0.0005249972 0.0041709514 -0.003416071 0.0060314126 0.00865078 -0.0028091662 0.0026713384
-0.00044383405 -0.00014724769 0.00018720751 -0.008607257 0.002418848 -0.0010181926 0.0026391163 -0.00077130075
0.011802465 0.0011196351 -0.0045610196 -0.0033177766 -0.00649259 -0.0010642887 -0.00020460089 0.00018814048
-0.00038838087 0.00081571785 0.011250168 -0.00016816973 0.0015493293 0.0014930061 0.0046909368 -0.0009660625
0.0014072403 -0.0012443146 -0.007740679 9.823671e-05 -7.091818e-05 -0.0003281172 -0.00079079764 -0.003462373
0.0015694642 6.4865024e-05 0.001348419 8.793204e-05 0.0030015279 0.00074853754 0.00038106216 0.0068167835
0.0002676724 0.0016123967 -0.00029771874 7.741416e-06 -0.00010470864 -0.0036688917 0.005244201 -0.00054583926
0.0016271314 0.00018405342 0.009514072 -0.00010062823 0.0018631488 0.008349857 0.0007779662 0.003014695
-0.00022836501 3.7016864e-05 -0.00011777641 -0.011373506 -0.00627015 -0.00092196336 -0.0006278393 -0.002331561
-0.0017800672 0.005291077 0.0052358187 0.008246455 -0.0037156795 -0.0011819095 3.7281556e-05 -4.686307e-05
-7.005787e-05 -0.0006413268 -0.00066734763 -0.00021654819 -0.00018253754 -0.00020183771 0.0015671259 0.00042682432
0.013524663 0.0012612648 -0.021312075 -0.0030140763 1.1171239e-06 1.4578331e-05 -0.00079529674 -0.0056790398
-0.0023092409 -0.00019969945 -0.00011835394 -0.0008205731 -0.0024557924 -0.0027528284 0.003167654 -0.005775576
0.0031993967 -0.00100189 -7.024155e-06 0.00010408862 -0.0004045709 -0.0016973378 0.0005809132 2.41829e-06
-0.00021229281 -0.00010279692 -0.0014696931 0.00070343784 -0.0017582534 0.0004200199 0.003999913 -0.0021228262
4.416355e-05 0.00019777955 0.00043034638 -0.0009999106 -0.0020470878 -0.00025272314 -0.0006530587 -0.00058030116
-0.0067500724 0.0048798523 5.5312783e-05 -0.0003213545 0.00027497768 -0.0037576095 9.754331e-06 0.00020687458
0.0010056123 0.0034165662 0.002814155 -0.00010846142 0.00084875413 0.0005597958 -0.003548046 0.000550401
-0.0006955593 0.0038466358 -0.0136899 -0.002654914 -4.0471386e-05 -0.0003296491 0.0007695423 0.0028067539
-0.0020008264 0.00010654723 0.0007425274 8.092415e-05 0.0022993593 0.0021681853 -0.002079369 0.0056610955
0.014492001 -0.0011967712 -1.7588398e-05 0.00039030227 0.001078348 0.0019811892 0.00074339163 -0.00023313574
-0.00038499586 4.6014546e-05 -0.0076403497 0.0059653684 0.0028398908 -0.0045218393 0.0019054392 -0.0011188671
